SERGIO_output3/2024-12-12(21;53)_SERGIO_data2_40epochs/interm_models/trained_model_epoch_10_sums.pt (torch, 18832 bytes, 2 tensors)

weight f4 [40, 100]
000000 de 54 db 3a 51 42 00 3b a4 e6 f3 3a 2c 3c 21 3b
       0.0016733666 0.0019570778 0.0018608165 0.0024602516
000010 7d d2 08 3b 3a 6a a5 bb 27 ea 02 3b 22 ed cd 3a
       0.0020877414 -0.0050480636 0.0019975991 0.001571093
000020 f2 0f f4 3a 3c 01 eb 3a ed 93 f3 3a a6 08 19 3b
       0.0018620475 0.0017929445 0.0018583514 0.0023351102
000030 88 4f dd 3a fb 91 20 3b d0 91 00 3b ca 61 00 3b
       0.0016884664 0.0024501074 0.001961816 0.0019589537
000040 74 b0 07 3b 5d 58 0b 3b a8 08 d9 3a 87 91 84 3a
       0.002070454 0.0021262385 0.0016558366 0.0010114171
000050 4a 7f 52 3a 7d bc bf 3a 85 36 68 3a c4 fa d5 3a
       0.0008029832 0.0014628317 0.00088582217 0.0016325344
000060 d2 87 89 3a ac 6b 60 3d e4 75 72 3a 9b 70 06 3b
       0.0010492748 0.054790184 0.00092491345 0.0020513895
000070 98 6c 0b 3b 52 b0 13 3b c6 8f 1b 3a 8c 27 67 3a
       0.0021274444 0.0022535515 0.00059342047 0.00088178436
000080 fa 54 16 3a e3 1f 99 3a 7a ea 0d 3b 56 8f ca 3a
       0.00057347084 0.0011682477 0.0021654652 0.0015454094
000090 39 d6 f9 3a 23 07 e9 3a 7a 7f af 3d 81 e8 95 3a
       0.0019061036 0.0017778616 0.08569236 0.0011437089
0000a0 19 5f e3 3a 3a 4a fe 3a c8 ce b1 3a 3a 6b 03 3b
       0.0017347067 0.0019400783 0.0013565654 0.0020052926
0000b0 53 b9 1c 3b 7e 80 12 3b d5 4f a4 3a d4 1c 58 3a
       0.0023914173 0.002235442 0.0012535999 0.0008244042
0000c0 6c 9b b6 3a ae 7f 06 3b 36 71 63 3a 8a 3a 0a 3b
       0.0013931817 0.002052288 0.00086762325 0.002109202
0000d0 6a 45 ef 3a 77 a3 11 3b 8d ea eb 3a 6f 55 72 bd
       0.001825494 0.0022222677 0.0017998979 -0.059163507
0000e0 a6 fa 9f 3a 9a ce 0b 3b 93 1b 03 3b e7 07 05 3b
       0.0012205436 0.002133286 0.002000545 0.00202989
0000f0 f4 83 a0 3a b6 51 fa 3a f8 d5 f6 3a 01 2a 96 3a
       0.0012246356 0.0019097838 0.0018832078 0.001145661
000100 0e 18 44 3a a7 1b 11 3b 08 8d ea 3a 14 46 b4 3a
       0.0007480391 0.0022141726 0.0017894814 0.0013753795
000110 c1 35 a4 3a d4 d8 f4 3a 26 16 0c 3b 3d e4 cf 3a
       0.0012528227 0.0018680342 0.0021375506 0.0015860867
000120 44 b5 00 3b 13 aa 10 3b d9 f2 66 3a 31 69 0b 3b
       0.0019639293 0.0022074028 0.0008809991 0.0021272416
000130 ff 1a 06 3b 73 3f d1 39 a7 8f 05 3b d6 14 5b 3a
       0.0020462868 0.0003991086 0.0020379813 0.0008357292
000140 41 1f 6b bc b4 94 f8 3a 42 07 bf 3a 82 02 a3 3a
       -0.014350713 0.0018965215 0.0014574307 0.001243666
000150 f5 5b 23 3b a1 10 0b 3b b5 d4 1c 3b dd 20 21 3b
       0.0024926637 0.0021219628 0.0023930494 0.0024586238
000160 4e bb d6 3a 48 ed 1f 3b 91 36 d4 3a c4 f9 b7 3a
       0.0016382725 0.0024402905 0.0016190578 0.0014036228
000170 d0 7a 0f 3b 10 0e 95 3a d4 9f 18 3b ab 3b 1e 3b
       0.002189327 0.0011371989 0.0023288624 0.0024144452
000180 fc e8 0b 3b dc 1a e5 3a 31 01 8f 3a 4e b8 22 3d
       0.0021348586 0.0017479318 0.0010910389 0.039726548
000190 ea 1f 84 3b b9 87 ac 3a b9 02 83 3b 05 46 61 3b
       0.0040321248 0.0013163007 0.0039981273 0.003437401
0001a0 94 97 84 3b 3f 6a 8e 3b 70 46 8e 3b 5f 60 86 3b
       0.00404639 0.0043461616 0.004341893 0.004100844
0001b0 12 ce 7e 3b aa 33 9e 3a e0 60 03 bd 2e 79 8d 3b
       0.0038880152 0.001206984 -0.03207481 0.0043174243
0001c0 19 8b 72 3b 8b 02 8e 3b 7e f8 64 3b ee 38 b4 3a
       0.0037009178 0.0043337992 0.0034938152 0.0013749877
0001d0 f3 a7 3c 3b 2c 3d 6a 3b 0e b2 97 3b 5a 18 85 3b
       0.002878663 0.0035742028 0.00462938 0.004061741
0001e0 61 c9 87 3b 6f 1c 84 3b b3 a5 8b 3b 56 f1 b6 3a
       0.0041438793 0.00403171 0.0042616962 0.0013957422
0001f0 51 7d 89 3b 41 47 86 3b 83 4e 77 3b 5f 88 8d 3b
       0.004195847 0.0040978496 0.0037736006 0.004319235
000200 54 35 ab 3a ad 10 90 3b 46 97 80 3b 3d e8 8a 3b
       0.0013062158 0.004396519 0.003924283 0.0042391107
000210 99 20 86 3b 44 b9 88 3b 50 fc 85 3b be 61 f0 3a
       0.0040932414 0.004172476 0.004088916 0.0018339676
000220 7c 92 8b 3b e5 6d 5e 3b b8 ad 5f 3b a5 6f a3 3d
       0.0042594057 0.0033940014 0.0034130644 0.07980279
000230 83 1d 56 3b 08 87 92 3b 1a d8 84 3b 94 cb 4c 3b
       0.00326714 0.0044716634 0.0040540816 0.0031249272
000240 48 c4 8a 3b 7b 39 18 3b 9a cb 88 3b f9 0b 87 3b
       0.0042348243 0.002322762 0.004174662 0.0041213003
000250 38 4b 17 3b ee fa bf 3a 2d cf 8e 3b 48 0d 54 3d
       0.0023085605 0.0014646926 0.0043581934 0.05177048
000260 98 20 5f 3b d5 16 8b 3b c2 d8 b6 3a d7 dc 71 3b
       0.0034046527 0.004244665 0.0013950097 0.0036905312
000270 bf c2 87 3b 58 5d 8f 3b 45 de 5e 3b a7 bd 89 3b
       0.0041430886 0.004375141 0.0034006995 0.0042035165
000280 9d e5 85 3b f7 3e bb 3a 9b 43 6c 3b e8 f7 84 3b
       0.00408621 0.0014285733 0.0036051038 0.004057873
000290 67 ce 6a 3b a6 a1 66 3b 39 75 8d 3b 2a 7e f2 3a
       0.0035828592 0.0035191565 0.0043169525 0.0018500735
0002a0 14 7e 67 3b b7 fd 61 3b 14 e3 a4 3a 26 9c 6c 3b
       0.003532295 0.0034483501 0.0012579882 0.0036103814
0002b0 39 bb ed 3a 67 4b 8c 3b 1e 7c 8a 3b 3c c7 8e 3b
       0.0018137462 0.0042814496 0.0042262217 0.0043572467
0002c0 ac c2 6b 3b 22 62 96 3b 6f 34 f3 3a 46 ff 60 3b
       0.0035974188 0.004589335 0.0018555055 0.0034331842
0002d0 c6 54 ef 3a ce b1 4f 3b a6 a5 0f 3b 68 e5 87 3b
       0.0018259517 0.0031691673 0.0021918803 0.0041472204
0002e0 40 e6 89 3b 23 b4 94 3a 92 df 80 3b 25 32 8d 3b
       0.004208356 0.0011345189 0.0039329017 0.004308956
0002f0 87 6b 28 3b c9 0e 0f 3b 1a 0f 74 3a 5a 03 80 3b
       0.0025698857 0.002182888 0.00093101116 0.0039066495
000300 a4 8f 78 3b 27 e0 0e 3b bc 03 e2 3a d1 6d c7 3a
       0.0037927413 0.0021801086 0.0017243545 0.0015215223
000310 91 6a 44 3b e8 70 60 3b 5a d1 87 3b 99 8b 8b 3b
       0.0029970745 0.0034246985 0.0041448297 0.0042585847
000320 68 34 72 bb 86 cb 56 bb 6c 19 62 bb 86 99 6a bb
       -0.0036957506 -0.0032775118 -0.0034500016 -0.0035797074
000330 9f cd 77 bb b2 5d 81 bb 9f 7e 7c bb 73 ea 78 bb
       -0.0037811769 -0.003947937 -0.003852762 -0.003798154
000340 80 2b 72 bb a7 c4 42 bb ef f2 2e bb 10 1f 6e bb
       -0.0036952198 -0.0029719265 -0.0026695093 -0.0036334433
000350 5f 63 29 bb 47 13 7d bb 3e 05 56 bb 09 83 54 bb
       -0.0025846583 -0.0038616227 -0.0032656933 -0.0032426736
000360 8c c8 41 bb 7f c5 43 bb 60 4f 57 3b 7f f3 6f bb
       -0.0029568998 -0.0029872356 0.0032853708 -0.003661364
000370 3e 10 6e bb 5e 9e 53 bb 1e de 77 bb 16 bd 50 bb
       -0.00363256 -0.003229044 -0.00378216 -0.0031850985
000380 b2 0d 76 bb d0 2e 71 bb 5b ab 65 bb e4 b5 cc bc
       -0.0037544784 -0.0036801584 -0.0035044763 -0.024989076
000390 98 18 52 bb 47 02 7a bb ad ff 69 bb 25 24 70 bb
       -0.0032058116 -0.003814833 -0.0035705373 -0.0036642638
0003a0 a0 6f 6d bb d4 81 6e bb 27 17 52 bb 76 0d 1f bb
       -0.0036229864 -0.0036393302 -0.0032057257 -0.0024269498
0003b0 43 20 7a bb 92 27 37 bb 9c a4 0e bb 66 8e 68 bb
       -0.0038166202 -0.002794717 -0.0021765595 -0.0035485267
0003c0 39 f5 35 bd b1 56 71 bb 6b 98 74 bb f7 65 38 bb
       -0.044423316 -0.0036825354 -0.0037322294 -0.0028136948
0003d0 6d 53 7c bb 14 c8 1f bb 9f 94 74 bb a1 14 6a bb
       -0.0038501874 -0.002438073 -0.003732003 -0.0035717862
0003e0 1e 20 52 bb ed 64 52 bb a3 19 79 bb 39 6a 4c bb
       -0.00320626 -0.0032103613 -0.0038009665 -0.0031191243
0003f0 7c bc 28 bb 84 74 77 bb c0 93 53 bb 9c a0 5e bb
       -0.002574711 -0.0037758658 -0.003228411 -0.0033970242

bias f4 [40]
000000 17 88 ea 3b 61 c6 00 3d 91 b7 31 bc ae 2c 9a 3d
       0.0071573365 0.03143919 -0.010846988 0.07528053
000010 b4 d8 21 bc 53 8e 0d 3d 1b a0 c8 bd 82 01 79 3d
       -0.009878326 0.03455956 -0.09796163 0.060792454
000020 b9 b3 ba 3d d5 85 be bd 74 28 1e bd a8 63 9e bd
       0.091163106 -0.0930287 -0.038612798 -0.07733852
000030 86 e7 52 3c 77 6d b8 bb e9 79 33 3d c7 1f ca bc
       0.012872582 -0.0056282836 0.043817434 -0.024673356
000040 8f fa 61 3d 03 b7 a3 3d b1 6f be bc 44 23 ae bd
       0.055170592 0.07993891 -0.023246618 -0.0850282
000050 39 38 2e bd 79 a8 87 3d df 91 6e bc f0 8f 85 3d
       -0.042534087 0.066239305 -0.014561146 0.065215945
000060 7c 86 c5 bb 2b 57 c2 bd 6b aa 84 3d 29 5d c8 3c
       -0.0060279947 -0.09489282 0.06477817 0.024458485
000070 4b ca 04 bb 3e f2 aa bd fc 98 b6 3d 38 3d 9e bd
       -0.0020262178 -0.08346985 0.08915898 -0.0772652
000080 cc 16 9d 3d b8 87 6a bd c2 ba 95 3d 03 f0 e8 3b
       0.07670364 -0.057258338 0.07311012 0.0071086898
000090 80 99 95 bd aa 14 33 3d 89 25 59 bd 50 4b 34 bd
       -0.073046684 0.04372088 -0.053014312 -0.044017136
