SERGIO_output3/2024-12-12(21;53)_SERGIO_data2_40epochs/interm_models/trained_model_epoch_1_alpha_comb.pt (torch, 34265 bytes, 1 tensors)

weight f4 [100, 80]
00000000: 21b4 023a 75e6 f83d 7ccf 02ba 508d 02ba
00000010: 7dbb 023a 0db7 02ba f2d7 023a acf0 02ba
00000020: 14f1 02ba bbec 023a 4cc1 023a fdef 023a
00000030: 62af a9bc 39d9 02ba f1b0 02ba 9699 023a
00000040: 50f5 02ba 59da 02ba b1cc 023a 3dd1 023a
00000050: 86f2 023a 0bf3 02ba 36ed 023a 4ff2 02ba
00000060: ad67 013a 0000 033a c6f6 02ba 82f0 02ba
00000070: bb80 013a 89fa 023a 49db 02ba 3fd2 023a
00000080: 0865 debb 48fc 023a 30f9 02ba 5bc2 02ba
00000090: 17fc 023a 6813 02ba 36bc 023a 179a 023a
000000a0: b70f 03ba 410f 03ba fc0e 03ba cc0f 03ba
000000b0: 860f 03ba c80f 03ba 850f 03ba df0f 03ba
000000c0: e70f 03ba 6c0f 03ba 720f 03ba c80f 03ba
000000d0: 800f 03ba 8a0f 03ba e70f 03ba 450f 03ba
000000e0: 510f 03ba 850f 03ba bb0f 03ba 9d0f 03ba
000000f0: 620f 03ba af0f 03ba c30f 03ba 680f 03ba
00000100: 7b0f 03ba c4f2 df3b 940f 03ba 900f 03ba
00000110: 620f 03ba 6b0f 03ba 940f 03ba 970f 03ba
00000120: 5d0f 03ba 920f 03ba 570f 03ba be0f 03ba
00000130: eb0f 03ba 330f 03ba 370f 03ba b935 663d
00000140: e8b9 013a 0785 003a 4938 013a 86d3 fbb9
00000150: 5404 02ba b078 013a 7c40 02ba c387 023a
00000160: cb65 023a f16b 02ba dcc2 013a 7651 02ba
00000170: 4af6 f8b9 30c2 f639 96b3 013a 6790 01ba
00000180: 443f 023a 919d 013a ebc8 cfb9 0a41 02ba
00000190: 989b 02ba 7748 023a 7d7c 01ba 5acc ecb9
000001a0: 4430 01ba 73aa 02ba 077d 023a 9776 023a
000001b0: c149 f1b9 1b6f 02ba 04ff 013a 61ba 01ba
000001c0: 1f49 023a 8ca3 02ba 4bce 30bc 0354 023a
000001d0: 68a1 02ba e0a3 003a 965e 02ba a875 00ba
000001e0: 1f03 033a 9901 033a 9000 033a e503 033a
000001f0: 4002 033a 4f04 033a a402 033a eb04 033a
00000200: 0e04 033a 8f00 033a e401 033a 0b04 033a
00000210: 3002 033a cd02 033a f903 033a 0f01 033a
00000220: f300 033a ac02 033a 4d03 033a 1a03 033a
00000230: b802 033a 3e03 033a 7203 033a 2302 033a
00000240: 6303 033a fb03 033a 1003 033a 7a03 033a
00000250: 3401 033a 2103 033a 0403 033a 3403 033a
00000260: f001 033a 9702 033a ca01 033a 1304 033a
00000270: c004 033a 8900 033a 7301 033a e702 033a
00000280: 4e94 013a 501d ffb9 6857 023a 0144 01ba
00000290: 1266 02ba ffc0 013a d537 02ba f890 023a
000002a0: 955d 023a 1e7e 02ba 1b4e 023a 5567 02ba
000002b0: 2194 01ba 39ef 013a 1b49 013a 2662 02ba
000002c0: 873c 023a bb54 fe39 0575 e9b9 5a1c 02ba
000002d0: baa8 02ba e335 023a e23b 02ba 065b ff39
000002e0: a5e6 00ba 54c8 02ba ac8c 023a 1dae 023a
000002f0: 188e fcb9 a264 02ba 0e6d 003a 5a91 ffb9
00000300: f03d 023a 9fbb 02ba 87ac 023a 329d 023a
00000310: 3ab6 02ba bdc9 013a 0b39 02ba 0a1d bb38
00000320: b402 033a 7101 033a 3cff 023a 4004 033a
00000330: c3c5 693d c303 033a 2b02 033a 0805 033a
00000340: fc03 033a efff 023a 6f01 033a a803 033a
00000350: bb01 033a 4302 033a b403 033a b100 033a
00000360: 2700 033a 4902 033a c802 033a 4e03 033a
00000370: 9f01 033a 0603 033a 5d03 033a 3f02 033a
00000380: 7203 033a 8d03 033a fc02 033a c903 033a
00000390: d500 033a bd02 033a bc02 033a c002 033a
000003a0: 6801 033a d801 033a d000 033a cf04 033a
000003b0: bf04 033a f9ff 023a 6e3d 8bbd 5a02 033a
000003c0: 3c9e 023a 99f1 01ba 249b 02ba f887 02ba
000003d0: 8b88 023a 94b3 02ba e2c6 023a f5e8 02ba
000003e0: 4ced 02ba c2e5 023a 8bcc 023a 62ea 023a
000003f0: ab18 d7b9 90be 02ba f1b4 02ba f99b 013a
0.0004985948 0.12153331 -0.0004990024 -0.00049801636 0.00049870444 -0.0004986383 0.0004991285 -0.00049949693
-0.000499503 0.0004994382 0.000498791 0.00049948675 -0.020713512 -0.0004991475 -0.0004985473 0.00049819925
-0.0004995661 -0.0004991643 0.0004989608 0.00049902854 0.0004995245 -0.00049953227 0.00049944536 -0.0004995213
0.00049364084 0.00049972534 -0.00049958786 -0.0004994945 0.0004940142 0.0004996439 -0.00049917825 0.00049904356
-0.006786946 0.0004996699 -0.0004996238 -0.00049880677 0.0004996671 -0.0004961998 0.0004987152 0.00049820676
-0.0004999595 -0.00049995264 -0.0004999486 -0.00049996073 -0.00049995666 -0.0004999605 -0.0004999566 -0.00049996184
-0.0004999623 -0.00049995515 -0.0004999555 -0.0004999605 -0.0004999563 -0.0004999569 -0.0004999623 -0.0004999529
-0.0004999536 -0.0004999566 -0.00049995974 -0.000499958 -0.00049995456 -0.00049995905 -0.0004999602 -0.0004999549
-0.000499956 0.00683436 -0.0004999575 -0.00049995724 -0.00049995456 -0.0004999551 -0.0004999575 -0.00049995765
-0.0004999543 -0.00049995736 -0.0004999539 -0.0004999599 -0.00049996254 -0.0004999518 -0.00049995206 0.056203578
0.00049486617 0.0004902635 0.00049293466 -0.00048032048 -0.00049597514 0.00049389433 -0.00049687154 0.00049793365
0.0004974275 -0.0004975191 0.0004949996 -0.0004971245 -0.00047485746 0.00047065457 0.000494772 -0.0004942477
0.0004968534 0.00049444387 -0.00039631812 -0.0004968798 -0.0004982292 0.00049699045 -0.00049395097 -0.00045165682
-0.00049281516 -0.00049845054 0.0004977737 0.0004976778 -0.00046022053 -0.00049756625 0.000495896 -0.0004948732
0.00049700023 -0.0004983477 -0.010791372 0.0004971625 -0.0004983158 0.0004907232 -0.0004973201 -0.00049003446
0.00049977185 0.00049974915 0.0004997337 0.0004997834 0.00049975887 0.00049978954 0.0004997647 0.0004997986
0.00049978576 0.00049973367 0.0004997535 0.0004997856 0.00049975794 0.0004997671 0.00049978454 0.0004997411
0.0004997395 0.00049976516 0.0004997745 0.00049977156 0.00049976585 0.00049977365 0.0004997767 0.0004997572
0.0004997758 0.00049978466 0.000499771 0.00049977715 0.00049974327 0.00049977197 0.0004997703 0.0004997731
0.0004997542 0.00049976393 0.000499752 0.00049978605 0.0004997961 0.0004997333 0.00049974694 0.0004997686
0.00049430586 -0.0004865923 0.0004972131 -0.0004931093 -0.0004974316 0.0004949718 -0.0004967426 0.00049807085
0.0004973051 -0.00049778994 0.0004970745 -0.0004974504 -0.00049430324 0.00049566064 0.0004931853 -0.00049737317
0.0004968126 0.00048509784 -0.0004452841 -0.0004963331 -0.00049842487 0.0004967136 -0.00049680297 0.00048705208
-0.0004917181 -0.00049889577 0.0004980068 0.00049850513 -0.00048171054 -0.0004974102 0.0004899063 -0.00048745685
0.0004968336 -0.0004987064 0.0004984815 0.00049825304 -0.00049862603 0.0004951021 -0.00049676065 8.922264e-05
0.0004997656 0.0004997468 0.00049971393 0.0004997887 0.057073366 0.0004997814 0.00049975765 0.0004998003
0.0004997847 0.00049972435 0.0004997467 0.0004997798 0.0004997511 0.00049975904 0.0004997805 0.00049973564
0.0004997276 0.0004997594 0.0004997668 0.0004997746 0.0004997495 0.0004997704 0.00049977546 0.0004997588
0.0004997767 0.00049977825 0.0004997698 0.00049978175 0.00049973774 0.00049976615 0.0004997661 0.0004997663
0.0004997463 0.0004997528 0.00049973745 0.000499797 0.00049979606 0.00049972493 -0.06798826 0.0004997604
0.0004982685 -0.00049569603 -0.0004982224 -0.00049793674 0.0004979453 -0.00049858657 0.00049887423 -0.000499382
-0.00049944664 0.0004993343 0.0004989586 0.0004994032 -0.00041026375 -0.00049875025 -0.0004986069 0.0004944201
