SERGIO_output3/2024-12-12(21;53)_SERGIO_data2_40epochs/interm_models/trained_model_epoch_30_prods.pt (torch, 18838 bytes, 2 tensors)

weight f4 [40, 100]
000000 1f 42 0b 3c ce 46 cd 3b 8b d4 bb 3b ea db 06 3c
       0.008499651 0.006264544 0.005732124 0.008231143
000010 5e 46 19 3c 65 6e 0f 3c 17 10 11 3c 6d 1e 0b 3c
       0.009355156 0.008754347 0.008853934 0.008491141
000020 cd 66 02 3c dc fa bf 3b 0a 1a cd 3a 41 b3 e7 3b
       0.00795908 0.005858762 0.0015648019 0.0070709293
000030 8c 9e ba 3a 08 da 19 3c 72 a9 9d 3b 3f e7 a5 3b
       0.0014237924 0.009390362 0.004811459 0.005062967
000040 ba 7e 2c 3b 7a 54 59 3b 6c 6c d9 3b 4f 1a de 3b
       0.0026320652 0.0033161924 0.0066352393 0.0067780386
000050 fa 2e da 3b 01 c7 86 3b 40 19 ea 3b 41 1c a6 3b
       0.006658432 0.0041130786 0.0071441233 0.005069286
000060 55 72 f4 3b 02 3f e4 3b c0 fc bc 3b d1 f1 17 3c
       0.0074599185 0.006965519 0.005767435 0.009273962
000070 25 d9 4d 3d d1 0e 18 3c ff 1b cf 3b 7e 9d dd 3b
       0.050255913 0.009280876 0.006320476 0.0067631593
000080 86 16 9b 3c c8 5d df 3b a4 ca 8d 3b c9 b6 06 bb
       0.018931638 0.0068165995 0.004327135 -0.0020555726
000090 26 52 0f 3c 49 ac 10 3b 88 ac 0f 39 fc 81 c8 3b
       0.008747613 0.0022075346 0.00013701816 0.006119011
0000a0 8d 56 60 bd 5e 29 e2 3b 7e 97 f3 3b 2e 16 0a 3b
       -0.05477004 0.006901904 0.0074338308 0.002107035
0000b0 15 e8 16 3c 6c f7 83 b9 d0 36 fd 3b 39 75 c9 3b
       0.009210606 -0.0002517061 0.0077274814 0.006148007
0000c0 87 e9 91 3b 1e 1a a6 3b f7 12 f2 3b b4 a3 86 3b
       0.0044528875 0.0050690314 0.0073875147 0.0041088704
0000d0 82 f1 9a 3a f2 35 13 3c 57 30 a7 3b c3 07 cd 3b
       0.0011821243 0.0089850295 0.005102198 0.006257029
0000e0 d3 be f2 3b a6 e6 1a 3c 76 55 d1 3a ca 4c 13 3c
       0.007408002 0.009454405 0.0015970904 0.008990476
0000f0 2e 6f ef 3b a5 7d a2 3b 93 61 3e 3b f7 ae b8 3b
       0.007306955 0.0049588257 0.0029049858 0.005636092
000100 aa d4 a4 3b 56 27 c9 3a 7d e6 99 3b 4d d9 45 bb
       0.0050302343 0.0015346806 0.004696666 -0.0030189336
000110 19 ec b9 3a 20 e8 c9 3a 09 e0 92 3b 83 b3 ff 3a
       0.0014184742 0.0015404262 0.0044822735 0.0019508455
000120 92 ac 15 ba 88 3d 19 3c 8b d8 12 3d b8 24 18 3c
       -0.0005709614 0.009353049 0.035851043 0.009286098
000130 7c f0 08 3c f9 25 30 3b 5b d6 d5 3b 08 01 f0 3a
       0.008358117 0.0026878102 0.0065257973 0.0018310854
000140 da 98 89 3b 43 ad b0 3a aa 79 80 bb db e6 06 3c
       0.0041991295 0.001347937 -0.0039207535 0.008233751
000150 8f b0 0c 3c ab 04 b2 3b 2e bf 13 bc 44 c7 16 3c
       0.008587017 0.0054326854 -0.009017749 0.009202782
000160 d3 f3 96 bd ad 37 be 3b 8f 3a f1 3a e2 60 8e 3b
       -0.073707245 0.005804977 0.0018404293 0.0043450454
000170 15 e2 da 3b 47 17 42 3a f4 64 a0 3b bc e8 b5 3b
       0.006679783 0.0007403981 0.004894847 0.0055514257
000180 d5 27 49 3b c0 92 b6 3a c2 ff ee 3b ce a7 5d 3b
       0.0030693908 0.0013929233 0.0072936723 0.0033821943
000190 d7 a4 af 3b b6 02 59 3b ac 1e a3 3b 11 0f 4a 3b
       0.0053602266 0.0033113188 0.0049780216 0.0030831734
0001a0 1a cb 4f 3b 20 75 24 3b 06 ff 9d 3b 60 5b ad 3b
       0.0031706751 0.0025094226 0.004821661 0.0052904338
0001b0 a6 67 ab 3b fb 1b a8 3b 89 97 b0 3b 5f 65 73 3b
       0.0052308617 0.0051302887 0.005389158 0.003713928
0001c0 a7 6b d3 3b 85 23 25 3b 7a 6d a8 3b 0d ed 90 3b
       0.006452042 0.0025198173 0.0051400037 0.00442279
0001d0 94 e6 a0 3b 95 28 9e 3b 70 0c ac 3b ed cc ce 3b
       0.0049102996 0.004826615 0.005250506 0.00631105
0001e0 4a 55 d1 3b 22 bb cf 3b 70 da d3 3b a1 03 a4 3b
       0.006388341 0.0063394466 0.0064652488 0.0050053154
0001f0 1a b7 cb 3b 08 f2 ce 3b c8 75 d7 3b 6a e9 25 3b
       0.0062168958 0.0063154735 0.00657532 0.0025316128
000200 81 96 97 3b f3 b0 2f 3b 2f 1b d2 3b bc 36 d0 3b
       0.0046260958 0.002680835 0.006411932 0.006354181
000210 0d d4 d5 3b e8 e9 cc 3b 2d a9 a9 3b 02 78 e8 3b
       0.0065255226 0.0062534697 0.005177638 0.007094384
000220 c4 77 87 3b 71 52 b8 3b f4 97 a2 3b 22 d8 ce 3b
       0.00413415 0.005625062 0.004961962 0.006312386
000230 32 e3 ac 3b 8a 9c 8e 3b 70 ed c7 3b 54 1d be 3b
       0.005276107 0.004352157 0.006101303 0.005801836
000240 f2 10 39 3b 43 40 9f 3b 39 77 be 3b 99 54 d1 3b
       0.002823886 0.0048599555 0.0058125523 0.0063882587
000250 ab a8 c1 3b bb 45 93 3b 78 ba ce 3b 57 fb a5 3b
       0.0059099994 0.0044943965 0.00630885 0.0050653624
000260 1d 13 bc 3b df 05 82 3b dd 1e a7 3b 03 75 61 3b
       0.005739583 0.003967985 0.0051001147 0.003440202
000270 6b 33 c6 3b 11 0d 2b 3b 62 bc b5 3b 99 09 38 3b
       0.00604861 0.0026100317 0.0055461386 0.0028081893
000280 4d 39 c5 3b 9c 5a 9b 3b e3 92 b0 3b d2 8c d7 3b
       0.0060187937 0.004741026 0.005388604 0.0065780664
000290 e7 2f da 3b e5 a1 bc 3b 20 6e a6 3b 34 db f2 3b
       0.0066585424 0.005756604 0.005079046 0.007411385
0002a0 7e 01 dc 3b 02 da be 3b 32 c7 a7 3b 1b 8f b0 3b
       0.006714045 0.0058243284 0.0051201815 0.0053881533
0002b0 7c 24 dd 3b 47 cc 2c 3b 84 10 d3 3b 29 8a 22 3b
       0.006748734 0.0026366876 0.006441178 0.0024801588
0002c0 a9 80 15 bd 54 15 e5 3b 9d df 83 3b 26 6f e9 3b
       -0.036499653 0.006991068 0.0040244595 0.0071238456
0002d0 d9 f9 ab 3c 79 0d bf 3b 3b 8f f6 3b e3 9e be 3b
       0.02099316 0.0058304635 0.0075243986 0.0058172806
0002e0 ae fc 2b 3b 39 d8 88 3b 59 51 57 3b 3c cc 27 3b
       0.0026243138 0.0041761664 0.0032854883 0.002560391
0002f0 7a 0d bc 3b 75 b9 51 3b 3e 3c a8 3b 59 19 cc 3b
       0.005738911 0.003200141 0.0051341346 0.0062286076
000300 6f 71 81 3b 8f 71 e6 3b 50 02 84 3b 5a a4 8e 3b
       0.00395029 0.00703258 0.004028596 0.0043530883
000310 1a 3a a0 3b 65 05 f4 3c 63 33 cc 3b 4a 8b bc 3b
       0.0048897387 0.029787729 0.0062317117 0.0057539092
000320 47 1c 98 3b d9 b3 d4 3b d3 5e 8f 3b 77 2f c5 3b
       0.004642043 0.006491166 0.0043753176 0.006017621
000330 ba 67 b6 3b 74 d4 b3 3b 7c 5a 9a 3b 4a ba 97 3b
       0.0055665644 0.005487973 0.0047104936 0.0046303617
000340 26 90 97 3b 93 2a bf 3b 1d 98 70 3b 27 40 84 3c
       0.004625338 0.0058339327 0.003671176 0.016143871
000350 01 b6 42 3b 3e 2d b7 3b 80 50 91 3b 3a 7d bb 3b
       0.0029710534 0.00559011 0.004434645 0.0057217153
000360 c6 c8 94 3b 03 0c 8b 3b 38 e7 79 3b f3 18 74 3b
       0.0045405356 0.0042433753 0.0038132202 0.0037246316
000370 38 82 6c 3b 5c 4a 56 3b b1 d9 6e 3b ff 9d b3 3b
       0.0036088359 0.003269813 0.0036445672 0.005481481
000380 ba f4 7e 3b f5 80 76 3b 07 f3 62 3b 6d a6 b5 3b
       0.0038903193 0.0037613485 0.003462972 0.005543521
000390 b4 43 0d b9 5f da b2 3b 33 ea 6f 3b 3f d5 6b 3b
       -0.00013472029 0.005458161 0.00366081 0.003598526
0003a0 00 bb 66 3b 49 b0 73 3b 53 68 f9 3d b8 7a 77 3b
       0.0035206676 0.0037183932 0.121781014 0.0037762355
0003b0 c5 1e a0 3b 39 a3 7a 3b 8c 7c 67 3b 23 0b 51 3b
       0.0048864805 0.003824426 0.0035322038 0.0031897507
0003c0 18 70 8a 3b 18 b2 89 3b bf a2 83 3b e0 40 7f 3b
       0.0042247884 0.0042021386 0.0040172036 0.003894858
0003d0 c5 d0 b4 3b 82 7b 8a 3b a7 1d 89 3b a9 ab 56 3b
       0.0055180513 0.004226149 0.004184443 0.0032756126
0003e0 47 7a 9c 3b 62 7d b8 3b b0 af 71 3b 02 18 54 3b
       0.004775319 0.005630181 0.00368784 0.0032362943
0003f0 3b 42 5b 3b 95 57 a6 3b 7a ca b1 3b 12 2d ac 3b
       0.0033456224 0.0050763586 0.0054257484 0.0052543962

bias f4 [40]
000000 76 85 00 3d 0f 37 c9 bd ff ee c7 bd 85 37 9e 3c
       0.03137728 -0.09824955 -0.09762382 0.019313583
000010 3c 49 f9 bc b4 0f 52 3d 02 10 8d bc 9b d9 97 3d
       -0.030430429 0.051284507 -0.017219547 0.07414552
000020 94 b9 b5 3d a0 aa b1 bc 72 3d c4 bd 52 9a b1 3d
       0.08873287 -0.021687806 -0.09582032 0.086720124
000030 ec 20 ad 3c 05 74 9f bb 26 52 0d 3d 37 c5 cc bd
       0.021133862 -0.0048661255 0.03450217 -0.09998553
000040 90 9c 6f bd 64 14 89 bc 26 be 96 3d 11 78 16 bd
       -0.05849892 -0.016733356 0.07360487 -0.036735598
000050 e4 59 21 3c 18 be af 3c 2e a6 83 3d b5 bc 3e bd
       0.009848092 0.021452948 0.06428181 -0.046566684
000060 7b 5a a2 3c 7d 7b aa 3d 1b ca f7 b8 5c 03 52 3c
       0.019818535 0.08324335 -0.00011815523 0.012818184
000070 a3 02 1f bc 1b db bb bc ef 3f 81 3c 3a 61 d4 3c
       -0.0097052185 -0.022931626 0.015777556 0.025925267
000080 8f c8 3f bd 96 61 ef 3c 1d 1b a4 3b 59 96 cd bc
       -0.046822127 0.029221337 0.005008115 -0.025096105
000090 fd d3 a6 3d 95 8d a8 bd e6 c7 c2 bd 9b 0d 9b 3c
       0.08145902 -0.0823013 -0.09510784 0.018927386
