SERGIO_output3/2024-12-12(21;53)_SERGIO_data2_40epochs/interm_models/trained_model_epoch_15_prods.pt (torch, 18838 bytes, 2 tensors)

weight f4 [40, 100]
0.0031301905 0.0023825634 0.001403199 0.003259731 0.0038569286 0.003342204 0.0033541874 0.0031085017
0.0027805811 0.0020141779 -0.0005068927 0.002231581 -0.00068508886 0.003862017 0.0009987367 0.0015359577
7.6509576e-05 0.00027135262 0.0021364829 0.0018939513 0.0018048768 0.00041447105 0.002085324 0.0014797854
0.0023238924 0.0020127483 0.0013047266 0.0037865578 0.04686058 0.003767988 0.0016302709 0.0018602661
0.014126891 0.0019113445 0.0006208672 -0.0017192296 0.003325316 -0.00024819086 -0.0010271721 0.0014460797
-0.057863966 0.0020194347 0.0023424812 -0.00026062434 0.0037342638 -0.0009893989 0.0025490185 0.0014734846
0.00093636144 0.0015227908 0.0022380794 0.00038657922 -0.0006931204 0.0035148826 0.0014755498 0.0019275039
0.0023096655 0.0038902771 -0.00050589535 0.003595795 0.002255287 0.001445931 3.289929e-05 0.0011648391
0.00090157136 -0.00055853423 0.0007581349 -0.0025391968 -0.00067748 -0.00054716284 0.0011855282 -0.0003710112
-0.0011300371 0.0038483574 0.0310917 0.0037955986 0.0032488885 -0.00045267414 0.00230214 -0.0005843064
0.0011128272 -0.00057695346 -0.0029836649 0.0029305997 0.0033476914 0.0019704304 -0.01406635 0.0037358026
-0.07677133 0.0020245435 0.0001672098 0.0005920229 0.0021594763 -0.00078370364 0.0015598589 0.0018953753
0.0002652825 -0.0006527417 0.002221234 4.4173677e-05 0.0028853447 0.0025856378 0.0027823774 0.0022625974
0.0022325418 0.0019213952 0.0026863494 0.002852333 0.0028583785 0.0031492077 0.002989875 0.0023353456
0.0032820539 0.0020051661 0.0028666616 0.00286549 0.0028814476 0.0027926476 0.0029338605 0.0031692656
0.003190376 0.003186158 0.003202355 0.0030259124 0.0031255712 0.003169104 0.003272812 0.0020131792
0.002932626 0.0020456894 0.003216859 0.003168218 0.003236195 0.0031441955 0.002838009 0.003746547
0.002484786 0.0030560743 0.0028975757 0.0031512768 0.0029468846 0.0024948644 0.0031052316 0.0031318213
0.002101875 0.0030081135 0.0030049686 0.0031814603 0.0031944758 0.0028775327 0.0031335144 0.002733266
0.0030927118 0.0024435483 0.0030477322 0.0023517986 0.0030859571 0.0020213833 0.003036941 0.0021069713
0.0030772605 0.002955197 0.00295104 0.0032529358 0.0033262651 0.0031047345 0.0027454654 0.003850484
0.0033950754 0.0031141054 0.0030828298 0.0029668876 0.0036073078 0.0020473662 0.003199883 0.00199576
-0.038195316 0.003296245 0.0026921711 0.003515884 0.01935724 0.003168198 0.003884052 0.0030026871
0.0020514424 0.0028811737 0.002280383 0.0020206696 0.0031506463 0.0024555575 0.0031975564 0.0031833125
0.002521383 0.0036080466 0.002753855 0.0028636814 0.0028615487 0.026707903 0.0031312208 0.0029670286
0.0045924755 0.005208251 0.004565714 0.004991671 0.004844529 0.004791135 0.0045971638 0.0045860447
0.004601884 0.005060963 0.0044667493 0.01607017 0.0042479197 0.004843618 0.004608139 0.005012823
0.004696531 0.004586211 0.0043992344 0.0043532294 0.0043202043 0.0042691864 0.0043154326 0.0049441718
0.004384321 0.0043599624 0.0043029985 0.0048343623 -0.0007696909 0.0048056925 0.004346524 0.0043108994
0.0042968397 0.0043477225 0.12239446 0.004605369 0.0046559284 0.004491691 0.0044644023 0.004208852
0.004585816 0.004479237 0.0044272733 0.0045185154 0.00482882 0.0046991715 0.0044671744 0.0042357794
0.004727794 0.004986505 0.0043189563 0.004248447 0.0043796627 0.004706069 0.0049279453 0.004813373
00000000: e223 4d3b c824 1c3b 8ceb b73a 36a1 553b
00000010: 86c4 7c3b e108 5b3b edd1 5b3b 01b8 4b3b
00000020: 693a 363b 4c00 043b fee0 04ba b73f 123b
00000030: 8997 33ba e519 7d3b 0be8 823a 3052 c93a
00000040: c473 a038 5544 8e39 3c04 0c3b 763e f83a
00000050: 9e91 ec3a 5d4d d939 eea9 083b 5cf5 c13a
00000060: 724c 183b 50e8 033b 5c03 ab3a e627 783b
00000070: e1f0 3f3d 59f0 763b d0ae d53a 2cd4 f33a
00000080: 7a74 673c 1486 fa3a b1c1 223a c657 e1ba
00000090: 8bed 593b 9d1f 82b9 2da2 86ba 628a bd3a
000000a0: c402 6dbd 7e58 043b 5084 193b 68a4 88b9
000000b0: 8dba 743b b8ae 81ba 6f0d 273b f021 c13a
000000c0: 2776 753a 6198 c73a beac 123b c9ad ca39
000000d0: 86b2 35ba f259 663b 3c67 c13a 4ca4 fc3a
000000e0: c25d 173b 05f4 7e3b 109e 04ba 6ea7 6b3b
000000f0: 70cd 133b 6585 bd3a 58fd 0938 84ad 983a
00000100: 6e57 6c3a 996a 12ba 92bd 463a a768 26bb
00000110: ea98 31ba 7a6f 0fba ba63 9b3a 4884 c2b9
00000120: c11d 94ba b934 7c3b 05b4 fe3c 94bf 783b
00000130: 4eeb 543b e554 edb9 80df 163b 242c 19ba
00000140: 49dc 913a b13e 17ba 9789 43bb 4e0f 403b
00000150: f164 5b3b 5622 013b 8c76 66bc 5ed4 743b
00000160: 493a 9dbd 34ae 043b 0a55 2f39 fc31 1b3a
00000170: 0086 0d3b 7671 4dba 2e74 cc3a 3e6e f83a
00000180: 9d15 8b39 c11c 2bba 1f92 113b 2047 3938
00000190: 0d18 3d3b ce73 293b 8c58 363b 1648 143b
000001a0: d64f 123b 53d7 fb3a 770d 303b 35ee 3a3b
000001b0: a253 3b3b f062 4e3b c7f1 433b 990c 193b
000001c0: ba17 573b 1b69 033b 9ade 3b3b f2ca 3b3b
000001d0: abd6 3c3b da04 373b 0346 403b 74b3 4f3b
000001e0: a115 513b dcce 503b 9ade 513b 634e 463b
000001f0: 62d6 4c3b beb0 4f3b ad7c 563b 8bef 033b
00000200: 4d31 403b f910 063b f0d1 523b e1a1 4f3b
00000210: 5816 543b d90e 4e3b e4fd 393b a188 753b
00000220: cbd7 223b 6b48 483b 41e5 3d3b a785 4e3b
00000230: 8520 413b e180 233b 2481 4b3b 3e3f 4d3b
00000240: 9cbf 093b c523 453b 02ef 443b 0c80 503b
00000250: 695a 513b fd94 3c3b a65b 4d3b 9820 333b
00000260: 18af 4a3b f023 203b 76bc 473b a220 1a3b
00000270: c53d 4a3b 2f79 043b 6a07 473b 1d15 0a3b
00000280: ddab 493b faab 413b 3c66 413b 352f 553b
00000290: 78fd 593b cd78 4b3b 44ed 333b 6758 7c3b
000002a0: ea7f 5e3b 0516 4c3b 4d09 4a3b 1d70 423b
000002b0: 9568 6c3b 1b2d 063b 21b5 513b 4ccb 023b
000002c0: b172 1cbd d005 583b 236f 303b bf6a 663b
000002d0: 1393 9e3c 8ba1 4f3b 948b 7e3b bbc8 443b
000002e0: 7e71 063b 13d2 3c3b 7a72 153b 366d 043b
000002f0: 137b 4e3b 6bed 203b 188e 513b 1f9f 503b
00000300: ca3d 253b fa74 6c3b 057a 343b 9aac 3b3b
00000310: d288 3b3b 88ca da3c 2b35 4d3b 7b72 423b
00000320: 7a7c 963b faa9 aa3b fc9b 953b 2c91 a33b
00000330: dbbe 9e3b f4fe 9c3b cea3 963b 8846 963b
00000340: 67cb 963b 6fd6 a53b cf5d 923b 97a5 833c
00000350: 2232 8b3b 36b7 9e3b dfff 963b 9b42 a43b
00000360: 5ce5 993b ed47 963b 7427 903b 89a5 8e3b
00000370: 8090 8d3b 88e4 8b3b 7968 8d3b b802 a23b
00000380: 5aaa 8f3b 04de 8e3b 2b00 8d3b 9269 9e3b
00000390: 15c5 49ba 1279 9d3b 496d 8e3b 7242 8d3b
000003a0: 81cc 8c3b 5777 8e3b f2a9 fa3d a3e8 963b
000003b0: c290 983b 092f 933b 1f4a 923b 69ea 893b
000003c0: 9d44 963b 90c6 923b a912 913b 0e10 943b
000003d0: 143b 9e3b 82fb 993b 6061 923b 4bcc 8a3b
000003e0: 9ceb 9a3b d665 a33b 0886 8d3b 8e36 8b3b
000003f0: 4683 8f3b 5e35 9a3b 9a7a a13b 80b9 9d3b

bias f4 [40]
0.034588832 -0.09605074 -0.09766708 0.022138964 -0.028020184 0.051407542 -0.013641118 0.074437246
0.090057954 -0.02226175 -0.091555126 0.09058964 0.022847215 -0.0018839922 0.037416533 -0.098362535
-0.05763075 -0.0143504 0.07446073 -0.033929348 0.012922807 0.022402195 0.064952716 -0.045014568
0.020583194 0.08633767 0.0001430375 0.013244255 -0.00747383 -0.019893108 0.017246807 0.027919294
-0.045785014 0.029975234 0.0073620873 -0.02450805 0.08166674 -0.07972664 -0.0914372 0.020702658
00000000: 05ad 0d3d 40b6 c4bd ae05 c8bd c65c b53c
00000010: 968a e5bc b790 523d ff7e 5fbc 8e72 983d
00000020: 4e70 b83d 465e b6bc 4181 bbbd 1087 b93d
00000030: 152a bb3c 4af0 f6ba 1442 193d 4c72 c9bd
00000040: 390e 6cbd f11d 6bbc de7e 983d 80f9 0abd
00000050: 2eba 533c cf84 b73c ee05 853d 3261 38bd
00000060: 169e a83c ced1 b03d 56fc 1539 6ffe 583c
00000070: 08e7 f4bb dff6 a2bc 2d49 8d3c 01b7 e43c
00000080: 1189 3bbd 9f8e f53c aa3d f13b 1bc5 c8bc
00000090: e440 a73d b847 a3bd 6d43 bbbd 9f98 a93c
