SERGIO_output3/2024-12-12(21;53)_SERGIO_data2_40epochs/interm_models/trained_model_epoch_5_alpha_comb.pt (torch, 34265 bytes, 1 tensors)

weight f4 [100, 80]
0	0x3b0b082c	0.0021214588
1	0x3dfb47a6	0.12269525
2	0xbaf5623e	-0.0018721295
3	0xbb00a020	-0.0019626692
4	0x3b01382d	0.0019717321
5	0xbae9d5a4	-0.0017840159
6	0x3acadbd4	0.0015476891
7	0xbaf1086b	-0.001838935
8	0xbaefe71d	-0.001830313
9	0x3aeced39	0.0018076069
10	0x3b06c765	0.0020565626
11	0x3af2e318	0.0018530814
12	0xbcb2de89	-0.021834629
13	0xbb014ef3	-0.0019730895
14	0xbac4b43e	-0.001500733
15	0x3a949598	0.0011336086
16	0xbaee84af	-0.0018197502
17	0xbaedeb36	-0.0018151763
18	0x3aea8c52	0.0017894602
19	0x3add0e69	0.0016865256
20	0x3aee88fe	0.0018198786
21	0xbaef6546	-0.0018264435
22	0x3afc5280	0.0019250661
23	0xbafca200	-0.0019274354
24	0x3ab63080	0.0013899952
25	0x3af7a7b4	0.0018894584
26	0xbaf55c66	-0.0018719553
27	0xbafb41b2	-0.0019169359
28	0x3adc971f	0.0016829706
29	0x3aeff87a	0.0018308305
30	0xbae4a76f	-0.0017444919
31	0x3ae92962	0.0017788822
32	0xbc05350d	-0.008130324
33	0x3aea01f6	0.0017853368
34	0xbaf95a1f	-0.001902405
35	0xbabe6a04	-0.0014527445
36	0x3af3aebd	0.0018591505
37	0xbb052682	-0.0020317142
38	0x3ada872b	0.0016672363
39	0x3ac6f386	0.0015178777
40	0xbaf1071d	-0.0018388961
41	0xbaf17545	-0.001842179
42	0xbaef079a	-0.0018236518
43	0xbaf2d03a	-0.0018525191
44	0xbaf23e31	-0.0018481669
45	0xbaf0fc93	-0.001838582
46	0xbaf0f9d5	-0.0018385003
47	0xbaf1a2a2	-0.0018435309
48	0xbaf2b74a	-0.0018517759
49	0xbaf48b7f	-0.0018657296
50	0xbaf23cb0	-0.0018481221
51	0xbaf14c20	-0.0018409528
52	0xbaf2982b	-0.0018508484
53	0xbaf179f0	-0.0018423181
54	0xbaf101e1	-0.0018387401
55	0xbaf1c6d2	-0.0018446094
56	0xbaf0d7c8	-0.0018374855
57	0xbaf1614a	-0.0018415835
58	0xbaf22ecf	-0.0018477085
59	0xbaf28ac3	-0.0018504489
60	0xbaef70ab	-0.0018267831
61	0xbaf16058	-0.0018415553
62	0xbaf24c65	-0.0018485902
63	0xbaf17faf	-0.0018424893
64	0xbaf14a08	-0.0018408904
65	0x3bb3b641	0.005484373
66	0xbaf1a195	-0.0018434996
67	0xbaf1ec42	-0.0018457251
68	0xbaf25dfc	-0.0018491144
69	0xbaf02b59	-0.0018323465
70	0xbaf21a54	-0.0018470981
71	0xbaf0e71f	-0.0018379426
72	0xbaf16500	-0.0018416941
73	0xbaf10b81	-0.0018390269
74	0xbaf1b624	-0.0018441123
75	0xbaf31426	-0.0018545433
76	0xbaf21445	-0.0018469176
77	0xbaf2aea1	-0.0018515178
78	0xbaf3065e	-0.0018541326
79	0x3d60b583	0.054860603
80	0x3b1ca598	0.0023902413
81	0x3b1c7667	0.0023874284
82	0xba176848	-0.0005775732
83	0xbb15cf18	-0.0022859033
84	0xba9f4e49	-0.0012154068
85	0xb94866bc	-0.00019111758
86	0xbab03096	-0.0013442214
87	0x3aad94f6	0.0013243246
88	0xb8adb12f	-8.282286e-05
89	0xba94c53c	-0.0011350284
90	0x3b1badac	0.002375464
91	0x39531ab4	0.00020132476
92	0xbb0b41a2	-0.0021248837
93	0xba8b5c52	-0.0010632372
94	0x3b00a8ff	0.001963198
95	0xbb055e05	-0.002035023
96	0xb967809a	-0.00022077785
97	0xba0b0fb5	-0.000530477
98	0x3a9fa9e9	0.0012181374
99	0xbb02d780	-0.0019964874
100	0xba3127e3	-0.0006757958
101	0xb98d8d32	-0.00026998814
102	0x3a314386	0.0006762076
103	0xbb0b8df6	-0.0021294332
104	0xba88eb46	-0.0010446094
105	0x38915f8b	6.931935e-05
106	0xb800c60e	-3.070203e-05
107	0x3a991b84	0.0011681174
108	0x3a59f617	0.00083145633
109	0x399ae9ca	0.00029547355
110	0xb97aec5d	-0.0002392991
111	0x39c6e2f7	0.00037934605
112	0xb942f760	-0.00018593436
113	0xb9f41417	-0.00046554275
114	0xbc399e93	-0.011329311
115	0x3b0f2046	0.0021839305
116	0xba104794	-0.000550383
117	0x3a74f99e	0.0009345057
118	0xbaf3cfd8	-0.0018601371
119	0xba658e8c	-0.0008756898
120	0x38023cf2	3.1051175e-05
121	0x393452ad	0.00017196937
122	0x394aad1c	0.0001932871
123	0x38cd61bc	9.793366e-05
124	0x389668d6	7.1720846e-05
125	0x39260d0d	0.00015835855
126	0x3900525a	0.0001223771
127	0x393c25d7	0.00017943174
128	0x37fbb358	3.0005045e-05
129	0xb8198cb8	-3.6609097e-05
130	0x38b213c6	8.4913845e-05
131	0x38ab48b1	8.167455e-05
132	0x38b5c67e	8.6677246e-05
133	0x3907c492	0.00012947831
134	0x3700a540	7.66787e-06
135	0x38ce6078	9.840814e-05
136	0x38539d8e	5.0453054e-05
137	0x39075a0c	0.00012908148
138	0x3864f86e	5.4590804e-05
139	0x39065d8d	0.00012814086
140	0x3963fd1d	0.00021742699
141	0x38a68e8c	7.942048e-05
142	0x385a0f10	5.198928e-05
143	0x390c670e	0.00013389831
144	0x39871a31	0.0002576872
145	0x387c6258	6.017307e-05
146	0x390ffc59	0.0001373155
147	0x3960f617	0.0002145398
148	0x383aa674	4.4500877e-05
149	0x3987a0f2	0.0002586912
150	0x390afb12	0.00013254237
151	0x38dad5ba	0.0001043486
152	0x39122654	0.00013937923
153	0x388fbb49	6.853656e-05
154	0x391175b8	0.00013872131
155	0x39319f5e	0.00016939404
156	0x38edae0a	0.00011333458
157	0x38bf25f6	9.1146605e-05
158	0x394aa600	0.00019326061
159	0x3903a91e	0.00012556135
160	0x3b190f03	0.0023354895
161	0xbb1a5648	-0.0023549963
162	0x3acb3c99	0.001550573
163	0xbb1c3b66	-0.0023839115
164	0xbb08064f	-0.0020755713
165	0x3a21d504	0.00061734044
166	0xba8db660	-0.0010811798
167	0x3aa04264	0.0012226817
168	0x381b842b	3.707797e-05
169	0xba9651f4	-0.0011468516
170	0x3b1e9101	0.0024195316
171	0xb978ff8c	-0.00023746322
172	0xbb13985d	-0.0022521236
173	0x39bc0a06	0.00035865622
174	0x39ef07a4	0.00045591325
175	0xbb19bb5f	-0.002345763
176	0xb9c6f305	-0.00037946567
177	0xba60ec01	-0.0008580089
178	0x3a9ad902	0.0011813941
179	0xba99fc69	-0.0011748198
180	0xba9acf0d	-0.0011810974
181	0xb9c0de06	-0.00036786514
182	0xb9072bae	-0.00012890875
183	0xba8bda5a	-0.0010669932
184	0xba9da45a	-0.001202713
185	0xba6ad307	-0.0008957837
186	0x39e6d55b	0.0004402798
187	0x3afc2879	0.0019238136
188	0xb9cac02e	-0.00038671627
189	0x39ce7814	0.00039380847
190	0xba4da4e9	-0.0007844703
191	0x3a62df3e	0.00086544815
192	0xb8909e84	-6.895981e-05
193	0xba81aa7a	-0.0009892725
194	0x3a64eee4	0.0008733107
195	0x3b1ba35e	0.0023748497
196	0xba834d01	-0.0010017456
197	0x3b19770e	0.002341691
198	0xbab09174	-0.0013471083
199	0x3aeaffca	0.0017929014
200	0xb7f75880	-2.9485906e-05
201	0x390ce071	0.00013435051
202	0x378caa8c	1.6768718e-05
203	0x39118556	0.00013877949
204	0x3d67fb1c	0.05663596
205	0x386dc20e	5.668593e-05
206	0x3846d282	4.740293e-05
207	0x393d774c	0.00018068886
208	0x36b6eab0	5.451344e-06
209	0xb8f12c99	-0.000115000825
210	0x37646678	1.3613717e-05
211	0x3858f853	5.1729683e-05
212	0x3778c318	1.4827376e-05
213	0x3829b496	4.0460924e-05
214	0xb813e33e	-3.5259167e-05
215	0x382d89e0	4.137482e-05
216	0xb8788066	-5.9247388e-05
217	0x387ad7d9	5.980567e-05
218	0xb8021932	-3.101788e-05
219	0x3914aa54	0.00014177832
220	0x384f73f6	4.9460643e-05
221	0x3809eb4a	3.2882475e-05
222	0x37dc7590	2.6280788e-05
223	0x390b9123	0.0001331014
224	0x39820441	0.00024798702
225	0xb7789db0	-1.4818666e-05
226	0x38e554e7	0.00010935385
227	0x398077fd	0.0002450346
228	0xb7651838	-1.36551025e-05
229	0x393cc47a	0.0001800227
230	0x389f41e8	7.593987e-05
231	0x388d9312	6.750798e-05
232	0x385dd57e	5.2889336e-05
233	0xb82e2c66	-4.1526182e-05
234	0xb549b800	-7.514609e-07
235	0x39915a25	0.00027723718
236	0x38ca5e5b	9.649686e-05
237	0x3719fcf0	9.178402e-06
238	0xbd8b8656	-0.06812732
239	0x38128fca	3.4943027e-05
240	0x3aee59b7	0.0018184696
241	0xbb067c57	-0.002052089
242	0xba8607b4	-0.0010225684
243	0xbae826a4	-0.0017711711
244	0x3acc4ff9	0.0015587799
245	0xbad5d2a2	-0.0016313384
246	0x3aad0509	0.0013200353
247	0xbaf10a37	-0.0018389885
248	0xbae28a19	-0.0017283588
249	0x3af54b7f	0.0018714516
250	0x3b0b7cd2	0.0021284116
251	0x3adce089	0.0016851585
252	0x3a7dd8d6	0.0009683495
253	0xbabbe627	-0.0014335559
254	0xbb0c2404	-0.0021383772
255	0xba1681ba	-0.00057413767
