SERGIO_output3/2024-12-12(21;53)_SERGIO_data2_40epochs/interm_models/trained_model_epoch_20_sums.pt (torch, 18832 bytes, 2 tensors)

weight f4 [40, 100]
00000000: 4ced 6bba b030 16bb 8562 b1ba 38e4 1bba
00000010: 851f a5ba 4075 26bc 565e 66b8 4444 9aba
00000020: 9983 6aba f598 20bb 6fb8 a9ba a09f 6937
00000030: 6ad8 8bb9 1621 8ab9 f2c7 94ba d25b 0cbb
00000040: df2f aaba 5f46 64ba 795d d139 bc33 bfba
00000050: 5674 e4ba 664e 2aba 6a4f 92ba 508a 2bbb
00000060: 3aad 92ba b78e 563d 5d05 daba 5a4d acba
00000070: 98c8 ecba 7c95 22ba 886f 21bb 154c b5ba
00000080: 346b 05bb 0ea1 81ba d3bb 7f38 ce23 0bbb
00000090: 4ac0 81ba 0625 b1ba 29d6 a93d b3c8 5eba
000000a0: e856 e3ba a96b afb9 08b2 63ba da17 6bba
000000b0: 0c8c ffb9 e09a 9dba 1cb0 aaba 9068 ccba
000000c0: 6625 22bb 397a feba 0087 80ba eea2 ba3a
000000d0: 81c6 6cba 998a 93b9 e158 17bb afb8 7cbd
000000e0: 38b3 99ba 7878 7bba 54ae 35ba f25f b6ba
000000f0: d6ba b2ba 0020 0fbb e86b 82ba ba6e 60ba
00000100: 82a1 18bb f056 4ab8 f8a9 bdb8 00a4 0fbb
00000110: c10e caba 0891 51ba c8b7 e1ba c74e d4ba
00000120: cde2 bfba 1889 78ba 173a b1ba 9005 8dba
00000130: 12cb b8ba c5f1 fc39 3856 ffba 0c7f 0ebb
00000140: e7c5 94bc 5dd7 acba 8ebe e9ba c15c 97ba
00000150: 42a3 5eb9 88d9 00bb 62a1 fab9 6172 7bb9
00000160: c622 09bb 7a22 96ba 59bc 35bb ea46 b6ba
00000170: 0c5a 88ba bbba 23bb 56a9 b8ba fe56 a7ba
00000180: 1994 9cba fdc6 40ba e70c 89ba d5d4 1a3d
00000190: 1694 083c fdb2 33bb b692 f63b c309 b13b
000001a0: e31f 033c a2fd 113c e1d2 143c 884e 0b3c
000001b0: 5221 ff3b bd57 42bb 475e 02bd cec8 0e3c
000001c0: d4b3 ba3b bbc6 103c ecfe b03b 5a35 26bb
000001d0: c500 cc3a c5f3 9f3b 4042 1d3c 7bc3 0a3c
000001e0: 6a0a 0e3c 3595 003c 39dd 133c 3a5f 1bbb
000001f0: e132 113c 83a8 0c3c 4583 f93b 3db8 0f3c
00000200: 9e70 2ebb 88de 133c aded 033c b01a 123c
00000210: 849b 0c3c c829 0f3c 8694 fb3b 6ea4 f4ba
00000220: ee97 0f3c 7175 813b e2ae 3c3b cada ac3d
00000230: b84b 743b 2beb 163c 54af 0a3c bee5 383b
00000240: e0fb 0b3c fbb4 84ba 460c 0f3c 4197 0c3c
00000250: da48 483a 4b4c 19bb 8e8f 173c f2b9 663d
00000260: e6f3 703b 16e4 0e3c e29d 19bb c3db c83b
00000270: ee0a 0e3c ae13 133c 5e34 723b 77ef 093c
00000280: ef4d 0b3c bfc6 1cbb cd85 ac3b 8637 093c
00000290: c48a de3b b6e9 883b bc14 0e3c c853 e5ba
000002a0: 3a38 a13b 14fa 853b 437b 31bb 5e6c 9d3b
000002b0: 23f7 eaba a341 0e3c 6433 113c 158d 113c
000002c0: 9930 ce3b 6a09 1c3c 0b74 adba 7cf4 a13b
000002d0: b754 d4ba a543 1b3b 62e0 99ba 5a14 0f3c
000002e0: 8c65 093c ae21 49bb 4846 f43b b76b 0f3c
000002f0: 629a 923a c04d 3bba d284 63bb ddbe f03b
00000300: 1c99 da3b 9995 dab9 fa21 f6ba 816b 14bb
00000310: d1cd 0a3b a41c 8a3b 6c20 0f3c 8ce8 083c
00000320: 03e4 a1bb 3342 99ba 2095 44bb efc9 62bb
00000330: 93bd a0bb 0c88 c3bb 502e bfbb dc95 b1bb
00000340: 19f0 98bb 2c29 61b9 b82c e339 285d 8cbb
00000350: 2c68 d339 d715 b4bb 746b 01bb 68c8 94ba
00000360: 98ef d0b9 bca2 2aba 5dfc 063c c026 9fbb
00000370: b8cd 9cbb 7b75 15bb 50aa b9bb f0e7 87ba
00000380: b89d b3bb d520 a4bb d87e 7ebb d31e d8bc
00000390: e0cc 83ba f25d b0bb 1872 8cbb 311b a5bb
000003a0: e729 9cbb 259a 9ebb 750b f6ba d6a6 9a3a
000003b0: bd10 b1bb f0f8 e6b7 866c d93a 2969 8fbb
000003c0: ccec 2bbd 0c06 9ebb 271f aabb 7c5d 99b8
000003d0: 43d6 aebb 5116 a33a 7cac abbb cc2f 91bb
000003e0: 3856 cdba 3204 8aba 1674 c0bb d97c 01bb
000003f0: 46b3 263a 7bc5 aabb 78e3 9dba 7b2b 26bb
-0.00089998986 -0.0022917204 -0.001353339 -0.0005946788 -0.0012597895 -0.0101597905 -5.492413e-05 -0.0011769612
-0.0008946001 -0.0024505232 -0.0012948642 1.3925048e-05 -0.00026673387 -0.00026346062 -0.0011351092 -0.0021417034
-0.0012984237 -0.0008707996 0.0003993323 -0.0014587562 -0.001742969 -0.00064966676 -0.0011162583 -0.002617497
-0.0011190542 0.052382197 -0.0016633678 -0.0013145611 -0.0018065153 -0.00062020845 -0.0024633128 -0.0013831878
-0.0020358087 -0.0009889917 6.0971663e-05 -0.0021231058 -0.0009899226 -0.0013515062 0.08292801 -0.00084985344
-0.0017344626 -0.00033458814 -0.00086858915 -0.0008968093 -0.00048741733 -0.0012024306 -0.0013022455 -0.0015595127
-0.002474153 -0.0019415087 -0.0009805858 0.0014239231 -0.0009032265 -0.00028141288 -0.0023093747 -0.061699566
-0.0011726385 -0.00095928414 -0.0006930579 -0.0013914092 -0.0013636004 -0.0021839142 -0.0009950371 -0.00085614214
-0.0023289626 -4.824152e-05 -9.0438814e-05 -0.002191782 -0.0015415774 -0.00079943286 -0.0017220909 -0.0016197794
-0.0014639735 -0.0009480878 -0.001352134 -0.0010759104 -0.0014098606 0.00048245318 -0.0019480651 -0.0021743206
-0.018160773 -0.0013186742 -0.0017833279 -0.0011548029 -0.00021232388 -0.0019660909 -0.00047803955 -0.00023979835
-0.0020925268 -0.0011454367 -0.0027730672 -0.0013906632 -0.0010402813 -0.0024983126 -0.0014088552 -0.0012767015
-0.0011945992 -0.00073538703 -0.0010456116 0.03780063 0.008336088 -0.0027419918 0.0075248135 0.005402775
0.008003208 0.008910568 0.009083481 0.00850261 0.0077859545 -0.0029654347 -0.03182819 0.008714868
0.0056977067 0.008836444 0.005401483 -0.002536139 0.0015564194 0.0048813545 0.009598315 0.008469458
0.008669475 0.007848074 0.009024912 -0.0023707883 0.008862228 0.008585098 0.0076145255 0.008771953
-0.0026617418 0.009025224 0.008052272 0.008917496 0.008582 0.008737989 0.0076776175 -0.0018664727
0.00876425 0.0039507677 0.0028790762 0.08440168 0.0037276577 0.009211342 0.008464653 0.002821311
0.008543938 -0.0010124737 0.008730954 0.008580984 0.000764025 -0.0023391421 0.009250535 0.056329675
0.0036766469 0.008721372 -0.0023440053 0.0061297133 0.008669598 0.00897686 0.0036957483 0.008418909
0.008502468 -0.0023922173 0.0052649737 0.008375054 0.0067914445 0.004178251 0.008671936 -0.0017496282
0.004920033 0.0040886495 -0.0027081526 0.004804178 -0.0017926436 0.008682641 0.00886235 0.008883734
0.0062924144 0.009523729 -0.0013233436 0.004942475 -0.0016199563 0.0023691442 -0.0011739845 0.00873288
0.008386027 -0.003069024 0.0074546672 0.008753709 0.0011184926 -0.00071450695 -0.0034716618 0.0073469714
0.006671084 -0.0004169166 -0.0018778436 -0.0022647085 0.0021179805 0.00421484 0.008735757 0.008356225
-0.004940511 -0.0011692703 -0.0029996112 -0.0034605225 -0.0049054115 -0.005967146 -0.0058343783 -0.005419476
-0.0046672937 -0.0002147301 0.00043330132 -0.004283566 0.0004032267 -0.0054957676 -0.0019747885 -0.001135123
-0.00039851363 -0.00065092347 0.008238879 -0.0048569143 -0.004785266 -0.002280562 -0.005666055 -0.0010368805
-0.005481448 -0.0050087967 -0.003883293 -0.026381886 -0.0010055564 -0.005382293 -0.004286062 -0.005038642
-0.0047657373 -0.004840153 -0.0018771725 0.0011798989 -0.0054036067 -2.7534057e-05 0.0016588129 -0.0043765497
-0.041973874 -0.004822498 -0.005191702 -7.313021e-05 -0.0053356006 0.0012442564 -0.0052390676 -0.0044307467
-0.0015665954 -0.0010529815 -0.0058732135 -0.0019758253 0.0006359111 -0.00521153 -0.001204594 -0.0025355506

bias f4 [40]
00000000: b473 323c ee01 093d 15fa 55bc f8fb 903d
00000010: 4e25 b9bb 3b58 043d 2572 c3bd 0c32 733d
00000020: ce97 b43d 57ae babd 631b 15bd 66a6 9abd
00000030: 03ff 253c af37 01bc 63e8 323d 0852 c9bc
00000040: dc07 563d 01bf 9f3d 2825 aabc 5b98 a8bd
00000050: 0c2c 1fbd 387e 7e3d a97a 35bc ad0a 7d3d
00000060: bc58 24bb 3d92 bcbd b287 783d ddaf ae3c
00000070: e4f2 be3a 9af8 a4bd f698 ad3d b631 99bd
00000080: a046 983d 33b1 5ebd c87b 8e3d 8770 863b
00000090: 9d0a 8ebd a705 293d 5605 4abd 1c98 28bd
0.010891844 0.033449106 -0.0130601125 0.07079309 -0.005650199 0.032310706 -0.09543256 0.0593739
0.08818017 -0.09115284 -0.03640307 -0.07551269 0.0101316 -0.007886811 0.043678652 -0.024575248
0.05225359 0.07800103 -0.02076967 -0.082321845 -0.038860366 0.06213209 -0.011076608 0.06177776
-0.0025077304 -0.0920758 0.060676284 0.021324093 0.0014568237 -0.080552295 0.084764406 -0.07480185
0.07435346 -0.05436821 0.06957203 0.00410277 -0.06935618 0.041265156 -0.049321495 -0.041160688
