ode_net/code/output/2024-12-12(21;53)_SERGIO_data2_40epochs/interm_models/trained_model_epoch_7_prods.pt (torch, 18832 bytes, 2 tensors)

weight f4 [40, 100]
000000 42 9a de 38 92 cf 62 b9 ed 0b 78 ba e4 04 82 39
       0.00010614518 -0.00021630366 -0.00094622263 0.00024799176
000010 56 69 2e 3a 77 d4 b4 39 4c ec 8b 39 e4 8d c1 38
       0.00066532695 0.00034490574 0.000266882 9.229386e-05
000020 ef 79 01 b9 d2 94 17 ba 93 85 e8 ba 3a 5a f2 b9
       -0.00012347822 -0.0005782369 -0.0017740004 -0.0004622506
000030 2d b4 f7 ba 6b 92 2f 3a 7b 88 98 ba 22 af 46 ba
       -0.0018898301 0.0006697538 -0.0011637354 -0.00075791974
000040 f4 e3 c9 ba e1 84 c1 ba 44 96 08 ba fc 0e 3e ba
       -0.0015403018 -0.0014764332 -0.00052103796 -0.00072501577
000050 64 a1 4d ba 66 87 c4 ba e0 6f 22 ba 06 87 55 ba
       -0.00078441785 -0.0014993965 -0.000619648 -0.0008145425
000060 5c 6e f2 b9 81 06 2c ba de c2 8b ba f6 27 22 3a
       -0.0004624006 -0.00065622485 -0.0010662933 0.0006185764
000070 73 ce 36 3d 08 1e 1d 3a 38 2d 65 ba 4c 4a 45 ba
       0.04463048 0.000599355 -0.0008742395 -0.0007526025
000080 53 9b 3d 3c 84 d2 3b ba 22 49 b2 ba 31 a3 0b bb
       0.011572677 -0.0007164853 -0.0013602118 -0.0021306986
000090 8a bf 8a 39 90 fb de ba 44 4c fb ba f7 77 81 ba
       0.0002646412 -0.0017012227 -0.0019172509 -0.0009877671
0000a0 89 77 74 bd d8 b5 21 ba 0b b7 e7 b9 64 96 df ba
       -0.05968431 -0.00061687594 -0.0004419613 -0.001705837
0000b0 5f a1 16 3a 1a 49 f0 ba 31 74 9e b9 45 24 7f ba
       0.0005746092 -0.0018332333 -0.00030222678 -0.00097328826
0000c0 f5 4b 9b ba 26 6b 4a ba 42 f6 09 ba 2b 92 c2 ba
       -0.0011848198 -0.0007721655 -0.00052628305 -0.0014844587
0000d0 d0 e2 f2 ba 74 e2 d1 39 fe 27 58 ba 1e 8d 20 ba
       -0.001853073 0.00040032307 -0.00082457054 -0.0006124544
0000e0 02 f8 ef b9 03 57 34 3a 5e 4f ea ba 91 1f fc 39
       -0.00045770413 0.0006879421 -0.0017876436 0.00048088704
0000f0 36 4c 01 ba 16 0f 57 ba 04 0a d2 ba 8d 35 96 ba
       -0.0004932316 -0.0008203847 -0.0016024713 -0.0011460051
000100 2a 13 a5 ba 46 a3 ec ba 5a ef ad ba 48 a7 3d bb
       -0.0012594212 -0.001805403 -0.0013270185 -0.0028938819
000110 6c e1 f5 ba c8 e3 ed ba 78 6d 7c ba 1c cb e4 ba
       -0.0018759198 -0.0018149549 -0.0009629349 -0.0017455551
000120 9e ed fd ba 19 7c 2d 3a e1 40 ea 3c 4b ed 23 3a
       -0.0019373184 0.0006617918 0.02859539 0.0006253316
000130 1d 86 70 39 45 cd f8 ba 7a 68 ac b9 54 4a f5 ba
       0.00022938145 -0.0018982074 -0.00032884238 -0.0018714168
000140 ea 4e 84 ba 78 3e eb ba 8e 96 4a bb 48 7d 68 b8
       -0.0010094319 -0.0017947694 -0.0030912491 -5.5429788e-05
000150 92 90 a0 39 d4 b2 f9 b9 59 bd 8b bc b7 22 18 3a
       0.0003062529 -0.00047626218 -0.017058061 0.0005803513
000160 b8 23 a1 bd ba 35 fe b9 ed 34 b9 ba 78 54 b7 ba
       -0.07868141 -0.00048486685 -0.0014130153 -0.0013986966
000170 42 af f8 b9 32 8c f6 ba 23 3c 44 ba 32 6f 12 ba
       -0.00047432823 -0.0018810092 -0.0007485768 -0.00055860274
000180 fd 30 c0 ba a0 96 f3 ba b0 68 0a ba 85 e8 d7 ba
       -0.0014663037 -0.0018584318 -0.0005279882 -0.0016472494
000190 d2 ec 0a 3b 40 01 09 3b d4 bf 08 3b 12 31 02 3b
       0.0021198285 0.0020905286 0.0020866292 0.0019865674
0001a0 f7 a4 01 3b 15 47 f7 3a 76 d0 07 3b e6 50 0a 3b
       0.0019782165 0.0018865789 0.0020723618 0.0021105348
0001b0 10 80 0a 3b ca b1 10 3b 1e 7d 0b 3b ab d8 01 3b
       0.002113346 0.0022078627 0.0021284292 0.0019812982
0001c0 1f 49 0f 3b 47 c5 fb 3a d2 0a 0a 3b 48 48 0c 3b
       0.0021863652 0.0019208574 0.0021063578 0.0021405388
0001d0 84 88 0a 3b 29 d0 08 3b d6 e7 0c 3b ab 71 0e 3b
       0.0021138499 0.0020876026 0.002150049 0.0021735232
0001e0 ec ab 0e 3b df ee 0d 3b 63 d4 0e 3b 03 79 0e 3b
       0.0021769954 0.002165727 0.0021794073 0.002173961
0001f0 39 d5 0d 3b 7f 78 0e 3b 6a d4 0f 3b ba 12 fc 3a
       0.0021641983 0.0021739302 0.0021946677 0.0019231655
000200 59 44 0d 3b 79 d8 fc 3a 1f 2c 0f 3b 57 46 0e 3b
       0.002155563 0.0019290588 0.0021846367 0.0021709406
000210 00 50 0f 3b e0 0a 0e 3b d9 1c 09 3b 98 fb 17 3b
       0.0021867752 0.0021673962 0.0020921736 0.0023190733
000220 d3 db 04 3b 48 87 0c 3b 5c 36 0a 3b 66 d3 0d 3b
       0.0020272627 0.0021442939 0.002108953 0.0021640896
000230 2c 35 0b 3b 1b d9 03 3b 70 ad 0d 3b a8 cf 0d 3b
       0.002124141 0.0020118419 0.002161827 0.0021638665
000240 39 a3 fe 3a 6d 4a 0d 3b 57 3f 0c 3b f5 4c 0e 3b
       0.0019427306 0.0021559254 0.0021400058 0.002171335
000250 64 99 0f 3b 84 60 0c 3b 8f b9 0d 3b 90 e5 06 3b
       0.0021911496 0.0021419832 0.0021625494 0.0020583607
000260 94 d8 0c 3b 28 6c 04 3b 52 b4 0e 3b 20 d1 02 3b
       0.0021491395 0.0020206068 0.002177496 0.0019961074
000270 68 6d 0d 3b b4 1e fc 3a 36 2b 0c 3b 58 eb fe 3a
       0.0021580104 0.0019235224 0.002138806 0.00194488
000280 97 40 0d 3b da 81 0d 3b 06 e0 0a 3b f9 50 0f 3b
       0.002155339 0.002159229 0.0021190657 0.0021868332
000290 52 b9 10 3b fc 31 0d 3b eb 32 07 3b a4 6e 19 3b
       0.0022083116 0.0021544686 0.0020629715 0.0023411894
0002a0 1e 47 11 3b cd 23 0d 3b f3 61 0f 3b 4c 00 0b 3b
       0.0022167633 0.0021536232 0.002187845 0.0021209894
0002b0 a4 f4 15 3b 3c 3a fd 3a ff b4 0e 3b 7e 88 fb 3a
       0.0022881413 0.0019319723 0.0021775363 0.0019190458
0002c0 b6 d5 1e bd f5 27 0e 3b 12 a2 09 3b 3e bc 12 3b
       -0.03877803 0.0021691297 0.0021001142 0.0022390033
0002d0 50 7c 98 3c 7e 75 0e 3b 54 c4 19 3b cb 3c 0c 3b
       0.018613964 0.0021737511 0.0023462968 0.002139854
0002e0 23 fa fc 3a 69 71 0d 3b cb 0c 02 3b 66 3c fc 3a
       0.0019300621 0.002158249 0.001984405 0.0019244074
0002f0 ff d4 0e 3b 07 ef 05 3b c3 53 11 3b 6c 60 0e 3b
       0.0021794436 0.002043666 0.002217517 0.0021724952
000300 c8 b5 05 3b c1 4a 15 3b 5c 97 0a 3b 23 81 0c 3b
       0.002040254 0.0022780153 0.0021147346 0.0021439276
000310 14 2e 0a 3b b0 d4 d1 3c b1 de 0d 3b e4 34 0a 3b
       0.0021084594 0.025614113 0.0021647627 0.0021088654
000320 fb d4 4e 3b 75 34 53 3b d2 a1 4e 3b 6a b0 51 3b
       0.0031560052 0.0032227312 0.0031529558 0.003199602
000330 2a 98 50 3b d0 f3 4f 3b e3 d8 4e 3b 06 c5 4e 3b
       0.0031828978 0.0031731017 0.003156238 0.003155054
000340 3f e7 4e 3b 79 60 52 3b 84 04 4e 3b 26 46 6f 3c
       0.003157094 0.003210096 0.0031435797 0.014604127
000350 69 6d 4c 3b e0 95 50 3b 42 01 4f 3b 3c e0 51 3b
       0.0031193143 0.0031827614 0.0031586443 0.0032024523
000360 3a af 4f 3b 80 da 4e 3b 2e a5 4d 3b 7e 1b 4d 3b
       0.0031690137 0.0031563342 0.0031378972 0.0031296904
000370 20 de 4c 3b 2f 83 4c 3b d4 cf 4c 3b b8 66 51 3b
       0.0031260327 0.0031206121 0.0031251805 0.0031952094
000380 08 53 4d 3b 48 29 4d 3b 39 c3 4c 3b b2 84 50 3b
       0.0031330008 0.0031305123 0.0031244291 0.0031817374
000390 40 f6 27 bb 07 51 50 3b 81 0e 4d 3b bc ca 4c 3b
       -0.0025628954 0.0031786577 0.0031289163 0.0031248769
0003a0 c0 b2 4c 3b b8 11 4d 3b fa 04 f8 3d 03 21 4f 3b
       0.0031234473 0.0031291079 0.12110324 0.003160537
0003b0 ba 42 4f 3b 05 33 4e 3b 34 0f 4e 3b 3f 0a 4c 3b
       0.0031625465 0.0031463515 0.0031442167 0.0031134037
0003c0 04 df 4e 3b d0 00 4e 3b 48 a4 4d 3b a3 68 4e 3b
       0.0031566033 0.003143359 0.0031378437 0.0031495474
0003d0 ea 7b 50 3b 3a bf 4f 3b f4 ed 4d 3b cf 3c 4c 3b
       0.003181214 0.0031699673 0.0031422349 0.0031164174
0003e0 5d e1 4f 3b b2 b2 51 3b f2 d6 4c 3b 0a 58 4c 3b
       0.003172002 0.003199738 0.0031256047 0.0031180405
0003f0 8c 68 4d 3b 83 a0 4f 3b d9 49 51 3b a0 74 50 3b
       0.0031342832 0.0031681366 0.0031934886 0.0031807795

bias f4 [40]
000000 2d a3 15 3d 90 fb c2 bd 65 d6 c4 bd c9 c0 bd 3c
       0.03653257 -0.09520638 -0.09611205 0.023163216
000010 e6 9b c9 bc 0e 80 56 3d 0d f7 32 bc da e1 9b 3d
       -0.024610471 0.052368216 -0.010923159 0.07611437
000020 c1 36 b9 3d ce 54 ae bc 9e 1d b8 bd 89 0f bf 3d
       0.090436466 -0.021280672 -0.08990024 0.09329135
000030 ed 41 d1 3c 50 43 95 3a 29 77 23 3d 2d 07 c6 bd
       0.025544131 0.0011387859 0.03990856 -0.096693374
000040 d0 1d 66 bd 35 22 4f bc d5 05 9f 3d 44 07 05 bd
       -0.056180775 -0.012642433 0.07764784 -0.032477632
000050 47 53 6e 3c e2 a0 c4 3c 8e e3 87 3d bd db 34 bd
       0.014546222 0.024002496 0.066351995 -0.04415487
000060 ca 15 b3 3c fa ef b1 3d ba f5 6b 3a c9 44 80 3c
       0.021860976 0.0868835 0.00090011547 0.0156578
000070 ac 52 f2 bb 26 e1 98 bc d9 f6 98 3c 03 da f7 3c
       -0.007395109 -0.018662047 0.018672394 0.030255323
000080 2c de 34 bd 25 6c f7 3c 5a 8e 07 3c e4 da c0 bc
       -0.044157192 0.030202935 0.008273685 -0.023541875
000090 b6 63 ab 3d a0 44 9f bd 76 8f b5 bd 6e e5 ad 3c
       0.08368628 -0.07776761 -0.088652536 0.021227565
