ode_net/code/output/2024-12-12(21;53)_SERGIO_data2_40epochs/interm_models/trained_model_epoch_7_alpha_comb.pt (torch, 34265 bytes, 1 tensors)

weight f4 [100, 80]
00000000: 74a5 043b 1372 fa3d 0f19 ccba 1d3c f2ba
00000010: f18c ed3a 79e3 b2ba 972d 9c3a 2813 06bb
00000020: af08 ceba 0578 003b 86df fe3a 8423 d33a
00000030: 6eac adbc da3f e6ba 1723 05bb bfde c63a
00000040: bc10 f8ba 37d3 c0ba 7892 ff3a e65f 0d3b
00000050: 5c36 d03a de33 e6ba cb76 0d3b a107 11bb
00000060: ded5 433a bc95 e53a 368f dfba 385a 18bb
00000070: 749c 913a d922 df3a 13c5 b6ba da16 c43a
00000080: fb2a 01bc d963 f03a bc8b e7ba 2a54 94ba
00000090: 4d3a 013b 2122 e0ba e260 b83a ddca c63a
000000a0: 404f e7ba d364 ebba 05d5 e6ba fbaf edba
000000b0: be96 edba cafa eaba 4406 e9ba fc40 ecba
000000c0: 4fb2 eeba 4ecd f2ba 02df ecba f08c e4ba
000000d0: 83fa edba 079e ebba cddd e8ba aabd ebba
000000e0: 9949 e8ba f29f eaba 4ec7 edba 5a6b ecba
000000f0: 3dad e6ba d583 ebba 62d1 edba eaca eaba
00000100: a4a1 ebba b3f2 b43b 4357 ecba 6a35 edba
00000110: 5844 edba adac e8ba 196d edba 6025 e4ba
00000120: e3ef ebba fff9 eaba 6557 ecba 7386 efba
00000130: 8d7a edba 0b8a edba 0d87 eeba 68e9 603d
00000140: ecbd 513b 04ee 423b 4a49 18ba f4c3 48bb
00000150: 44ef f6ba a92c 9d38 17a3 06bb 212b 023b
00000160: e020 0f39 e0af e2ba 472a 513b 1474 4438
00000170: 340a fbba c1ae c1ba 9eb4 2a3b a82c 35bb
00000180: db78 aab9 ed77 0aba d9f4 043b 9418 38bb
00000190: 9093 9cba 7ff6 eab9 44bd a73a 8ca3 42bb
000001a0: 318a e4ba 7e7b f4b8 9ad3 2e39 eecc e23a
000001b0: aac5 3a3a 8a86 b739 802f bab8 0689 d439
000001c0: 88a1 e1b7 bd68 49ba ec1b 36bc e89a 4c3b
000001d0: 4acf 6cba 5756 d13a e70c 33bb cf9b b9ba
000001e0: 611e 4739 ca23 d039 492b df39 dd30 9539
000001f0: 0aa9 7739 f6bd c239 a0eb ad39 ee40 d439
00000200: 3a36 3039 d57b 7d38 9d41 8939 e49c 9e39
00000210: 5a35 8a39 a29b ac39 13c1 1a39 7d9c 9639
00000220: 3e3b 6739 7438 b039 f333 5839 a6ec af39
00000230: 7002 f739 80b3 8239 00a7 5439 0240 b139
00000240: 80aa 093a a19b 6739 c94a b139 cea1 ef39
00000250: d46a 4d39 3e52 0b3a 7b6f ad39 86ef ae39
00000260: c0f8 b239 b2bb 7139 e7ba b339 6d48 cb39
00000270: e0fd 9c39 57ed 8c39 29ab de39 2031 ac39
00000280: 6b6d 3e3b 30af 55bb 8a68 1b3b 2cf0 4bbb
00000290: 936a 43bb 20ce a73a 6d38 e6ba eb75 e13a
000002a0: c595 e639 24f9 d8ba 695d 543b b37a 3dba
000002b0: def6 1abb 6a79 793a 664d 30b9 2d7a 52bb
000002c0: 1450 2eba 24e2 67ba cc94 063b 8b9d 8fba
000002d0: 0df1 f8ba 9f24 0aba 6280 d138 f7c3 f9ba
000002e0: 2c5b 00bb 38bd caba 3500 7d3a 75dc 313b
000002f0: 10d2 8dba c333 e539 9cf4 62ba a5b5 a03a
00000300: c74d 9239 3e60 c2ba b3ea c73a 382d 5c3b
00000310: b4b7 caba dc30 573b 7c32 03bb d56b 343b
00000320: e8f9 e238 5e7c b339 768e 1739 f494 ba39
00000330: 62a4 683d 22da 5c39 bca2 6739 4437 d639
00000340: 7ee8 0839 d272 8eb8 ae5b 2139 4cea 9539
00000350: 0ef4 2239 3c1f 4739 c002 c738 66b8 5839
00000360: 78c5 3038 0ee8 6e39 17ae 8d38 1ec1 bc39
00000370: 8cd1 5d39 1244 3a39 504d 2b39 3178 b239
00000380: 673f 063a c172 de38 d8b0 9a39 e28b 043a
00000390: c4da dd38 9276 d839 0016 7e39 c86c a039
000003a0: 9e83 5639 3046 6138 d6a3 fd38 e147 123a
000003b0: 43a8 8f39 3408 1139 c7db 8abd 1093 4639
000003c0: 8266 ba3a 29c7 3fbb fac8 a4b9 75f9 c0ba
000003d0: 8629 8c3a a496 95ba a24f 533a 6739 0abb
000003e0: d752 b7ba b2b4 0b3b 64cd 0f3b b957 ac3a
000003f0: f972 ed3a 0089 60ba cff9 46bb e8f5 7dba
0.002024022 0.12228789 -0.0015571433 -0.001848105 0.0018123669 -0.0013648114 0.0011915442 -0.0020458195
-0.0015719141 0.0019602787 0.0019445277 0.0016108607 -0.021200385 -0.0017566637 -0.0020315105 0.0015172585
-0.0018925886 -0.0014711384 0.0019498607 0.0021572053 0.0015885341 -0.0017563065 0.0021585699 -0.0022129791
0.00074705284 0.0017515938 -0.001705623 -0.0023247134 0.0011109249 0.0017023935 -0.0013944231 0.0014960424
-0.0078837825 0.0018340304 -0.0017665545 -0.0011316587 0.0019718588 -0.0017100015 0.0014066959 0.0015166659
-0.001764752 -0.0017959125 -0.0017611092 -0.0018134111 -0.001812659 -0.0017927524 -0.0017778357 -0.0018024738
-0.0018211099 -0.001852432 -0.0018071833 -0.0017437022 -0.0018156323 -0.0017976173 -0.0017766297 -0.0017985601
-0.0017722129 -0.0017900451 -0.0018141062 -0.0018037364 -0.0017599236 -0.0017968366 -0.0018144066 -0.0017913256
-0.001797725 0.005522096 -0.0018031377 -0.0018097584 -0.0018102033 -0.0017751657 -0.0018114179 -0.0017406158
-0.0018000569 -0.0017927288 -0.0018031417 -0.0018274322 -0.0018118188 -0.0018122805 -0.0018198207 0.054910094
0.0032004071 0.002974392 -0.0005809261 -0.0030634375 -0.0018839617 7.494662e-05 -0.0020543986 0.0019862133
0.0001364979 -0.0017294846 0.0031916068 4.6838148e-05 -0.0019152821 -0.0014776812 0.0026047598 -0.0027645025
-0.0003251497 -0.00052821526 0.0020287542 -0.0028090822 -0.0011945833 -0.00044815612 0.0012797494 -0.0029699532
-0.0017436204 -0.00011657829 0.00016672761 0.0017303505 0.0007124791 0.0003500472 -8.878019e-05 0.0004053788
-2.6897309e-05 -0.0007683149 -0.0111150555 0.003122026 -0.0009033574 0.0015971166 -0.0027320923 -0.0014160814
0.00018989436 0.00039699516 0.00042566124 0.000284559 0.00023618728 0.00037144095 0.00033172686 0.00040484167
0.00016804869 6.0435228e-05 0.00026179562 0.00030253 0.0002636116 0.00032922352 0.0001475851 0.00028726822
0.00022051946 0.00033611397 0.00020618718 0.00033554918 0.00047113327 0.0002492927 0.00020280108 0.0003380776
0.0005251542 0.00022087853 0.0003381579 0.00045706186 0.0001959012 0.0005314684 0.0003308019 0.00033366325
0.0003413614 0.00023053473 0.00034280794 0.0003877314 0.0002994379 0.00026879713 0.00042470664 0.00032842997
0.0029056917 -0.003260564 0.0023713433 -0.0031118495 -0.0029818162 0.0012802519 -0.0017564424 0.001720128
0.00043980606 -0.0016553742 0.003240431 -0.00072280614 -0.002364568 0.00095166883 -0.00016813501 -0.003211628
-0.0006649506 -0.0008845648 0.0020535467 -0.0010956986 -0.0018992737 -0.0005269739 9.98981e-05 -0.0019055594
-0.0019585593 -0.0015467769 0.0009651215 0.002713946 -0.001082005 0.0004371685 -0.00086576655 0.0012261166
0.0002790524 -0.0014829708 0.0015252441 0.0033596288 -0.0015466125 0.003283552 -0.0020019105 0.0027530093
0.000108230684 0.000342342 0.00014453553 0.00035587663 0.056797393 0.00021062096 0.000220905 0.00040858437
0.00013056581 -6.7924746e-05 0.0001538831 0.0002859406 0.00015540441 0.00018989755 9.489572e-05 0.00020668059
4.2145577e-05 0.00022783896 6.755831e-05 0.00036002038 0.00021154265 0.000177637 0.00016336632 0.00034040355
0.0005121142 0.000106071595 0.00029504928 0.00050562446 0.000105788495 0.00041287072 0.00024231523 0.00030598626
0.00020457662 5.3709548e-05 0.00012094497 0.0005580169 0.0002740045 0.00013831333 -0.067802005 0.00018937537
0.0014221224 -0.0029262996 -0.00031430257 -0.0014722781 0.0010693527 -0.0011412692 0.00080608774 -0.0021091343
-0.001398648 0.002131742 0.002194249 0.0013148702 0.001811593 -0.00085653365 -0.00303613 -0.0009687827
