ode_net/code/output/2024-12-12(21;53)_SERGIO_data2_40epochs/interm_models/trained_model_epoch_40_alpha_comb.pt (torch, 34270 bytes, 1 tensors)

weight f4 [100, 80]
0	0x3bfd43bb	0.0077290214
1	0x3e04ef8e	0.12982008
2	0xbb0910aa	-0.0020914474
3	0x3b0bb41b	0.0021317068
4	0xb93264ea	-0.00017012996
5	0x3b345fb7	0.002752287
6	0xbb3dd4f8	-0.002896605
7	0x3b8cb6a4	0.0042942334
8	0x3a9f34f7	0.0012146522
9	0xbb79f3d8	-0.0038139727
10	0x3b208d97	0.0024498457
11	0x3a693c76	0.0008897254
12	0xbc9ab782	-0.018886331
13	0xbb95faaa	-0.0045770006
14	0x3b506f18	0.0031804498
15	0xbb1b026f	-0.0023652574
16	0x3b12bcb8	0.0022390317
17	0x3a55018e	0.0008125537
18	0xbb4dac34	-0.0031383159
19	0xbb37d26e	-0.002804901
20	0xbaa2d64e	-0.0012423487
21	0xbb2fa618	-0.002680188
22	0x3c0ee5ef	0.008721813
23	0xbaf14b75	-0.0018409329
24	0xbc3d1023	-0.011539492
25	0x3ae803d9	0.0017701342
26	0xbac3098f	-0.0014880168
27	0x380d4aac	3.3686563e-05
28	0x3b2d2043	0.0026416935
29	0x3a87f992	0.001037406
30	0x3bc5d5a5	0.0060374313
31	0xbbf7f8e7	-0.0075675133
32	0xbb7651ea	-0.0037585446
33	0xbb7892f3	-0.0037929385
34	0xbb0c7835	-0.0021433954
35	0x38cc957c	9.755322e-05
36	0x39edb06c	0.00045335607
37	0xbc0ae8e2	-0.008478375
38	0xbc43302d	-0.0119133415
39	0xbc22baf6	-0.00993227
40	0x398fe038	0.0002744214
41	0x39094054	0.00013089302
42	0x3a529adc	0.000803394
43	0xb8c42978	-9.3537325e-05
44	0x3974db0d	0.00023351256
45	0x39c9845b	0.0003843632
46	0x39fdaded	0.00048385505
47	0x39d0d91a	0.00039834605
48	0xb9369c56	-0.00017415112
49	0xb9bde9e1	-0.00036223143
50	0xb95114aa	-0.00019939491
51	0x39dafe5a	0.00041769707
52	0xb8a606cf	-7.916765e-05
53	0x39ca378e	0.00038569834
54	0x394bbebb	0.00019430641
55	0x39974ca1	0.00028858057
56	0x3a8a67c1	0.0010559486
57	0x3a24e1ea	0.00062897673
58	0x396e1113	0.0002270381
59	0x3998765a	0.00029079878
60	0x3a4aca2a	0.0007735813
61	0x39a3efbe	0.00031268405
62	0x3711a410	8.680872e-06
63	0x39835b22	0.00025054166
64	0x392fe560	0.0001677475
65	0x3be9ae40	0.007131368
66	0x39a98e55	0.00032340238
67	0x3924cd82	0.00015716816
68	0xb743340c	-1.1635024e-05
69	0x3a08e30a	0.000522182
70	0x39069456	0.00012834495
71	0x39cc8fce	0.00039017055
72	0x3969ab17	0.00022284348
73	0x399b8f96	0.00029670884
74	0x399298bf	0.00027961095
75	0xb94a75e4	-0.00019308139
76	0x38c37e81	9.321888e-05
77	0x393d8048	0.00018072233
78	0xb9a56fc2	-0.00031554519
79	0x3d69ddd3	0.057096314
80	0x3ca251ba	0.01981436
81	0x3c9f3c94	0.019438066
82	0xbb7e6ae1	-0.003882103
83	0xbc62a4a5	-0.0138332
84	0xbab9dbb6	-0.0014179859
85	0x3c14573b	0.0090540005
86	0xbc1e6d39	-0.009669595
87	0x3c9b02fa	0.018922318
88	0x3b4c913c	0.0031214496
89	0xbc98f250	-0.018670231
90	0x3c887f0a	0.01666214
91	0x3b9395f7	0.004503961
92	0x3c6e8497	0.014557979
93	0xbc504062	-0.012710663
94	0x3c5788e8	0.0131552
95	0xbcaebc66	-0.02133007
96	0x3c16531e	0.00917509
97	0xbbd898fd	-0.0066100345
98	0x3c8f685f	0.017505823
99	0xbca1c9e8	-0.019749597
100	0xbb237456	-0.0024941168
101	0xbc865d0c	-0.01640179
102	0x3ca1b008	0.019737259
103	0xbca2a026	-0.019851755
104	0xbc9ad5e5	-0.018900821
105	0x3b925ba2	0.00446649
106	0x398bd1c0	0.00026668422
107	0x3c96de2f	0.018416492
108	0x3b89ad91	0.004201599
109	0x3c55886a	0.013033012
110	0x3c1c71c0	0.0095486045
111	0x3b4f8a54	0.0031668143
112	0x3b6d62e8	0.0036222283
113	0xbc6faaed	-0.014628154
114	0xbbb919ab	-0.005648812
115	0x3caef041	0.021354796
116	0xbc537479	-0.012906187
117	0x3c43a81e	0.011941938
118	0xbcae6e22	-0.02129275
119	0xbc9c0db6	-0.019049507
120	0xba88b8ca	-0.0010431048
121	0x3b2e3d04	0.002658666
122	0x3b1aaf82	0.0023603146
123	0x3a99c789	0.001173244
124	0x3ade446a	0.0016957645
125	0x3b010d1f	0.0019691659
126	0x3b33465f	0.0027355177
127	0x3b33af6a	0.0027417787
128	0xb95a7d85	-0.0002083686
129	0xbad60b6f	-0.0016330312
130	0x3a9f0e8a	0.001213507
131	0x3b1d688e	0.0024018618
132	0x3b262a6b	0.0025354873
133	0x3b072f2d	0.0020627484
134	0xb99247b3	-0.0002790071
135	0x3b940613	0.0045173257
136	0x3af7c7ff	0.0018904208
137	0x3b498246	0.0030747815
138	0x3a5aa659	0.0008340828
139	0x3ae49efd	0.0017442402
140	0x3b787bb6	0.0037915534
141	0x3acd2f65	0.0015654383
142	0x376713fe	1.3773328e-05
143	0x3a062806	0.00051176583
144	0x3b67ca58	0.003536841
145	0x39795a65	0.00023780165
146	0x3add63a8	0.0016890662
147	0x3b519aea	0.0031983205
148	0xb8f5c5fe	-0.00011719389
149	0x3b996592	0.0046812976
150	0x3b02632b	0.0019895534
151	0x3b1bf5bd	0.0023797594
152	0x3b175ebd	0.002309724
153	0x3a24da1a	0.0006288603
154	0x3b233bac	0.0024907393
155	0x3af3fc3f	0.0018614604
156	0x3aa5cdc0	0.0012649819
157	0x38b19908	8.468522e-05
158	0x39e2ea62	0.00043280708
159	0x3b0cd503	0.002148927
160	0x3c9db9a2	0.019253556
161	0xbcafbaa7	-0.021451307
162	0x3ca10b27	0.019658638
163	0xbcb27e89	-0.021788852
164	0x3bda968d	0.006670779
165	0x3c69474a	0.014238188
166	0xbc696a07	-0.01424647
167	0xbc074074	-0.008255113
168	0x3bf5695a	0.0074893655
169	0xbc1db7dd	-0.009626356
170	0x3ca1a79d	0.019733245
171	0xbc2b13a8	-0.010441698
172	0x3c6417a0	0.013921648
173	0x3c851c88	0.016248956
174	0xbc8fa84c	-0.017536305
175	0xbcb99d35	-0.02265797
176	0xbbc2d9fc	-0.005946396
177	0xbc212b57	-0.009836993
178	0x3caf2560	0.021380126
179	0x3c3301ac	0.010925692
180	0xbbd83b3b	-0.0065988577
181	0xbc71978d	-0.014745605
182	0x3c92ec2d	0.017934883
183	0xbca81986	-0.020519983
184	0x3bf74b80	0.007546842
185	0xbc61cdaa	-0.013781944
186	0x3c6bf611	0.0144019285
187	0x3c7e1dbb	0.015510018
188	0xbc956d04	-0.01824046
189	0x3c578038	0.013153128
190	0xbc6a661c	-0.014306571
191	0x3c9cc169	0.019135194
192	0xbbe24366	-0.006905007
193	0xbc7e1cf9	-0.015509837
194	0x3c84a8cb	0.016193768
195	0x3cb84a36	0.022496324
196	0xbc8bd2f6	-0.017068367
197	0x3cb785d1	0.022402676
198	0x3beec66c	0.0072868373
199	0x3cb226fe	0.021747109
200	0xbb9a9bab	-0.004718264
201	0xb7ebc742	-2.810697e-05
202	0xbb56dfee	-0.003278728
203	0xba75778e	-0.00093638233
204	0x3d5f8c25	0.05457701
205	0xbb1d3d55	-0.0023992856
206	0xbb1f965b	-0.0024351093
207	0xbab50ef4	-0.001381366
208	0xbb1540fc	-0.002277433
209	0xbbd13cf7	-0.0063854414
210	0xbb024875	-0.0019879614
211	0x39827730	0.00024884334
212	0x3b0097fa	0.0019621835
213	0xbb652347	-0.0034963654
214	0xba7e8efe	-0.00097106386
215	0x3ba2f651	0.004973211
216	0xbbc98e94	-0.00615103
217	0xbb4e9f7d	-0.0031528168
218	0xbb8dba24	-0.004325168
219	0xbb545b1f	-0.0032402945
220	0xbb08a2b2	-0.0020848927
221	0xbb016d4f	-0.001974899
222	0xbb2e05b0	-0.0026553683
223	0xbb70d306	-0.0036746874
224	0x3aeb6ff1	0.0017962438
225	0xbad52c5f	-0.0016263834
226	0xbb37c507	-0.0028041021
227	0x3a2313d0	0.0006220909
228	0xbb6ca635	-0.003610981
229	0x3a2ba206	0.00065472757
230	0xba2e4a77	-0.00066486694
231	0x3af7e175	0.0018911796
232	0xba4613e5	-0.0007556065
233	0xbb79e1fa	-0.0038129077
234	0xbb4c2388	-0.0031149108
235	0x3a65d274	0.00087670167
236	0xbac0fe20	-0.0014724173
237	0xbbc4bf58	-0.0060042553
238	0xbd8e09df	-0.069354765
239	0xbb1f39fc	-0.0024296036
240	0x3b8ad188	0.004236404
241	0xbc8851b9	-0.01664053
242	0x3c39e7f9	0.0113468105
243	0xbbdffb1a	-0.0068353536
244	0x3c0bd7b5	0.008535315
245	0x3ad26778	0.0016052565
246	0xbbf38313	-0.0074313967
247	0xbc5cb1d6	-0.013470134
248	0x39b96a02	0.00035364932
249	0x3bff6f41	0.007795245
250	0x3c471fce	0.012153579
251	0xbb33bb89	-0.0027425012
252	0x3c9702a6	0.01843388
253	0x3c0951a8	0.008381285
254	0xbc847d5f	-0.016173063
255	0xbc8fd0a4	-0.017555542
