ode_net/code/output/2024-12-12(21;53)_SERGIO_data2_40epochs/interm_models/trained_model_epoch_15_sums.pt (torch, 18832 bytes, 2 tensors)

weight f4 [40, 100]
4.7726207e-05 5.5368087e-05 0.00017050994 0.0010576126 0.00046790676 -0.0076222867 0.0006008715 -0.00012068864
0.00026983515 -0.00014063608 0.00015619979 0.0010267782 0.00014508737 0.0011250303 0.00032948164 0.00010100106
0.00041745466 0.0005678577 0.00031513753 -0.0007979695 -0.0010680489 -0.00017002627 -0.0008607374 -0.00034836226
-0.00069083914 0.05298821 -0.0009317973 0.00041583943 0.00036437382 0.00080568134 -0.0014092354 -0.00091825717
-0.001355428 -0.00054169924 0.0008012039 -0.00035355467 0.00030836824 5.8401638e-05 0.084072106 -0.00054325315
-5.4830627e-05 0.00046569825 -0.00031154326 0.0004133104 0.0010010182 0.0006157303 -0.0005032099 -0.001015948
-0.00056665856 0.00025065956 -0.00084797613 0.0010318902 0.00018618174 0.0008348663 -0.00010273341 -0.060378134
-0.00051762175 0.00058852136 0.00043939293 0.00037310072 -0.00054837123 4.025962e-05 0.00025064705 -0.00054529915
-0.0012332415 0.000821227 0.00032252978 -0.0005536474 -0.0005813723 0.00026011077 0.0003978419 -0.0002134786
0.00025221021 0.0006780736 -0.00091525755 0.00055652426 0.00038461378 -0.0007997995 0.00023656784 -0.0011138895
-0.016066486 0.00019680857 -0.00040242443 -0.00048488524 0.00118645 0.0003128922 0.0010034533 0.001139526
-0.00022732999 0.0008845571 -0.0004011848 -0.0003693412 0.00062716345 -0.0008596957 0.0006887937 0.0008169359
0.0005149519 0.00012553841 -0.000633267 0.038102992 0.005855173 -0.000572718 0.005432725 0.0040013865
0.0056925477 0.006381132 0.0064798906 0.005994565 0.005451874 -0.000730666 -0.031983625 0.006268868
0.0044298954 0.0063422425 0.004066223 -0.00046321732 0.002237754 0.004029057 0.006957676 0.005950939
0.0061181355 0.0056019574 0.0064008525 -0.00040193702 0.006265319 0.0060415184 0.0052737566 0.0062985495
-0.00056241726 0.006486721 0.0056217574 0.00632172 0.0060368925 0.0061756927 0.0055936803 0.00016458053
0.0062471004 0.003526737 0.003298044 0.08183617 0.0032909429 0.0066382457 0.0059440127 0.0028679788
0.0061163115 0.000912071 0.0061730356 0.0060516996 0.0013159127 -0.0003244375 0.006591228 0.05385047
0.0034740428 0.006213969 -0.0003964368 0.0045604645 0.006118118 0.0064453706 0.0034751836 0.006029258
0.0059851096 -0.0003741766 0.004175649 0.0058925175 0.00469886 0.003766122 0.006246957 0.0002124724
0.003970754 0.003639868 -0.00062122295 0.0040604104 0.0001655125 0.0062232325 0.0062807985 0.0063849404
0.004505714 0.0068844194 0.00033091434 0.0038587763 0.00022746681 0.0028239635 0.0007236188 0.006159535
0.00601858 -0.0008314897 0.0053379936 0.0062809917 0.0017294172 0.00084408326 -0.001128401 0.005259504
0.0048733735 0.0008987759 5.6735793e-05 -0.00024826432 0.0025296104 0.0036331897 0.0061599305 0.00604965
-0.0040406915 -0.002513271 -0.0031869458 -0.0035043063 -0.004164885 -0.0046876497 -0.0045306003 -0.0043287207
-0.003969707 -0.0018805373 -0.0013337305 -0.0037754087 -0.0012412695 -0.004446809 -0.0026852754 -0.0024580678
-0.0018978702 -0.0019943072 0.005848224 -0.0039654984 -0.003902536 -0.0026940575 -0.0043759225 -0.002355056
-0.004280703 -0.0040357015 -0.0034778519 -0.02546496 -0.002375786 -0.004341976 -0.0036774348 -0.0040195333
-0.0038828943 -0.0039272835 -0.002572811 -0.0008677201 -0.004351751 -0.0016003543 -0.0004742986 -0.0036661592
-0.04336435 -0.003986496 -0.0041651414 -0.0016360754 -0.004386319 -0.0008597586 -0.0041775326 -0.003715667
-0.0025093846 -0.0023934718 -0.004467251 -0.002464124 -0.0011735687 -0.0042372574 -0.002455913 -0.0030091172
00000000: a02d 4838 083b 6838 eaca 3239 979f 8a3a
00000010: 6251 f539 60c4 f9bb ce83 1d3a 381a fdb8
00000020: a978 8d39 b677 13b9 90c9 2339 f694 863a
00000030: 9822 1839 c175 933a 47be ac39 88d0 d338
00000040: d1dd da39 49dc 143a 0b39 a539 d42e 51ba
00000050: c6fd 8bba 1449 32b9 1ca3 61ba 64a4 b6b9
00000060: 6e19 35ba 2a0a 593d dc43 74ba 0605 da39
00000070: 6d09 bf39 5c34 533a 18b6 b8ba 32b7 70ba
00000080: 9ea8 b1ba d200 0eba e207 523a 4e5d b9b9
00000090: 7cac a139 48f4 7438 ff2d ac3d 1a69 0eba
000000a0: f0f9 65b8 f628 f439 a156 a3b9 95b1 d839
000000b0: 9934 833a f668 213a d8e9 03ba 8f29 85ba
000000c0: d08b 14ba f56a 8339 b74a 5eba 7d40 873a
000000d0: c839 4339 eeda 5a3a 9472 d7b8 104f 77bd
000000e0: 02b1 07ba 0047 1a3a 525e e639 bb9c c339
000000f0: 92c0 0fba 70dc 2838 4769 8339 68f2 0eba
00000100: b8a4 a1ba 9c47 573a 3719 a939 a622 11ba
00000110: 3c67 18ba 7a5f 8839 7095 d039 3ad9 5fb9
00000120: 153b 8439 c0c0 313a e5ed 6fba b6e3 113a
00000130: fda5 c939 a3a9 51ba 320f 7839 eeff 91ba
00000140: dd9d 83bc 665e 4e39 7efc d2b9 3238 feb9
00000150: a882 9b3a ae0b a439 4e86 833a 265c 953a
00000160: 6e5f 6eb9 9fe1 673a 1d56 d2b9 23a4 c1b9
00000170: 3a68 243a 345d 61ba 2a90 343a a427 563a
00000180: d6fd 063a f6a2 0339 d401 26ba e211 1c3d
00000190: c0dc bf3b 7422 16ba 0005 b23b 101e 833b
000001a0: 8d88 ba3b d118 d13b 4355 d43b 0e6e c43b
000001b0: a2a5 b23b 2a8a 3fba 4301 03bd 146b cd3b
000001c0: a828 913b 96d2 cf3b f33d 853b fadb f2b9
000001d0: 48a7 123b 2e06 843b 37fd e33b 1800 c33b
000001e0: a47a c83b a090 b73b 3ebe d13b 13bb d2b9
000001f0: 4e4d cd3b eef7 c53b 7acf ac3b 1064 ce3b
00000200: 2f6f 13ba 8f8e d43b b836 b83b 6e26 cf3b
00000210: 20d1 c53b 775d ca3b 314b b73b 4093 2c39
00000220: 7ab4 cc3b d420 673b ff23 583b b999 a73d
00000230: dcac 573b a485 d93b fec5 c23b b3f4 3b3b
00000240: 576b c83b 0c18 6f3a 2d47 ca3b 564d c63b
00000250: b47a ac3a 4419 aab9 3afb d73b 4f92 5c3d
00000260: c4ac 633b 8d9e cb3b d9d8 cfb9 f36f 953b
00000270: 7e7a c83b b033 d33b e8bf 633b 1591 c53b
00000280: bd1e c43b 222d c4b9 e2d3 883b 0516 c13b
00000290: e5f8 993b 0bd1 763b 46b3 cc3b 20cb 5e39
000002a0: 191d 823b da8a 6e3b 91d9 22ba 310d 853b
000002b0: 6c8d 2d39 42ec cb3b 28cf cd3b c338 d13b
000002c0: aba4 933b b296 e13b 927e ad39 86e3 7c3b
000002d0: 2884 6e39 3f12 393b 3cb1 3d3a edd5 c93b
000002e0: 8237 c53b 54f8 59ba 56ea ae3b c7d0 cd3b
000002f0: 9dad e23a 7845 5d3a dbe6 93ba eb57 ac3b
00000300: d2b0 9f3b d49b 6b3a 98f7 6d38 7929 82b9
00000310: d2c7 253b cf1a 6e3b 3ed9 c93b 243c c63b
00000320: c767 84bb b1b5 24bb 14dc 50bb 81a8 65bb
00000330: 9679 88bb db9a 99bb 6e75 94bb f1d7 8dbb
00000340: 5114 82bb 5c7c f6ba 92d0 aeba d96c 77bb
00000350: 18b2 a2ba 8ab6 91bb 72fb 2fbb 8917 21bb
00000360: f5c1 f8ba ecb2 02bb 75a2 bf3b 03f1 81bb
00000370: b0c1 7fbb c98e 30bb e663 8fbb 4957 1abb
00000380: 2445 8cbb eb3d 84bb acec 63bb e49b d0bc
00000390: 13b3 1bbb 2247 8ebb 1e01 71bb 4ab6 83bb
000003a0: 2878 7ebb 71b0 80bb 9b9c 28bb b677 63ba
000003b0: 2299 8ebb fbc2 d1ba 48ab f8b9 f243 70bb
000003c0: d19e 31bd 27a1 82bb bd7b 88bb 9571 d6ba
000003d0: 1cbb 8fbb 6c61 61ba afe3 88bb 8c82 73bb
000003e0: 7d74 24bb cbdb 1cbb 0462 92bb 247d 21bb
000003f0: 6ed2 99ba b1d8 8abb 62f3 20bb 9c34 45bb

bias f4 [40]
0.008945247 0.03244703 -0.011744291 0.07300205 -0.00788166 0.033644598 -0.09665446 0.06047042
0.08974186 -0.09195956 -0.03735708 -0.07652884 0.011884264 -0.006455543 0.0433746 -0.024738833
0.05357371 0.07913969 -0.022135768 -0.08337098 -0.040623724 0.06438462 -0.013265779 0.06344986
-0.004241402 -0.093628004 0.06257941 0.022300832 -0.00063890324 -0.08203772 0.087113835 -0.07591461
0.07547389 -0.055379283 0.07148271 0.006044712 -0.07067496 0.042098235 -0.05102373 -0.042157784
00000000: 168f 123c 2de7 043d 206b 40bc 1982 953d
00000010: 1422 01bc ebce 093d c6f2 c5bd d5af 773d
00000020: 95ca b73d 4b55 bcbd bd03 19bd 27bb 9cbd
00000030: 37b6 423c 0589 d3bb 91a9 313d 18a9 cabc
00000040: 1b70 5b3d fd13 a23d 1256 b5bc 68be aabd
00000050: 1065 26bd 15dc 833d b658 59bc 00f2 813d
00000060: 75fb 8abb 0ac0 bfbd a229 803d 3cb0 b63c
00000070: 127c 27ba 6403 a8bd bd68 b23d 1e79 9bbd
00000080: 0e92 9a3d 63d5 62bd 8765 923d b812 c63b
00000090: 09be 90bd 336f 2c3d 42fe 50bd a4ad 2cbd
