SERGIO_output/interm_models/trained_model_epoch_5_alpha_comb.pt (torch, 34265 bytes, 1 tensors)

weight f4 [100, 80]
-0.022391891 0.014360276 -0.013865284 0.009222295 -0.013244793 -0.018051283 -0.06986673 0.007398416
0.015603146 -0.02313042 0.061307892 -0.01501693 -0.03429901 -0.0021685201 0.011214378 -0.0008943716
0.007985454 0.0094347885 0.004665729 -0.042633776 0.009197788 0.018117083 -0.01456587 0.005575294
0.029815227 -0.021880798 0.010728479 0.016920328 -0.007026966 -1.4226982e-05 -0.0042695226 -0.009260758
-0.00067193405 -0.020600632 -0.025846599 -0.017956309 0.032349735 -0.017226785 0.014007473 0.030235842
0.0144922165 0.0090393 -0.025034549 0.033512853 0.0029541696 -0.025740262 -0.06738577 -0.048184026
0.030392855 0.016014537 -0.0063360003 0.0099674435 0.02082384 -0.025216892 -0.038474 0.019069571
-0.024990411 0.0126651125 0.024121532 -0.027551675 -0.04228931 0.0135583915 0.028545113 -0.0049356264
-0.06877586 0.022221627 0.014627674 0.02219002 -0.035330087 0.02151757 0.0040145055 -0.06526496
0.010466046 -0.013669201 0.027493712 0.027087247 0.024730071 -0.03289875 -0.060343076 0.0065552224
0.0051196744 -0.0071952264 0.0053856317 -0.0028555433 0.003397944 0.0089943325 0.0012841261 0.0033211035
-0.008386279 -0.0020845197 -0.0006673917 0.00048034592 0.0026855047 0.0016323893 -0.0044644163 0.004388263
0.009641 -0.006428674 0.00025513413 -0.0033007427 -0.0011409672 -0.010475314 0.008116806 -0.0067058974
-0.0016960958 0.0014000298 -0.0074748164 0.004973674 0.0010812834 0.0031436903 -0.005868853 0.0034911553
-0.0031215383 0.00034959728 3.3367687e-06 0.006025045 -0.0042176745 -0.0014052279 -0.0031889782 -0.0024179276
0.004884681 -0.0006559699 0.005242205 -0.00268961 -0.0050545065 0.0057751536 0.010637941 0.003830556
0.007837406 -0.0023949991 0.010582438 0.006052945 0.005829881 0.0056644287 0.006139711 0.005164609
0.005867946 -0.0010943816 8.7777094e-05 0.008276567 0.001337233 0.006658489 0.0019327372 0.007339606
0.008677372 -0.00048420377 0.0073800543 0.0014825376 0.003578696 0.0042494982 0.0072475118 0.008887998
0.004255356 0.0018890449 -0.000829655 -0.002162726 -0.0016905809 -0.0021696277 0.009246946 -0.00084501767
0.044255763 -0.032729615 0.03859495 -0.035278622 0.035785325 0.03275649 0.089378595 0.008619259
-0.0342512 0.100375384 -0.0717115 0.10424545 0.052992247 0.02508663 -0.030892812 0.02529167
-0.029852696 -0.01516373 -0.028244121 0.080295354 0.01679198 -0.032957178 0.03864141 -0.020440938
-0.049572304 0.056630872 -0.034385055 -0.013958509 0.03855462 0.018917395 -0.01833717 0.031834584
-0.030185413 -0.001989824 0.049253922 0.04372024 -0.05368809 0.0373868 -0.038903452 -0.050859757
0.04189549 -0.022531517 0.075124934 0.006688074 0.0067599206 0.07666002 0.09935723 0.03876226
-0.007302979 -0.0338267 0.058763884 0.04780881 0.03144839 0.068430915 0.08406252 0.03302968
0.038765226 -0.024300745 0.055368237 0.06702401 0.08945189 0.03710181 0.02580765 0.061696302
0.09599528 -0.030412767 0.030079013 -0.030796556 0.084628545 0.030028583 0.04562235 0.09771534
0.048506673 0.046672646 0.022059198 -0.0060139997 -0.017483497 0.07403073 0.09378995 0.056198046
-0.011219604 0.009844508 -0.002841408 0.0016228007 -0.004058279 0.00066505186 -0.02274912 -0.004595055
0.0046519632 -0.0040962757 -0.0056713037 -0.010154784 -0.014168497 -0.0043880134 0.005382541 -9.428742e-05
00000000: 336f b7bc 5d47 6b3c 372b 63bc 1c19 173c
00000010: b000 59bc 49e0 93bc 4a16 8fbd 696e f23b
00000020: 56a4 7f3c 027c bdbc fc1d 7b3d 9209 76bc
00000030: 1e7d 0cbd bb1d 0ebb 83bc 373c 4374 6aba
00000040: 6cd5 023c 5f94 1a3c f9e2 983b c1a0 2ebd
00000050: 52b2 163c 476a 943c b0a5 6ebc f5b0 b63b
00000060: 103f f43c 5c3f b3bc 81c6 2f3c 809c 8a3c
00000070: 7742 e6bb 6cb0 6eb7 5ae7 8bbb 6fba 17bc
00000080: bb24 30ba a8c2 a8bc 3fbc d3bc 1c19 93bc
00000090: 2881 043d 301f 8dbc 9a7f 653c 28b1 f73c
000000a0: c370 6d3c 9219 143c 4115 cdbc c644 093d
000000b0: be9a 413b 3edd d2bc 8d01 8abd 9d5c 45bd
000000c0: 70fa f83c eb30 833c 399e cfbb 7d4e 233c
000000d0: c296 aa3c a893 cebc ea96 1dbd ca37 9c3c
000000e0: b1b8 ccbc 5581 4f3c 859a c53c 0db4 e1bc
000000f0: 8e37 2dbd 0424 5e3c 71d7 e93c 09bb a1bb
00000100: 5cda 8cbd 210a b63c e9a8 6f3c d8c7 b53c
00000110: 48b6 10bd 9d45 b03c 1d8c 833b a3a9 85bd
00000120: c779 2b3c c9f4 5fbc 7e3a e13c 13e6 dd3c
00000130: b896 ca3c d7c0 06bd 4d2a 77bd 31cd d63b
00000140: f1c2 a73b efc5 ebbb f479 b03b 1124 3bbb
00000150: 0ab0 5e3b f75c 133c 1f50 a83a dfa6 593b
00000160: 9b66 09bc 709c 08bb e6f3 2eba f0d6 fb39
00000170: 4bff 2f3b e5f5 d53a 3d4a 92bb 6bcb 8f3b
00000180: 49f5 1d3c a0a7 d2bb 86c3 8539 4651 58bb
00000190: 828c 95ba a7a0 2bbc 5afc 043c 25bd dbbb
000001a0: 884f deba 3481 b73a 4eef f4bb 34fa a23b
000001b0: dab9 8d3a 5f06 4e3b 824f c0bb decb 643b
000001c0: b992 4cbb 274a b739 40ed 5f36 be6d c53b
000001d0: 6b34 8abb a02f b8ba 2dfe 50bb 1876 1ebb
000001e0: ad0f a03b 65f5 2bba cec6 ab3b 2b44 30bb
000001f0: 46a0 a5bb 803d bd3b c24a 2e3c 110a 7b3b
00000200: 7768 003c 6bf5 1cbb f661 2d3c c857 c63b
00000210: 9608 bf3b ac9c b93b a12f c93b e13b a93b
00000220: e647 c03b 5a71 8fba f814 b838 709a 073c
00000230: 1846 af3a 742f da3b e653 fd3a 1481 f03b
00000240: 892b 0e3c bbdc fdb9 62d4 f13b b551 c23a
00000250: 8e88 6a3b 603f 8b3b 897c ed3b f79e 113c
00000260: 8370 8b3b d499 f73a 347d 59ba 85bc 0dbb
00000270: 7b96 ddba 5030 0ebb 8180 173c 2d84 5dba
00000280: 8845 353d 7d0f 06bd bd15 1e3d 5180 10bd
00000290: a293 123d ab2b 063d 200c b73d cb37 0d3c
000002a0: fc4a 0cbd 9c91 cd3d 7bdd 92bd a37e d53d
000002b0: 660e 593d 7a82 cd3c ec12 fdbc 7a30 cf3c
000002c0: a48d f4bc 4b71 78bc 3760 e7bc e471 a43d
000002d0: 568f 893c 1bfe 06bd 7546 1e3d c173 a7bc
000002e0: 540c 4bbd c6f5 673d 58d7 0cbd 3bb2 64bc
000002f0: 73eb 1d3d a7f8 9a3c d537 96bc fb64 023d
00000300: 6647 f7bc b567 02bb 7bbe 493d ff13 333d
00000310: 0be8 5bbd e722 193d 3a59 1fbd 5252 50bd
00000320: 9b9a 2b3d 0494 b8bc 1adb 993d a227 db3b
00000330: 5382 dd3b eeff 9c3d ce7b cb3d 2dc5 1e3d
00000340: d44d efbb de8d 0abd 66b2 703d 2cd3 433d
00000350: 07d0 003d 8225 8c3d f828 ac3d 214a 073d
00000360: 49c8 1e3d 5b12 c7bc cec9 623d e243 893d
00000370: 8d32 b73d 11f8 173d 916a d33c 43b5 7c3d
00000380: 2c99 c43d 3224 f9bc 4368 f63c 0f49 fcbc
00000390: bb51 ad3d 81fe f53c 80de 3a3d fb1e c83d
000003a0: efae 463d d12b 3f3d 7eb5 b43c 1611 c5bb
000003b0: 8d39 8fbc 6c9d 973d f214 c03d ec2f 663d
000003c0: 6ed2 37bc dc4a 213c ea36 3abb 28b4 d43a
000003d0: 50fb 84bb e056 2e3a 5d5c babc 1d92 96bb
000003e0: 7f6f 983b 0d3a 86bb 58d6 b9bb 4060 26bc
000003f0: fc22 68bc 53c9 8fbb 0760 b03b 2cbc c5b8
