SERGIO_output/interm_models/trained_model_epoch_1_sums.pt (torch, 18826 bytes, 2 tensors)

weight f4 [40, 100]
0.04177136 -0.0095134 -0.0045523634 -0.0091540655 0.039452367 0.047404468 0.045571003 0.043614466
0.037822388 -0.05101333 -0.005187757 0.034017194 -0.0012072745 0.0451944 -0.0077440785 -0.026271325
-0.0072781215 -0.0051304656 0.053982753 0.04280819 0.042889368 0.0015660147 0.042502053 -0.026849164
0.042820603 0.04126455 0.040964905 0.04516787 -0.026524758 0.045806278 0.031935763 0.041225787
0.041628484 0.04199271 -0.0060964217 -0.034685563 0.04308411 -0.0073391376 -0.011710814 0.040576212
-0.002231177 -0.002863763 0.042892024 -0.006584588 0.04450523 0.012897748 0.04206906 0.03879885
-0.001425231 -0.02528364 0.043016385 -0.00421465 -0.0051638354 0.04512479 -0.026039658 -0.012217453
0.03907671 0.045148548 -0.007342977 0.04561205 0.043961335 -0.025139853 -0.0071306527 0.040787067
0.039791025 -0.0068674022 -0.0006676732 -0.03431102 -0.0061029512 -0.008955947 -0.022411827 -0.005340548
-0.032946464 0.04442027 0.042657662 0.044032663 0.015682226 -0.00986082 -0.0051148958 0.033213474
-0.023874639 -0.0039520683 -0.035743933 0.03527438 -0.011602739 -0.020602286 -0.04646545 0.04539898
-0.0150543135 -0.02276575 -0.020859154 -0.005413828 -0.019246072 0.008976606 -0.024243109 -0.022457883
-0.006976567 -0.0054425793 0.040985126 0.0041249846 -0.05916195 0.012220856 0.003931603 0.009873328
-0.057820998 -0.065658584 -0.061486125 -0.060115002 -0.05630858 0.04821301 0.00835412 -0.0523269
9.399203e-05 -0.037774105 0.010463561 0.034514382 0.013461585 0.008907555 -0.063473515 -0.059636407
-0.059503797 -0.0030132667 -0.059045788 0.035483304 -0.059971374 -0.05837316 -0.058138248 -0.06110586
0.03565839 -0.06225696 -0.05982838 -0.058316853 -0.05827586 -0.058633015 0.009998151 0.03507163
-0.0596748 0.011273346 0.015701676 -0.05899279 0.0038161022 0.0036313126 -0.06005163 0.011179397
-0.060216013 0.014255024 -0.059235424 -0.05679012 0.0014308343 0.033642314 -0.059835322 0.0037115014
0.010366776 -0.06129548 0.03522064 0.014887416 -0.06571738 -0.061078276 0.011650779 -0.06105088
-0.060650468 0.03375003 0.010603337 -0.058249384 -0.11622037 0.012065032 -0.0019240613 0.04307761
0.011220376 0.014350792 0.03471807 0.007379613 0.042149648 -0.06024073 -0.05988293 -0.06024678
-0.026040329 0.010714027 0.005914547 -0.055905588 0.03257929 0.0036354486 0.04402338 -0.052425865
0.01523765 0.029333511 0.030386688 -0.06136767 0.01670164 0.031709984 0.033391044 0.010241287
0.027411014 -0.016192796 0.034005184 0.08876514 0.0123727415 0.009953255 -0.058421124 -0.006060176
0.05252449 -0.009366791 -0.0039104875 -0.011683006 0.05197534 0.05714838 0.055001326 0.05306674
0.04943654 -0.0047706054 -0.008833693 0.044716366 -0.0021854963 0.054403473 -0.011342966 -0.0275862
-0.014458233 0.014586634 0.05471895 0.052010246 0.05256132 0.00086220814 0.05183659 -0.028521992
0.052463498 0.050949626 0.05039876 0.054402508 -0.029183475 0.055558253 0.05248578 0.050912764
0.050837263 0.051074017 -0.0122852465 -0.04078552 0.062732324 -0.013432334 -0.012426303 0.051705115
-0.006304426 -0.0050130743 0.05273889 -0.013893024 0.05339198 -0.012347832 0.05180812 0.049393576
-0.0041575185 -0.025927901 0.052641843 -0.005943745 -0.013101745 0.05531879 -0.02928657 -0.013149605
00000000: 7218 2b3d 17de 1bbc fe2b 95bb effa 15bc
00000010: ce98 213d 302b 423d a9a8 3a3d 15a5 323d
00000020: a6eb 1a3d 5bf3 50bd 0ffe a9bb 9d55 0b3d
00000030: 693d 9eba c31d 393d 0ac2 fdbb f636 d7bc
00000040: 4f7d eebb 771d a8bb 051d 5d3d a457 2f3d
00000050: c3ac 2f3d bc42 cd3a a216 2e3d c7f2 dbbc
00000060: a864 2f3d 0405 293d d1ca 273d f201 393d
00000070: 734a d9bc 5d9f 3b3d 13cf 023d 5fdc 283d
00000080: a182 2a3d 8c00 2c3d 7ec4 c7bb 7312 0ebd
00000090: f778 303d 267d f0bb b7de 3fbc 3e33 263d
000000a0: f038 12bb f8ad 3bbb 8caf 2f3d 87c3 d7bb
000000b0: 1e4b 363d 1351 533c 9b50 2c3d 8beb 1e3d
000000c0: d1ce baba a31f cfbc f331 303d 0c1b 8abb
000000d0: 6435 a9bb c6d4 383d 1f51 d5bc b62b 48bc
000000e0: e60e 203d afed 383d 5b9d f0bb b3d3 3a3d
000000f0: cd10 343d 18f2 cdbc 40a8 e9bb 5710 273d
00000100: eafb 223d f207 e1bb ca06 2fba b689 0cbd
00000110: 44fb c7bb f7bb 12bc 0299 b7bc c4ff aebb
00000120: dff2 06bd 07f2 353d cdb9 2e3d 985b 343d
00000130: 0378 803c 478f 21bc db9a a7bb da0a 083d
00000140: bf94 c3bc 5a80 81bb 3b68 12bd de7b 103d
00000150: 6a19 3ebc 20c6 a8bc 8e52 3ebd 48f4 393d
00000160: 5ea6 76bc 3d7f babc d1e0 aabc 7b66 b1bb
00000170: f0a9 9dbc 9d12 133c 7c99 c6bc 98f9 b7bc
00000180: b09b e4bb aa57 b2bb 05e0 273d e12a 873b
00000190: cd53 72bd fc39 483c add4 803b bdc3 213c
000001a0: b6d5 6cbd 0278 86bd e0d8 7bbd 263b 76bd
000001b0: d3a3 66bd 017b 453d b8df 083c bb54 56bd
000001c0: 961d c538 05b9 1abd 5b6f 2b3c f45e 0d3d
000001d0: fb8d 5c3c fef0 113c 67fe 81bd 4e45 74bd
000001e0: 41ba 73bd 3a7a 45bb ffd9 71bd f156 113d
000001f0: 8ba4 75bd b218 6fbd 5f22 6ebd 234a 7abd
00000200: 880e 123d 2701 7fbd 9a0e 75bd a7dd 6ebd
00000210: abb2 6ebd 2c29 70bd 49cf 233c 45a7 0f3d
00000220: 906d 74bd d7b3 383c cda0 803c 6ca2 71bd
00000230: 9217 7a3b 51fb 6d3b b3f8 75bd ca29 373c
00000240: 11a5 76bd e78d 693c d8a0 72bd c29c 68bd
00000250: d58a bb3a 86cc 093d e215 75bd a93c 733b
00000260: 69d9 293c f810 7bbd 8543 103d 59ea 733c
00000270: d596 86bd 372d 7abd e9e2 3e3c 7d10 7abd
00000280: a06c 78bd 793d 0a3d 9eb9 2d3c e896 6ebd
00000290: f204 eebd 69ac 453c c930 fcba 2672 303d
000002a0: abd5 373c 961f 6b3c 8934 0e3d aed0 f13b
000002b0: 1ca5 2c3d fcbe 76bd ce47 75bd 54c5 76bd
000002c0: 8752 d5bc e389 2f3c d1ce c13b 42fd 64bd
000002d0: dd71 053d b540 6e3b dc51 343d 81bc 56bd
000002e0: 56a7 793c d54c f03c 81ed f83c aa5c 7bbd
000002f0: e1d1 883c 54e2 013d 0cc5 083d 12cb 273c
00000300: 108d e03c c1a6 84bc 0549 0b3d 7fca b53d
00000310: 0ab7 4a3c fa12 233c fd4a 6fbd 7194 c6bb
00000320: eb23 573d 2b77 19bc 8c23 80bb 146a 3fbc
00000330: 18e4 543d 6b14 6a3d 1249 613d 835c 593d
00000340: f87d 4a3d bd52 9cbb 32bb 10bc 8228 373d
00000350: 8b3a 0fbb 2dd6 5e3d d9d7 39bc 74fc e1bc
00000360: 39e2 6cbc c7fc 6e3c fa20 603d b208 553d
00000370: 8a4a 573d cf05 623a 9b52 543d f4a6 e9bc
00000380: f7e3 563d 8eb0 503d ee6e 4e3d 2ad5 5e3d
00000390: 2f12 efbc 0d91 633d 54fb 563d e789 503d
000003a0: bc3a 503d fd32 513d 0f48 49bc b80e 27bd
000003b0: ce79 803d 4b13 5cbc b197 4bbc bec8 533d
000003c0: 5c95 cebb b744 a4bb bc04 583d 919f 63bc
000003d0: 8cb1 5a3d 904e 4abc c034 543d eb50 4a3d
000003e0: cb3b 88bb c066 d4bc f99e 573d bfc3 c2bb
000003f0: b4a8 56bc f595 623d 64ea efbc 7171 57bc

bias f4 [40]
0.086783476 -0.0562731 0.07570006 -0.041759346 0.09570961 0.06611384 0.040271617 0.0490131
-0.1196893 0.10183449 0.026558759 -0.05013104 0.11736049 0.10691286 -0.073146306 0.020906823
-0.041153338 -0.044403292 0.025467101 0.025574243 -0.034603003 -0.0888642 0.108035654 -0.032538142
-0.058930766 0.09311437 -0.12802193 0.017919494 0.08618281 0.019469207 -0.073744096 0.10257907
-0.03289308 0.008486399 -0.046165723 0.060348455 -0.107104465 -0.008911745 -0.096806675 -0.057585195
00000000: 89bb b13d 9f7e 66bd a208 9b3d d90b 2bbd
00000010: 6603 c43d b166 873d daf3 243d f6c1 483d
00000020: aa1f f5bd 9a8e d03d c191 d93c 3556 4dbd
00000030: b25a f03d 21f5 da3d bbcd 95bd c944 ab3c
00000040: 6790 28bd 3ae0 35bd 62a0 d03c 1381 d13c
00000050: e1bb 0dbd 6ffe b5bd cc41 dd3d b746 05bd
00000060: 6361 71bd bfb2 be3d 2e18 03be e7cb 923c
00000070: 9d80 b03d e37d 9f3c 2507 97bd fa14 d23d
00000080: e5ba 06bd 8a0a 0b3c 4518 3dbd f12f 773d
00000090: 9659 dbbd 9102 12bc 9442 c6bd 74de 6bbd
