SERGIO_output/interm_models/trained_model_epoch_1_alpha_comb.pt (torch, 34265 bytes, 1 tensors)

weight f4 [100, 80]
0	0xbc9ca013	-0.019119298
1	0x3cd4eb2a	0.025991041
2	0xbcc3d562	-0.02390546
3	0x3c8ba591	0.017046722
4	0xbc96e5da	-0.018420149
5	0xbcf839d2	-0.030301008
6	0xbb8a7649	-0.0042255265
7	0xbd0c4de2	-0.034253962
8	0x3d074237	0.03302213
9	0xbc2c7a8d	-0.010527265
10	0xbc5656d7	-0.013082228
11	0xbb734fab	-0.0037126343
12	0xbc40e6bc	-0.011773761
13	0xbca6b1a5	-0.02034838
14	0x3c94672b	0.0181156
15	0xbcc8735e	-0.024469074
16	0x3c5c193b	0.01343375
17	0x3cc513c0	0.02405727
18	0x3c0f866a	0.008760074
19	0x3b8a76b7	0.0042255777
20	0xbc38aa31	-0.011271046
21	0x3d17da3b	0.037073355
22	0xbcbcc70f	-0.023044137
23	0x3ce5f759	0.028072046
24	0x3c09c95b	0.008409823
25	0xbb935500	-0.004496217
26	0x3ce03125	0.027367184
27	0xbd0f267b	-0.034948807
28	0xbc340b77	-0.010989062
29	0xbc9911d4	-0.018685259
30	0x3cbab903	0.022793299
31	0xbcbfcc90	-0.023412973
32	0x3cb07b5c	0.021543197
33	0x3c8a2dec	0.0168676
34	0xba8a9818	-0.0010573892
35	0xbc58dec0	-0.0132367015
36	0x3c68940a	0.0141954515
37	0xbc1af198	-0.0094570145
38	0x3c46686a	0.012109855
39	0x3cb5bac9	0.022183793
40	0xbb6cf75a	-0.0036158175
41	0xbb7a0f24	-0.0038155997
42	0xbbad5825	-0.0052900487
43	0xbb8a6189	-0.004223053
44	0xbb6b0ddd	-0.0035866417
45	0xbba41dc6	-0.005008432
46	0xbc0b7c0f	-0.008513465
47	0xbd8f32ce	-0.06992112
48	0xbb6e44ae	-0.0036356854
49	0xbb803ef0	-0.0039137527
50	0xbb8cefcd	-0.0043010474
51	0xbb9d99a5	-0.0048095756
52	0xbb77b657	-0.0037797892
53	0xbba51a55	-0.0050385394
54	0xbbddbcc7	-0.006766889
55	0xbb6beacb	-0.0035998102
56	0xbb55c6cf	-0.003261972
57	0xbb688b74	-0.0035483511
58	0xbb87caef	-0.0041440646
59	0xbb818b02	-0.0039533386
60	0xbbb9b001	-0.0056667333
61	0xbb4f964c	-0.0031675277
62	0xbb5d5652	-0.0033773375
63	0xbb974c49	-0.004617248
64	0xbc11196b	-0.008856158
65	0xbb8664e4	-0.0041013826
66	0xbb976536	-0.0046202196
67	0xbb84b1d6	-0.00404952
68	0xbbcf87ab	-0.0063333116
69	0xbb8e5a84	-0.0043442864
70	0xbbb26d6a	-0.005445172
71	0xbc0935f9	-0.0083746845
72	0xbb9a7c22	-0.004714505
73	0xbb4f6e30	-0.003165137
74	0xbb8da726	-0.004322904
75	0xbb88a4f8	-0.0041700564
76	0xbb83d338	-0.004022982
77	0xbba6d494	-0.0050912593
78	0xbc00733e	-0.007839976
79	0xbb6f3eeb	-0.0036506008
80	0x3b78517a	0.003789036
81	0xbbba1b12	-0.0056794966
82	0x3b86268c	0.0040939506
83	0xbac8858a	-0.0015298587
84	0x3b163d9f	0.0022924913
85	0x3c03f765	0.008054589
86	0xb9ce2c9d	-0.0003932462
87	0x3b78100e	0.0037851366
88	0xbbf0ec56	-0.007352392
89	0xbb0170ec	-0.0019751145
90	0xbb1aa708	-0.0023598094
91	0xbb0f9e92	-0.0021914584
92	0x3a4ed528	0.0007890039
93	0x3afd441c	0.0019322666
94	0xbb386ca9	-0.0028140938
95	0x3b669282	0.003518254
96	0x3bb0b8ec	0.005393138
97	0xbb851542	-0.004061372
98	0x3ae95689	0.0017802279
99	0xbbc17548	-0.0059038736
100	0xbab28dd1	-0.0013622587
101	0xbc117867	-0.008878804
102	0x3be0f7f6	0.0068654967
103	0xbb6ecf64	-0.0036439532
104	0x3a60ba72	0.00085727044
105	0xbae12f14	-0.0017180168
106	0xbbe50e3b	-0.006990222
107	0x3b52d61c	0.0032171076
108	0x3a8f70dc	0.0010943669
109	0x3ac5a729	0.0015079725
110	0xbb87c786	-0.004143658
111	0x3b274313	0.0025522157
112	0xb8cebfca	-9.858569e-05
113	0x3a8483c6	0.0010110072
114	0xbad5a2d0	-0.0016299132
115	0x3b306964	0.0026918286
116	0xbb38222b	-0.0028096538
117	0xbb102569	-0.0021994954
118	0xbaa860c1	-0.0012846218
119	0xbab33b62	-0.0013674314
120	0x3a0d90b9	0.00054002885
121	0x3a5c65d3	0.0008407507
122	0x3a1e261f	0.0006032902
123	0x3a62b13c	0.0008647626
124	0x3a562d11	0.00081701676
125	0x39ddd352	0.0004230985
126	0x3a11773d	0.0005549079
127	0x3a3dfc17	0.0007247342
128	0x3a722c36	0.00092381553
129	0x3a31d48f	0.0006783688
130	0x3a0fb786	0.0005482364
131	0x3a57654b	0.0008216693
132	0x3a322c66	0.0006796777
133	0x39dd902d	0.00042259824
134	0x39fb7479	0.0004796123
135	0x3a368758	0.0006962917
136	0x3aa0d39b	0.0012270095
137	0x3a5192da	0.00079946
138	0x3a4aba0c	0.00077334116
139	0x3a4aa188	0.00077297585
140	0x39f9b356	0.00047626597
141	0x3a2f6ec7	0.00066922273
142	0x3a433807	0.00074470084
143	0x3a69c5d4	0.00089177233
144	0x3978eaa3	0.00023738532
145	0x3a81c0a3	0.0009899329
146	0x3a272519	0.00063760724
147	0x3a7850ac	0.000947247
148	0x3a2591d8	0.0006315983
149	0x3a3bc83f	0.0007163323
150	0x3a7e2d49	0.0009696079
151	0x39f83bab	0.00047346702
152	0x3a4d0b60	0.00078218244
153	0x3a836a10	0.0010026116
154	0x3a3e5341	0.00072603306
155	0x3a3c6aa7	0.00071875233
156	0x3a4a6ffd	0.0007722376
157	0x385f0279	5.3169646e-05
158	0x3a3a232a	0.0007100577
159	0x3a0d8aea	0.0005399423
160	0x3ca7bfcf	0.020477204
161	0xbcb293d6	-0.02179901
162	0x3caec1aa	0.02133258
163	0xbc8940b0	-0.016754478
164	0x3c8d3802	0.01723862
165	0x3cc6a0ac	0.024246536
166	0x3b67156b	0.003526057
167	0x3cdd099c	0.026982121
168	0xbce9e9f6	-0.028553944
169	0x3d750d70	0.059827268
170	0x3aa3d92f	0.0012500639
171	0x3d828ea0	0.0637486
172	0x3c6b44e3	0.014359686
173	0x3c9f153a	0.019419301
174	0xbc8161e2	-0.015793744
175	0x3cb9e414	0.022691764
176	0xbc3afcf7	-0.011412851
177	0xbc0c40c7	-0.008560366
178	0xbc034245	-0.008011405
179	0x3c2bd038	0.010486655
180	0x3c0b183f	0.008489667
181	0xbcf85b3c	-0.030316941
182	0x3cc1ba11	0.023648294
183	0xbc884356	-0.01663367
184	0xbbca7bc3	-0.0061793043
185	0x3bd95a68	0.0066330917
186	0xbcd177ab	-0.025569757
187	0x3c98d93b	0.018658271
188	0x3c94b6a5	0.018153498
189	0x3c66e550	0.014092758
190	0xbca2c16d	-0.019867623
191	0x3cab3e12	0.02090362
192	0xbc8c3039	-0.017112838
193	0xbc41a5ca	-0.011819312
194	0x3ae3e5ba	0.001738719
195	0x3c4670d2	0.012111859
196	0xbc8c8536	-0.017153364
197	0x3c056d10	0.008143678
198	0xbc65f331	-0.014035032
199	0xbc94140a	-0.018075962
200	0x3bbfcd5c	0.005853338
201	0x3bb8736c	0.0056289937
202	0x3c111e24	0.008857284
203	0x3bd5b2f8	0.006521579
204	0x3bbd5699	0.0057781455
205	0x3bfa74d1	0.00764332
206	0x3c410b20	0.011782438
207	0x3bc7e418	0.006100189
208	0xbc85eee0	-0.016349256
209	0x3bc69bea	0.006061067
210	0x3bc537e1	0.006018624
211	0x3beec3d5	0.0072865286
212	0x3bab30af	0.0052243094
213	0x3beb44a4	0.0071798135
214	0x3c19b527	0.009381569
215	0x3bbcb201	0.0057585244
216	0x3bb38631	0.0054786433
217	0x3bb96ad7	0.0056584883
218	0x3c9b3b1a	0.01894908
219	0x3bb5cd33	0.0055481433
220	0x3c12f275	0.008968939
221	0x3bafd803	0.005366327
222	0x3bbfed4f	0.005857147
223	0x3bee065e	0.0072639426
224	0x3c3fa654	0.011697371
225	0x3bc5a7c5	0.0060319626
226	0x3bb60870	0.005555205
227	0x3bc872e2	0.0061172107
228	0x3c18341e	0.009289769
229	0x3bd6e2c1	0.006557793
230	0x3bfe4105	0.007759216
231	0x3c3f4dfe	0.01167631
232	0x3be649d3	0.0070278435
233	0x3bbcce9b	0.005761934
234	0x3bd57976	0.0065147234
235	0x3bd694f2	0.0065485174
236	0x3bc8a091	0.0061226566
237	0x3bf12331	0.0073589315
238	0x3c36cc17	0.011157057
239	0x3bc9a156	0.006153266
240	0xbb230e1f	-0.0024880243
241	0x3bb38595	0.0054785707
242	0x3af8e056	0.0018987756
243	0xbaeb75bd	-0.0017964166
244	0x3b0948a3	0.0020947836
245	0x3bb18987	0.005418006
246	0x3ad9ce77	0.0016617317
247	0xbb87ab21	-0.004140273
248	0x3a091390	0.00052290503
249	0x3b59bd81	0.0033224525
250	0x3af48e49	0.0018658127
251	0x3ab0fc35	0.0013502898
252	0xba2e3242	-0.0006645062
253	0x36c3ed00	5.8390433e-06
254	0xba8cdc00	-0.0010746717
255	0x3ae82f72	0.0017714335
