SERGIO_output2/final_model_prods.pt (torch, 18708 bytes, 2 tensors)

weight f4 [40, 100]
0	0x3aca0e8e	0.0015415715
1	0x3b872976	0.0041248156
2	0x3b6bcce4	0.0035980279
3	0x3b4a103d	0.0030832433
4	0x3b0020dd	0.0019550838
5	0x3b096e68	0.0020970348
6	0x3abc2b9d	0.001435626
7	0x3ae1f8b3	0.0017240256
8	0xbd30a156	-0.043122612
9	0x3b8911c5	0.0041830265
10	0x3b8d2af5	0.0043080994
11	0x3b49c73c	0.003078892
12	0x3b8b0e62	0.004243658
13	0x3b02e2bd	0.0019971572
14	0x3b7b6472	0.003835943
15	0x3b8807ef	0.0041513364
16	0x3b8b29a3	0.004246907
17	0x3b87c1f2	0.004142993
18	0x3ae11304	0.0017171805
19	0x3b27fe4d	0.0025633753
20	0x3b2e1a32	0.0026565907
21	0x3b78595d	0.0037895062
22	0x3b134237	0.0022469887
23	0x3b85b298	0.004080128
24	0x3afd63d4	0.0019332119
25	0x3b1ef49d	0.0024254688
26	0x3b4edda1	0.0031565207
27	0x3b0a08d6	0.0021062396
28	0x3b883b34	0.004157448
29	0x3afc6be5	0.0019258229
30	0x3b3ef603	0.0029138334
31	0x3b247009	0.0025091192
32	0x3b2dd83a	0.0026526586
33	0x3b2509cf	0.0025182848
34	0x3b810d16	0.0039383275
35	0x3b948998	0.004533004
36	0x3af5ebf9	0.0018762342
37	0x3d921bf1	0.07134236
38	0x3b911cbc	0.004428474
39	0x3b3efdf1	0.002914306
40	0x3b86dc8e	0.0041156476
41	0x3b3de1df	0.002897374
42	0x3b11a0f3	0.0022221177
43	0x3b8aea03	0.004239322
44	0x3b0be54e	0.0021346393
45	0x3b931a81	0.0044892435
46	0x3b07d371	0.0020725394
47	0x3b3b819e	0.0028611193
48	0x3b818bbc	0.003953425
49	0x3b87554d	0.0041300417
50	0x3aeba3fd	0.001797795
51	0x3b7c936c	0.0038540019
52	0x3b8d4498	0.0043111555
53	0x3ae9dcf3	0.0017842337
54	0x3b856a10	0.0040714815
55	0x3b722434	0.0036947848
56	0x3b132b38	0.002245618
57	0x3aef64af	0.0018264259
58	0x3b8c8aa1	0.004288987
59	0x3b16844f	0.0022967046
60	0x3b1bb09c	0.002375639
61	0x3b8767db	0.0041322536
62	0x3b879826	0.0041380106
63	0x3b4d56b1	0.003133219
64	0x3ca40535	0.020022014
65	0xbd115279	-0.035479043
66	0x3b73aae6	0.003718072
67	0x3b944a22	0.004525439
68	0x3b8b4376	0.0042499853
69	0x3b8c148b	0.00427491
70	0x3b88df7e	0.004177033
71	0x3b8b788c	0.0042563137
72	0x3b92ad0f	0.0044761966
73	0x3b03485c	0.0020032143
74	0x3b359489	0.0027706942
75	0x3b090c0e	0.0020911726
76	0x3b3c5d69	0.00287422
77	0x3b797941	0.0038066658
78	0x3b7e4c1d	0.0038802691
79	0x3b8d4b17	0.00431193
80	0x3b8a40b0	0.004219137
81	0x3b8e3fcf	0.0043411027
82	0x3b955415	0.0045571425
83	0x3ace3590	0.0015732516
84	0x3b312604	0.0027030716
85	0x3b8a512f	0.0042211036
86	0x3b3ef8b3	0.0029139936
87	0x3b0a0ea1	0.0021065848
88	0x3b877fda	0.004135114
89	0x3b85aff8	0.004079815
90	0x3b8efc22	0.0043635527
91	0x3b77d2a9	0.0037814772
92	0x3b6d2426	0.0036184876
93	0x3b8ed001	0.004358292
94	0x3b896115	0.0041924813
95	0x3b86e85e	0.004117056
96	0x3b8979a2	0.004195408
97	0x3b8bfe72	0.0042722756
98	0x3b12a4b4	0.0022376003
99	0x3b8183f7	0.003952499
100	0x3b8caf49	0.0042933566
101	0x3b847f70	0.004043512
102	0x3b8ca409	0.0042920155
103	0x3b883440	0.0041566193
104	0x3b88d421	0.0041756784
105	0x3b885f34	0.0041617397
106	0x3b8be1b6	0.00426885
107	0x3b8c84e3	0.0042883023
108	0x3b8c02bd	0.0042727874
109	0x3b86d5bb	0.004114834
110	0x3b8c536a	0.0042824047
111	0x3b8ae885	0.0042391443
112	0x3b8df4b0	0.0043321475
113	0x3b87fd3f	0.0041500623
114	0x3b8c0450	0.004272975
115	0x3b875b69	0.00413077
116	0x3b8a88a6	0.0042277155
117	0x3b8b5c3c	0.0042529386
118	0x3b8adc8a	0.004237716
119	0x3b8e2028	0.0043373294
120	0x3b8e5c1a	0.0043444755
121	0x3b8eb55b	0.0043551154
122	0x3b8ea10b	0.004352694
123	0x3b88a57f	0.0041701193
124	0x3b8e3477	0.0043397504
125	0x3b8e2d2c	0.004338881
126	0x3b8e7f7c	0.0043486934
127	0xbd84dd73	-0.064875506
128	0x3b87809a	0.0041352035
129	0x3b8887c4	0.004166575
130	0x3b8e2f26	0.0043391166
131	0x3b8e5be2	0.0043444494
132	0x3b8e9736	0.004351522
133	0x3b8e2b3c	0.00433865
134	0x3b8c40d0	0.004280187
135	0x3b8c2d50	0.0042778626
136	0x3b8ac147	0.0042344662
137	0x3b8c7d20	0.004287377
138	0x3b89e268	0.004207898
139	0x3b8e5220	0.004343286
140	0x3b8bdbf4	0.004268164
141	0x3b8c9713	0.0042904704
142	0x3b8de228	0.0043299384
143	0x3b8cbae9	0.0042947424
144	0x3b88a40d	0.004169947
145	0xbd020d71	-0.0317511
146	0x3b8d5ff1	0.0043144156
147	0x3b8e96dc	0.00435148
148	0x3b8cb1b3	0.0042936443
149	0x3b879421	0.0041375314
150	0x3b8e8150	0.0043489113
151	0x3b8c9ea6	0.0042913733
152	0x3b8c617c	0.004284082
153	0x3b8a237a	0.004215655
154	0x3b890672	0.0041816765
155	0x3b88a135	0.004169608
156	0x3b8dc7b8	0.004326787
157	0x3b885008	0.004159931
158	0x3b8bf9d4	0.004271725
159	0x3b886dea	0.0041634934
160	0x3b8d859b	0.0043189055
161	0x3b87f4eb	0.0041490695
162	0x3b8c5582	0.0042826543
163	0x3b8e9048	0.0043506958
164	0x3b8e41cf	0.004341341
165	0x3b8c7826	0.0042867837
166	0x3b8ca26a	0.004291822
167	0x3b8cec35	0.004300619
168	0x3b8eabac	0.004353961
169	0x3b8ce7df	0.004300102
170	0x3b88b8fe	0.0041724434
171	0x3b8c37b5	0.0042791017
172	0x3b8c15f3	0.0042750775
173	0x3b884391	0.004158445
174	0x3c9f5654	0.019450344
175	0x3b87ec72	0.0041480595
176	0x3b89ba2f	0.004203103
177	0x3b900b9e	0.004395916
178	0x3b874dcb	0.0041291467
179	0x3b8f186b	0.0043669245
180	0x3d06c8b1	0.032906238
181	0x3b8c6bb6	0.004285301
182	0x3b8ce00c	0.0042991694
183	0x3b8dd97f	0.004328906
184	0x3b883518	0.00415672
185	0x3b864106	0.004097107
186	0x3b8952af	0.004190765
187	0x3b87ee2e	0.0041482663
188	0x3b8ba402	0.0042614946
189	0x3b863ac7	0.0040963623
190	0x3b88f4de	0.004179581
191	0x3b8e4298	0.0043414347
192	0x3b893de1	0.0041882847
193	0x3b8dd376	0.0043281866
194	0x3b874a51	0.0041287323
195	0x3b87aad0	0.0041402355
196	0x3b8b3d56	0.004249255
197	0x3b8dbd69	0.004325558
198	0x3b8e5880	0.004344046
199	0x3cac514c	0.02103486
200	0x3b894f57	0.0041903662
201	0x3b22c358	0.0024835672
202	0x3b75c774	0.0037502917
203	0x3b7c33c9	0.0038483015
204	0x3b88502b	0.0041599474
205	0x3b8835b7	0.004156794
206	0x3b8ae695	0.0042389133
207	0x3b88f057	0.0041790414
208	0x3b85aedd	0.004079683
209	0x3b16cb89	0.00230095
210	0x3b16d113	0.0023012802
211	0x3b828429	0.00398304
212	0x3b2941a1	0.0025826471
213	0x3b8935b8	0.004187312
214	0x3b5ff455	0.0034172733
215	0x3b205eef	0.0024470647
216	0x3b1bfa00	0.0023800135
217	0x3b4169b8	0.0029512476
218	0x3b80f0bd	0.0039349482
219	0x3b84c854	0.0040522013
220	0x3b84ce44	0.004052909
221	0x3dcc7d28	0.09984809
222	0x3b87801f	0.0041351463
223	0x3b2a8f3c	0.0026025316
224	0x3b8824ad	0.0041547627
225	0x3b85b4d7	0.0040803957
226	0x3b7e00dc	0.0038757836
227	0x3b889ba7	0.004168946
228	0x3b19b589	0.002345415
229	0x3b89b53a	0.004202512
230	0x3b820ad3	0.0039685755
231	0x3b85c889	0.0040827435
232	0x3b848bfa	0.004045007
233	0x3b8580b9	0.004074183
234	0x3b64f520	0.0034936145
235	0xb9203ec0	-0.00015282165
236	0x3b894e91	0.004190274
237	0x3b2936a2	0.0025819917
238	0x3ac069f8	0.0014680019
239	0x3b83564d	0.0040080906
240	0x3b3daf0d	0.002894345
241	0x3b851f3f	0.0040625627
242	0x3b866ad6	0.0041020913
243	0x3b21dd81	0.0024698677
244	0x3b885504	0.0041605253
245	0x3a1d938e	0.0006011062
246	0x3b87c7b4	0.0041436795
247	0x3b830808	0.00399876
248	0x3b47ff68	0.0030517224
249	0x3b2528c2	0.0025201296
250	0x3d2cd1e6	0.042192362
251	0x3b70d11e	0.0036745737
252	0x3b1090db	0.0022058997
253	0x3b895bd9	0.0041918573
254	0x3b2e0c3b	0.0026557583
255	0x3b6b50a8	0.003590623

bias f4 [40]
0	0xbc5f2407	-0.013619429
1	0x3d709cb4	0.058743194
2	0x3db35a07	0.08757406
3	0xbdc6bf97	-0.097045116
4	0xbcdad955	-0.02671496
5	0x3ce01039	0.027351486
6	0x3c6df63c	0.014524039
7	0xbd0170d8	-0.031601757
8	0xbd3d8760	-0.04627168
9	0x3b1b4a20	0.0023695305
10	0x3c97d5af	0.01853451
11	0xbd085319	-0.033282373
12	0xbd4275ac	-0.047475502
13	0x3d94744e	0.07248746
14	0xbd40294a	-0.046914376
15	0x3d5c6312	0.05380542
16	0x3c1d027b	0.009583111
17	0xbd989d61	-0.07451893
18	0x3c71e52a	0.01476411
19	0xbd5bfc99	-0.053707693
20	0x3da75899	0.081711955
21	0xbd90c6ae	-0.07069145
22	0x3cab1ba0	0.020887196
23	0xbb11a8b7	-0.0022225806
24	0x3d8d5883	0.06901648
25	0xbdbd5435	-0.09244577
26	0x3d97586a	0.073899105
27	0x3d1b6cd7	0.037945595
28	0xbc95fbe6	-0.018308591
29	0xbd1cd8de	-0.03829276
30	0x3cec19ab	0.028820833
31	0x3d16cfcb	0.03681926
32	0x3dba0968	0.09083825
33	0xbc949e7f	-0.018141983
34	0xbd74592d	-0.059655357
35	0xbd090721	-0.033454064
36	0xbdc8ba4c	-0.09801158
37	0x3c6e662a	0.014550725
38	0xbc45f3ce	-0.012082053
39	0xbc84da63	-0.016217416
