SERGIO_output2/final_model_sums.pt (torch, 18702 bytes, 2 tensors)

weight f4 [40, 100]
00000000: 9078 853b 583c 8fbb e0d7 92ba b8b2 48bb
00000010: 3955 1dbb 1efd 49bb 5a5e 4b3b 8eb3 7a3b
00000020: 73fd 583b bbd2 2fbb a7b2 96ba 0268 24bb
00000030: dd7c 203b 3c70 49bb c2c5 80b9 68f3 27bb
00000040: 3141 0abb 14d9 f5ba 9bda 863b 5fb7 953b
00000050: 4e4d 963b cb8f 803b 1939 993b 2b38 b2ba
00000060: 4950 973b 31a7 963b bf12 983b 8803 4fbb
00000070: 3555 19bb 6fc8 3fbb 085b 0bbd 02c8 963b
00000080: 83d6 983b 02eb 943b 81ca 84b9 4148 b33a
00000090: 1f91 ae39 2c80 b5b9 b182 e8bb 354d 943b
000000a0: d79a 65ba caf9 78ba 73af 933b 4037 2bb7
000000b0: af57 45bb 6bf2 3dbb 3f41 8d3b 11ac 973b
000000c0: 3b00 1c3b a76d 1cbb 67de 983b 4272 863a
000000d0: c86f b738 6262 b8b8 6cb1 90ba bd02 42bb
000000e0: 86ce 923b eaa1 42bb 6d33 dcb9 698f 46bb
000000f0: de07 8f3b f80b 0bbb 4673 d8b9 368b 973b
00000100: 45cc 953b 783b 17b9 f493 003a ff27 263b
00000110: 6f57 5e3b 7cc6 fc38 de15 b7ba c7a7 80ba
00000120: 40b5 393a 519f 49bb 6903 973b 27e5 4bbb
00000130: 868b cfba 8e91 993b 62be 28bb 5baf 813b
00000140: c2bc 72bb 0919 953c 4e69 c33d 28c7 903b
00000150: ff03 4dbb 2a84 87bb b39e 3ebb 5b64 49bb
00000160: 3dc0 74b9 70f7 8fbb c238 14bb 8d0b 693b
00000170: e3e9 2cbb 04db 6f3b 3d81 88bb 4617 46bb
00000180: 356a 11bb 66b7 193b a02a 973b 6c25 173b
00000190: b2cb 07b9 4192 6fbb 54e4 d6ba 09b8 263b
000001a0: 022d faba dabd efba deb8 20b9 f89a 74b9
000001b0: 5a47 d4b9 4618 20bb 5a3d 123a bb4b 503b
000001c0: ba31 623b f448 01bb a60c 1a3b b45a 23bb
000001d0: 680d 353b 8af0 453a 7069 873a 95eb ba3a
000001e0: dd64 ca3a e540 043b cff1 d23a e8b3 05bb
000001f0: 6c8f cd3a 867d cc3a d640 d73a bbe8 12bb
00000200: 5a80 0fbb 5a14 eeba ec72 3a3a a43c d63a
00000210: 0c30 da3a a4c6 c93a 66e1 4c3a 5bd9 023b
00000220: 618e 85ba bf48 273b 0570 df3a 34c0 173a
00000230: 02d8 1a3b 3a29 42b9 220f ac3a f129 383b
00000240: 648e 09bb 12bc adba 2e86 a93a 4549 883a
00000250: 36a2 213b 7a82 16bb 5eaa eb3a 9a0f 003b
00000260: 7ba6 323b 5ed6 57ba 20a0 feba 1e50 a73a
00000270: 3ad6 6539 308c f2ba 5251 1d3b c586 0abb
00000280: 711a 003a 9874 13bb 82ba 353b 2218 af3a
00000290: d6ff 2639 c4f8 7d3a 84be 5d3b 73e9 4c3b
000002a0: 6150 bc3a 2b6a 3f3b f6c8 0ebb 048c 313b
000002b0: 3506 2a3b 6dc8 09bb 8661 cb3a a844 03bb
000002c0: 54ee 42b9 13f6 803b c6a7 1ebb 7cc5 8eba
000002d0: 590a 9d3a 98ed 1eb8 9638 303b 4c88 103b
000002e0: e2b9 2eba 8f67 05bb b4ab 1e3b 93a2 f7ba
000002f0: 1c96 543b 4f76 813a d20f 9e3a 0d1b 593a
00000300: 8f57 953d f267 b43a 9c17 493a d955 94ba
00000310: 5ed6 eebb c0a6 213b ecc6 28bd 2545 2f3b
00000320: b9fd 9abb e323 8fbb 055f 99bb 93fd 97bb
00000330: 862a 9cbb c3e5 9fbb 5ce3 9cbb ba8d 9bbb
00000340: c619 9abb c625 88bb 41a9 88bb 3f6f 9cbb
00000350: 0e43 86bb 93ed 9dbb 3db7 93bb 19ef 89bb
00000360: 8731 8bbb 4283 90bb 1b3e a0bb cd9b 99bb
00000370: 294b 99bb b2d6 94bb 56d7 9abb ffff 8abb
00000380: ce21 9bbb 3fc7 99bb adcb 95bb b3e9 9dbb
00000390: 8865 89bb 9e25 9ebb 2ec9 97bb b44f 9abb
000003a0: 290d 99bb 1c0d 9abb 5239 95bb 9ca0 55bb
000003b0: a8b7 9cbb 17ae 8abb 4a38 6ebb 7ed8 99bb
000003c0: 8d6b 263c ca50 9dbb bed2 99bb 033a 8abb
000003d0: e95a 9dbb b3f5 6abb 06b4 9abb 71ee 98bb
000003e0: a60a 8ebb f733 8abb 3a33 9cbb df20 98bb
000003f0: 0433 84bb 04bf 9cbb 1856 8bbb b54d 97bb
0.00407321 -0.004371207 -0.0011203252 -0.0030624103 -0.0024007095 -0.0030821036 0.003103158 0.0038253996
0.0033110052 -0.0026828486 -0.0011497334 -0.0025086408 0.0024488487 -0.0030737063 -0.00024561404 -0.002562726
-0.0021095986 -0.0018756711 0.0041154153 0.0045689787 0.004586852 0.0039233915 0.004675996 -0.0013597062
0.004617725 0.0045975675 0.0046409066 -0.0031587798 -0.0023396735 -0.0029263755 -0.03402236 0.0046014795
0.0046642437 0.0045446167 -0.0002532788 0.001367815 0.0003329599 -0.00034618506 -0.0070956578 0.0045258054
-0.00087587297 -0.00094976707 0.004506999 -1.0205258e-05 -0.0030112078 -0.0028983604 0.0043107565 0.004628666
0.0023803848 -0.0023869069 0.0046651843 0.001025744 8.746941e-05 -8.792129e-05 -0.0011039204 -0.0029603683
0.004480186 -0.002969856 -0.00041999985 -0.0030297881 0.0043649515 -0.002121685 -0.00041284616 0.0046247495
0.00457147 -0.00014422636 0.0004904859 0.002535343 0.0033926626 0.00012053267 -0.0013968309 -0.0009815627
0.00070841983 -0.0030765126 0.004608561 -0.0031111927 -0.0015834428 0.004686541 -0.0025748243 0.0039576716
-0.0037038778 0.018200414 0.0954157 0.0044182725 -0.00312829 -0.004135628 -0.0029086291 -0.0030729983
-0.00023341268 -0.0043935105 -0.0022616838 0.0035559863 -0.0026384525 0.003659905 -0.004165797 -0.0030226274
-0.0022188548 0.0023455261 0.0046132356 0.0023063077 -0.00012950486 -0.003655568 -0.0016394951 0.0025439283
-0.00190869 -0.0018290833 -0.00015327657 -0.00023327384 -0.00040488952 -0.002442853 0.00055786 0.003178342
0.0034514503 -0.0019727321 0.0023506074 -0.002492589 0.00276264 0.0007550797 0.0010331105 0.0014260883
0.0015441437 0.0020180282 0.0016093793 -0.0020401422 0.0015683002 0.0015601374 0.0016422521 -0.002241655
-0.0021896572 -0.0018164024 0.00071124616 0.0016344977 0.0016646399 0.0015394283 0.00078155694 0.001996598
-0.0010189527 0.0025525538 0.0017046934 0.00057888334 0.0023627286 -0.0001851664 0.0013127069 0.002810117
-0.0020989412 -0.0013254902 0.0012933665 0.0010397813 0.0024663336 -0.0022965954 0.001797985 0.001954055
0.0027259875 -0.00082335423 -0.0019426383 0.0012764966 0.00021918947 -0.0018504914 0.002400477 -0.0021137458
0.00048867526 -0.0022499915 0.0027729576 0.0013358633 0.000159263 0.0009688253 0.003383548 0.0031267076
0.0014367216 0.0029207568 -0.0021787263 0.0027091512 0.002594364 -0.0021024004 0.0015516735 -0.0020029936
-0.00018590066 0.0039355843 -0.0024208887 -0.0010892595 0.0011981233 -3.7891412e-05 0.0026889197 0.0022053896
-0.0006665272 -0.0020355915 0.002421123 -0.0018893055 0.0032438105 0.0009877178 0.0012059158 0.0008281924
0.07292091 0.0013763888 0.00076710596 -0.0011317089 -0.007288738 0.002466604 -0.04120533 0.0026744094
-0.004729953 -0.0043682917 -0.0046805167 -0.0046383827 -0.0047658114 -0.0048796847 -0.0047878455 -0.0047471197
-0.0047027795 -0.0041548936 -0.0041705673 -0.0047740038 -0.004097349 -0.004819581 -0.0045079277 -0.004209411
-0.0042478475 -0.0044101784 -0.004890216 -0.0046877624 -0.0046781492 -0.0045421952 -0.004725377 -0.004241943
-0.0047342544 -0.0046929414 -0.004571399 -0.004819119 -0.0041930117 -0.0048262617 -0.004632137 -0.0047092084
-0.0046707583 -0.00470127 -0.0045539523 -0.0032596951 -0.0047826357 -0.004232179 -0.003634947 -0.0046949973
0.010157478 -0.0048008906 -0.004694312 -0.0042183413 -0.004802097 -0.0035852015 -0.0047211675 -0.0046670963
-0.0043347655 -0.0042176205 -0.004766849 -0.0046425904 -0.004034402 -0.004783513 -0.0042522065 -0.0046174177

bias f4 [40]
00000000: bbf4 803d e593 c3bd ae65 4fba 5468 163d
00000010: a110 8c3d 44f2 89bd a005 d1bd 1908 ab3d
00000020: b189 583d 697d 99bd f0df c43d be25 1cbd
00000030: f04c df3b 6970 a1bd 9500 4a3d e383 08bd
00000040: 1408 ce3d 59d7 a93c 3227 90bd 7efd 923b
00000050: 43d5 c43d 2e08 c3bc 848d ba3d 5df8 653d
00000060: e764 6dbd ca82 d33b 12c1 a3bd 82e8 fe3c
00000070: 4e44 52ba 8de8 863d f0af c03d 1957 02bd
00000080: f927 353d 1a1b f6bc bd2a 9b3d e324 4bbd
00000090: eed7 8c3d 7a67 5a3d 25a3 a13d 060e 34bd
0.06296679 -0.09549693 -0.0007911575 0.03672059 0.06839109 -0.067356616 -0.10206151 0.08351154
0.052865688 -0.07494623 0.09613025 -0.03812193 0.0068145916 -0.07882769 0.04931696 -0.033328902
0.100601345 0.020732569 -0.07038726 0.004485785 0.09610989 -0.023807611 0.09109023 0.05614506
-0.057957556 0.0064548003 -0.079958096 0.031116728 -0.00080210424 0.06587324 0.094085574 -0.031821344
0.044227574 -0.03004222 0.07576511 -0.049595725 0.06877123 0.05332134 0.078924455 -0.043958686
