SERGIO_output2/interm_models/trained_model_epoch_5_sums.pt (torch, 18826 bytes, 2 tensors)

weight f4 [40, 100]
0	0x3afb3b0d	0.0019167379
1	0xbb149784	-0.0022673318
2	0xb9dafc9d	-0.00041768412
3	0xba8d3fa7	-0.0010776416
4	0xba21f85a	-0.000617867
5	0xba6bc112	-0.00089933083
6	0x3ac085be	0.0014688296
7	0x3ae9fdaa	0.0017852087
8	0x3ac3756e	0.0014912316
9	0xba91e76e	-0.0011131593
10	0xba783abe	-0.00094692025
11	0xba4ac197	-0.00077345356
12	0x3a31a74c	0.00067769433
13	0xba71ed4d	-0.0009228781
14	0xb9a93c32	-0.0003227904
15	0xba8bd3ef	-0.001066802
16	0xba8fc812	-0.001096966
17	0xba813780	-0.0009858459
18	0x3aff025a	0.0019455657
19	0x3b0f83bc	0.0021898588
20	0x3b103301	0.0022003057
21	0x3ae38fe2	0.0017361606
22	0x3b144847	0.0022626088
23	0xba38857d	-0.0007038934
24	0x3b1207fa	0.0022282586
25	0x3b10cd0d	0.0022094876
26	0x3b11c5d2	0.0022243154
27	0xba7fb4ea	-0.00097544363
28	0xba8496e0	-0.0010115765
29	0xba5a83cc	-0.00083356793
30	0xbd15215b	-0.036408763
31	0x3b10fa53	0.002212186
32	0x3b13567c	0.0022481969
33	0x3b0e9caa	0.002176086
34	0xb9bfa263	-0.00036551346
35	0xb8d4fcd9	-0.00010156044
36	0x39db3654	0.00041811413
37	0xba282c9c	-0.0006415339
38	0xbbe2d646	-0.006922516
39	0x3b0d7565	0.0021584865
40	0xba3520e8	-0.00069095055
41	0xb9147b5e	-0.00014160338
42	0x3b0d3cb5	0.0021551077
43	0xba06b99a	-0.0005139351
44	0xba6d2563	-0.00090464036
45	0xbb0db764	-0.0021624202
46	0x3b05f523	0.0020440302
47	0x3b11a34c	0.0022222577
48	0x3a4fdb20	0.00079290755
49	0xba84d939	-0.0010135538
50	0x3b1423f7	0.0022604445
51	0x390e4dd6	0.00013571171
52	0xba1baa5a	-0.0005938165
53	0x3994cee2	0.000283829
54	0xba2426ca	-0.00062618835
55	0xba8ff7cd	-0.0010983885
56	0x3b0c57ee	0.0021414715
57	0xba5fd418	-0.00085383793
58	0xba420675	-0.0007401475
59	0xba7298b1	-0.000925432
60	0x3b07a710	0.0020698942
61	0xba75dedc	-0.0009379217
62	0xba1c0939	-0.0005952302
63	0x3b112e93	0.0022153005
64	0x3b0e5a38	0.0021721255
65	0xba291c8c	-0.0006451092
66	0xb7e421e0	-2.7195492e-05
67	0x3a3393c3	0.00068503263
68	0x3aae0cbc	0.0013278942
69	0xba0e3c80	-0.00054258853
70	0xba45a1a8	-0.0007539042
71	0xba68077a	-0.0008851212
72	0xb9a949c6	-0.00032289157
73	0xba73b3ce	-0.00092965073
74	0x3b110393	0.0022127375
75	0xba782bbe	-0.00094669673
76	0xb9dff599	-0.0004271686
77	0x3b12bae7	0.0022389235
78	0xba829781	-0.0009963365
79	0x3ae243ba	0.0017262616
80	0xbb037787	-0.0020060258
81	0x3c93541b	0.01798444
82	0x3dbf98eb	0.09355339
83	0x3b0a42d4	0.0021096962
84	0xba844575	-0.0010091501
85	0xbb106690	-0.0022033788
86	0xba7cfafa	-0.00096504355
87	0xba73e86c	-0.0009304348
88	0xb9f24492	-0.00046208926
89	0xbb169d84	-0.002298207
90	0xba8f739c	-0.0010944488
91	0x3ac5d559	0.001509349
92	0xba72461e	-0.00092420157
93	0x3ac66ec2	0.001513921
94	0xbb12c488	-0.0022394974
95	0xba9e428e	-0.0012074278
96	0xba8e2358	-0.0010844273
97	0x3a22e4ef	0.00062139233
98	0x3b1192ad	0.002221267
99	0x3a368e58	0.000696396
100	0x3a6c12b4	0.00090054725
101	0xbad17fa4	-0.0015983474
102	0xb9038769	-0.00012543578
103	0x3b122fd6	0.0022306344
104	0xb98e5a71	-0.00027151735
105	0xb964bb28	-0.00021813496
106	0x3a6a96f5	0.0008948886
107	0x3a5ceba6	0.00084274483
108	0x3a3c35d9	0.0007179655
109	0xba4a53b3	-0.00077181606
110	0x3a6a6df4	0.0008942776
111	0x3b81c79a	0.003960562
112	0x3b1c160d	0.0023816854
113	0xb9a3305a	-0.00031125807
114	0x3b0f8255	0.0021897752
115	0xba5027b4	-0.00079404865
116	0x3b115003	0.0022172935
117	0x3a836e32	0.0010027348
118	0x3a9d9137	0.0012021427
119	0x3b07d12d	0.0020724044
120	0x3b0c4851	0.0021405409
121	0x3b0ede81	0.0021800103
122	0x3b0f3e7c	0.0021857312
123	0xb9fbfded	-0.0004806364
124	0x3b0db20c	0.0021621017
125	0x3b0c606b	0.0021419774
126	0x3b0c5878	0.0021415036
127	0xba04f739	-0.00050722394
128	0xba1c2f1d	-0.0005957948
129	0xb94a0ccc	-0.00019268988
130	0x3ab80f32	0.0014042614
131	0x3b0e8e7a	0.0021752403
132	0x3b0f3b20	0.002185531
133	0x3b0baa99	0.00213114
134	0x3a90cdce	0.0011047663
135	0x3ad3db90	0.0016163457
136	0x39bfb847	0.00036567656
137	0x3b0f7996	0.002189254
138	0x3aa7bb88	0.0012796978
139	0x3aae3713	0.001329156
140	0x3b0bcc5e	0.002133153
141	0x3a54688a	0.0008102736
142	0x3b03693a	0.0020051734
143	0x3b14099a	0.002258873
144	0xb9d4d6b8	-0.0004059577
145	0xb9219402	-0.00015409294
146	0x3b01a1df	0.001978032
147	0x3ae94424	0.0017796797
148	0x3b11f049	0.0022268465
149	0xba2d0660	-0.0006600376
150	0x3b12ccb0	0.0022399835
151	0x3b0b0c51	0.0021217058
152	0x3b11dbc4	0.0022256235
153	0x39f937aa	0.00047534454
154	0xb9d7f5d2	-0.00041191146
155	0x3aa6d732	0.0012728928
156	0x3a8f8acd	0.00109514
157	0xb96389f6	-0.00021699801
158	0x3b08ee89	0.002089413
159	0xb9dcf3d1	-0.00042143327
160	0x3aa15efc	0.0012311633
161	0xba24958a	-0.00062783866
162	0x3b146f47	0.0022649334
163	0x3b031b4f	0.002000529
164	0x3a82a0d8	0.0009966148
165	0x3a8b31eb	0.0010619735
166	0x3b1cecc1	0.0023944827
167	0x3b16e439	0.0023024215
168	0x3abf64c7	0.0014602178
169	0x3b1554f3	0.002278623
170	0xba16b827	-0.0005749487
171	0x3b1177b7	0.00221966
172	0x3b0cb7ff	0.0021471975
173	0xb9d517c3	-0.0004064423
174	0x3b0c93a3	0.0021450303
175	0xb9b0b830	-0.00033706566
176	0x3a3cafb0	0.00071978103
177	0x3b21097f	0.002457231
178	0xba3e2ced	-0.0007254619
179	0x3982b322	0.00024928997
180	0x3a8f9cd2	0.001095677
181	0x3a23419e	0.0006227734
182	0x3b0e3d82	0.0021704142
183	0x3b169a62	0.0022980203
184	0x39fd5805	0.000483215
185	0xba09e779	-0.00052606274
186	0x3b1187ce	0.002220619
187	0xb9872f76	-0.00025784568
188	0x3b19a2bf	0.0023442951
189	0x3a8564e6	0.0010177165
190	0x3a8a4ce0	0.0010551475
191	0x3a9e0094	0.0012054616
192	0x3d965250	0.073399186
193	0x3ab28f9f	0.0013623125
194	0x3a737aea	0.000928803
195	0x37d678c8	2.5567031e-05
196	0xbbf01fbb	-0.0073280013
197	0x3b0fc671	0.0021938349
198	0xbd268986	-0.040658496
199	0x3b16ac68	0.0022990946
200	0xbb1f4228	-0.0024300907
201	0xbb1d98d1	-0.0024047385
202	0xbb1f5867	-0.0024314167
203	0xbb1f0194	-0.0024262415
204	0xbb20169a	-0.0024427534
205	0xbb21a751	-0.0024666379
206	0xbb1fe395	-0.0024397124
207	0xbb1f7e85	-0.0024336886
208	0xbb1f2780	-0.0024285018
209	0xbb1c2e87	-0.0023831443
210	0xbb1bc8d8	-0.0023770835
211	0xbb2031d5	-0.0024443765
212	0xbb1ab06d	-0.0023603693
213	0xbb20af02	-0.0024518375
214	0xbb1dd348	-0.0024082232
215	0xbb1c407f	-0.0023842154
216	0xbb1c4edc	-0.0023850715
217	0xbb1d58c4	-0.0024009207
218	0xbb21e71a	-0.0024704398
219	0xbb1ea493	-0.002420698
220	0xbb1e6ad4	-0.0024172561
221	0xbb1dadee	-0.002405997
222	0xbb1ed2e4	-0.0024234587
223	0xbb1c6058	-0.0023861136
224	0xbb1f08d2	-0.0024266732
225	0xbb1e9d76	-0.002420274
226	0xbb1d7e23	-0.0024031482
227	0xbb20b723	-0.002452322
228	0xbb1c23e4	-0.0023825103
229	0xbb20b877	-0.0024524012
230	0xbb1e1b59	-0.0024125187
231	0xbb1ec10c	-0.0024223952
232	0xbb1e4e66	-0.0024155616
233	0xbb1ebc8d	-0.0024221272
234	0xbb1e1148	-0.0024119187
235	0xbb15c57f	-0.0022853313
236	0xbb200cd1	-0.0024421702
237	0xbb1c0019	-0.002380377
238	0xbb18535b	-0.0023243043
239	0xbb1eb645	-0.0024217528
240	0x3c46d9b5	0.012136866
241	0xbb205665	-0.0024465558
242	0xbb1eb0b8	-0.002421422
243	0xbb1bec72	-0.0023792055
244	0xbb20837b	-0.002449243
245	0xbb1871d7	-0.0023261213
246	0xbb1eff8d	-0.0024261207
247	0xbb1e65cc	-0.0024169562
248	0xbb1c8719	-0.0023884235
249	0xbb1c439b	-0.0023844007
250	0xbb1f56d6	-0.0024313233
251	0xbb1e9fa5	-0.0024204042
252	0xbb1ab3a1	-0.0023605602
253	0xbb2015f4	-0.0024427148
254	0xbb1c695d	-0.0023866512
255	0xbb1edca3	-0.0024240396

bias f4 [40]
0	0x3d807c58	0.06273717
1	0xbdc5a5e7	-0.09650784
2	0xbb308369	-0.0026933795
3	0x3d19c624	0.037542477
4	0x3d8b4059	0.06799383
5	0xbd861663	-0.06547239
6	0xbdcfbfeb	-0.10144027
7	0x3daac1cd	0.08337746
8	0x3d5cdea9	0.053923283
9	0xbd96a92c	-0.07356486
10	0x3dc9225e	0.09821008
11	0xbd1f387b	-0.038872223
12	0x3bc7e4d3	0.006100276
13	0xbda24e8c	-0.07925138
14	0x3d53d2e7	0.051714804
15	0xbd066c99	-0.03281841
16	0x3dce21b8	0.10065025
17	0x3cb488e9	0.02203794
18	0xbd92e369	-0.07172281
19	0x3b9f5a19	0.0048630354
20	0x3dc3ae2e	0.095547065
21	0xbcc15f06	-0.023604881
22	0x3db9c952	0.09071602
23	0x3d655ce2	0.055996783
24	0xbd74b6c4	-0.05974461
25	0x3bd27af1	0.006423347
26	0xbda180c6	-0.0788589
27	0x3cfee26d	0.031113828
28	0x39300ab6	0.00016788658
29	0x3d879d97	0.06621855
30	0x3dc370d9	0.09543008
31	0xbd030959	-0.031991336
32	0x3d2e110f	0.042496737
33	0xbcf24869	-0.029575543
34	0x3d9b14e2	0.075723425
35	0xbd515153	-0.051102947
36	0x3d8d13b7	0.06888526
37	0x3d609d9b	0.054837804
38	0x3d9df396	0.07712476
39	0xbd2d63ce	-0.04233151
