SERGIO_output2/interm_models/trained_model_epoch_1_sums.pt (torch, 18826 bytes, 2 tensors)

weight f4 [40, 100]
00000000: 33c4 023a c112 00ba f33e 023a 6a78 003a
00000010: 092b 023a 5fcc 013a 78b5 023a 64bf 023a
00000020: e9b2 023a a86b fe39 1cec 003a 34f3 013a
00000030: 5776 023a 93af 013a 3a41 023a 8040 003a
00000040: f147 fe39 01f4 003a 3ac8 023a 14d2 023a
00000050: 48d3 023a 50b4 023a b1d9 023a 42eb 013a
00000060: 72d6 023a 2fd4 023a f4d2 023a 5a7a 013a
00000070: 87d9 003a 4be8 013a 3709 1cbd d1d4 023a
00000080: 03d7 023a 31d2 023a 5a3a 023a edda ce39
00000090: 4c8d 023a 2ae8 013a 7476 adbb bfcf 023a
000000a0: a6e5 013a 8b68 023a a3d0 023a 0a0b 023a
000000b0: 76b9 013a 4986 f6b9 4bca 023a 82d4 023a
000000c0: c28b 023a 37dc 003a d1d9 023a 496b 023a
000000d0: dbdd 013a 2087 023a 5a08 023a 42e9 ff39
000000e0: d0cf 023a aedd 013a 6aaf 013a d5a4 013a
000000f0: 00cb 023a 1557 013a 7afe 013a 8fd2 023a
00000100: 19ce 023a 24d8 013a 6e63 023a c170 023a
00000110: 9196 023a ccf8 013a c0d7 013a 284a 013a
00000120: ab1c 023a faa5 013a 77d4 023a 0f9a 013a
00000130: 7345 023a 11cf 023a 6316 013a 11aa 023a
00000140: b23b a4b9 6ad2 9d3c 4c6b bf3d 12ce 023a
00000150: d342 013a 30b7 f7b9 3e6f 013a 7da6 013a
00000160: 1b24 023a fd02 01ba 0fe0 fe39 9caa 023a
00000170: 7a86 013a cea0 023a aae7 fdb9 d291 f039
00000180: b831 ff39 ea75 023a 21d6 023a de84 023a
00000190: 2e4c fbb9 4f49 02ba b772 01ba 7a82 f839
000001a0: b582 01ba 7d78 01ba a151 fbb9 1afd fcb9
000001b0: 964e ffb9 9ffd 01ba 33b2 feb9 6e0c 2a3b
000001c0: 8330 013a fe84 01ba b39d f139 e5fc 01ba
000001d0: af54 f539 94f1 fbb9 3092 ddb9 de38 de39
000001e0: efef f039 044d f239 3bc7 f839 acd2 01ba
000001f0: fb56 f539 c4fa f039 b7a8 ee39 72a4 01ba
00000200: eee6 01ba 6669 01ba e6db 57b9 34a7 f639
00000210: c6d6 f739 37bd ee39 9604 f3b9 1d5d 88b8
00000220: bdab 00ba 8111 f039 55cd c9b9 ff76 8db9
00000230: fa28 e039 aa2d feb9 15d7 c439 0c2e fb39
00000240: ba96 01ba 75bb 01ba e845 b839 e135 3139
00000250: 56f3 f739 3ded 01ba 425b fd39 722d e239
00000260: 0c90 f639 cc79 00ba 03cd 01ba 6c7a c5b9
00000270: a50d e8b9 ad6d 01ba 5061 cd39 2899 01ba
00000280: 76d6 bcb9 a8ea 01ba b0df fb39 99bb c039
00000290: 685d f8b9 643b f9b9 7f72 013a f4bf fe39
000002a0: 4a73 55b9 62f2 fc39 cbe3 01ba 3eb7 f539
000002b0: dcd9 e239 9793 01ba 00e7 f139 628b 01ba
000002c0: 8a09 00ba c140 023a 9bed 01ba 44ed 00ba
000002d0: 9cb9 f7b9 71a0 00ba 65aa e939 49e4 ff39
000002e0: b5b0 00ba 03eb 01ba f28e f739 d27c 01ba
000002f0: d78b 003a 2a23 fcb9 b619 fbb9 cc35 d8b9
00000300: be55 933d ae47 9db9 849b feb9 1b8f 01ba
00000310: bb15 12bc 2370 f139 f688 2dbd 30d5 fe39
00000320: 06ee 02ba 1cf0 02ba 53f1 02ba a5f0 02ba
00000330: 82f2 02ba 77fa 02ba e1ef 02ba 34ef 02ba
00000340: e9ee 02ba 34ed 02ba e5eb 02ba 41f3 02ba
00000350: b6e8 02ba 75f4 02ba cded 02ba b0ec 02ba
00000360: 2aed 02ba 8aee 02ba d7fd 02ba efeb 02ba
00000370: 20eb 02ba aaec 02ba e3eb 02ba 54ec 02ba
00000380: 87ec 02ba bbeb 02ba 95e9 02ba aaf4 02ba
00000390: 4fec 02ba 53f4 02ba 34eb 02ba 23ec 02ba
000003a0: d0ea 02ba 76ec 02ba 13ee 02ba 63e4 02ba
000003b0: 03f1 02ba 2aec 02ba bae7 02ba 66ec 02ba
000003c0: 1ded 653c f7f2 02ba 2bec 02ba fdeb 02ba
000003d0: f4f3 02ba abe8 02ba d0ec 02ba bbeb 02ba
000003e0: 81eb 02ba 82ec 02ba 27ed 02ba 66ee 02ba
000003f0: b6e9 02ba 52f1 02ba e5ec 02ba 53f0 02ba
0.00049883424 -0.0004885607 0.00049684866 0.00049007556 0.0004965519 0.0004951413 0.00049861474 0.0004987626
0.0004985766 0.00048526865 0.00049179955 0.00049571996 0.00049767405 0.0004947122 0.0004968826 0.0004892424
0.00048500256 0.0004919172 0.00049889425 0.00049904105 0.000499059 0.0004985975 0.0004991545 0.00049560156
0.0004991061 0.0004990724 0.0004990541 0.0004939191 0.00049152266 0.0004955574 -0.038094725 0.00049908186
0.00049911457 0.00049904274 0.00049678015 0.00039454494 0.00049801613 0.00049555546 -0.0052936617 0.0004990063
0.000495518 0.00049746846 0.0004990196 0.00049607514 0.00049485953 -0.00047020827 0.00049892504 0.00049907726
0.0004979932 0.0004915627 0.00049915636 0.0004975093 0.00049540185 0.00049792416 0.0004960351 0.0004881118
0.0004990073 0.00049539923 0.0004947098 0.00049455214 0.0004989356 0.00049339357 0.00049588794 0.0004990482
0.00049898174 0.0004953167 0.00049739226 0.0004975908 0.00049815426 0.0004958033 0.0004953109 0.00049320096
0.00049633783 0.0004945692 0.0004990766 0.0004943916 0.0004969455 0.0004989962 0.00049242954 0.00049844483
-0.00031324994 0.019265372 0.09346637 0.00049898133 0.0004930917 -0.00047247997 0.0004937536 0.0004945768
0.00049644866 -0.0004921405 0.00048613592 0.0004984529 0.0004940998 0.0004983068 -0.00048428524 0.00045885012
0.00048674433 0.0004976677 0.0004991014 0.0004978905 -0.0004793121 -0.000497003 -0.00049380533 0.0004739946
-0.00049404363 -0.00049389136 -0.0004793527 -0.0004825376 -0.0004869594 -0.0004958752 -0.00048579424 0.002594735
0.0004928188 -0.0004940777 0.00046084597 -0.00049586437 0.00046793136 -0.0004805444 -0.00042261323 0.0004238551
0.00045955132 0.00046215218 0.00047450684 -0.0004952352 0.00046794847 0.00045963202 0.000455206 -0.0004945464
-0.00049553707 -0.0004936665 -0.00020585916 0.00047045352 0.0004727153 0.00045535874 -0.0004635199 -6.502329e-05
-0.00049084035 0.0004578941 -0.00038490692 -0.00026982275 0.0004275514 -0.00048480678 0.00037544282 0.00047908758
-0.00049434195 -0.0004948893 0.000351473 0.00016900107 0.0004729281 -0.0004956311 0.00048323913 0.00043139938
0.000470281 -0.00049009616 -0.00049515086 -0.0003766598 -0.00044260654 -0.00049373024 0.0003917315 -0.00049437815
-0.0003601794 -0.0004955926 0.0004804111 0.00036760865 -0.0004737184 -0.0004753723 0.0004938021 0.00048589671
-0.00020356211 0.00048245775 -0.0004954903 0.00046866568 0.00043268397 -0.0004942952 0.0004613921 -0.0004941729
-0.0004884234 0.00049687555 -0.00049563654 -0.0004918168 -0.000472498 -0.000490672 0.00044568177 0.00048807476
-0.0004909144 -0.0004955979 0.00047218014 -0.0004939559 0.000490365 -0.00048091385 -0.00047893607 -0.00041238812
0.071940884 -0.0002999878 -0.00048562523 -0.0004942284 -0.008916314 0.0004605065 -0.042366944 0.00048605492
-0.00049945747 -0.00049948855 -0.00049950666 -0.0004994965 -0.0004995243 -0.00049964286 -0.0004994851 -0.00049947505
-0.0004994707 -0.00049944525 -0.00049942575 -0.0004995354 -0.0004993783 -0.00049955334 -0.00049945415 -0.00049943756
-0.00049944466 -0.00049946515 -0.00049969315 -0.0004994263 -0.0004994143 -0.0004994372 -0.00049942563 -0.0004994322
-0.0004994352 -0.0004994233 -0.0004993913 -0.0004995564 -0.0004994319 -0.00049955136 -0.00049941544 -0.00049942936
-0.0004994096 -0.0004994342 -0.0004994582 -0.0004993139 -0.000499502 -0.00049942976 -0.00049936364 -0.00049943326
0.014033583 -0.0004995311 -0.0004994298 -0.00049942714 -0.00049954583 -0.00049937767 -0.0004994394 -0.0004994233
-0.0004994199 -0.0004994349 -0.0004994445 -0.00049946306 -0.0004993932 -0.0004995066 -0.00049944065 -0.00049949175

bias f4 [40]
00000000: db57 7c3d 7ddb c3bd da34 96bb 1d9b 203d
00000010: 3368 873d 7c1a 82bd 9427 ccbd cc1c a73d
00000020: d9dc 623d df96 92bd 5702 c93d 24c1 1bbd
00000030: f0a6 fe3b 1e41 9fbd 6859 5b3d e624 febc
00000040: b19d ca3d 5823 c43c 3463 96bd 7f29 833b
00000050: 492b c03d a022 b2bc 54e0 b53d d1b6 693d
00000060: 8f36 7cbd 8a86 ce3b 00a6 9dbd 5979 f53c
00000070: ec4d 0b3b 12de 893d 6d26 c13d 7ccb fabc
00000080: ebea 253d a783 e2bc deb0 973d fe46 59bd
00000090: 3ce7 8f3d 41cc 5c3d 3106 9b3d 1f7c 25bd
0.061607223 -0.095633484 -0.004583937 0.039210428 0.06611671 -0.06352708 -0.099684864 0.081597894
0.055386398 -0.071576826 0.098148994 -0.03802599 0.0077713653 -0.07776092 0.05355206 -0.031023454
0.098933585 0.023942634 -0.0734314 0.0040027495 0.09383256 -0.021745026 0.08880678 0.057059113
-0.06157547 0.0063026594 -0.076976776 0.02996509 0.0021256162 0.0673181 0.09431157 -0.030614607
0.04050724 -0.027650667 0.074067816 -0.05304622 0.07026526 0.05390573 0.0756954 -0.040401574
