SERGIO_output2/interm_models/trained_model_epoch_1_prods.pt (torch, 18832 bytes, 2 tensors)

weight f4 [40, 100]
000000 13 c5 02 3a 5a e8 02 3a 2d de 02 3a cd d7 02 3a
       0.0004988473 0.00049937295 0.0004992213 0.0004991263
000010 a3 ca 02 3a 38 cd 02 3a ba c4 02 3a e3 c7 02 3a
       0.00049893017 0.00049896864 0.0004988421 0.0004988892
000020 34 84 38 bd df e9 02 3a cc ec 02 3a 87 d7 02 3a
       -0.045047954 0.0004993956 0.0004994392 0.00049912225
000030 f2 ea 02 3a 6d cb 02 3a 36 e2 02 3a ca e8 02 3a
       0.0004994116 0.0004989419 0.00049928145 0.0004993795
000040 f8 eb 02 3a 4c e9 02 3a 7d cf 02 3a c6 cf 02 3a
       0.00049942685 0.00049938704 0.00049900246 0.0004990067
000050 22 d1 02 3a dc e1 02 3a 0c cd 02 3a b4 e6 02 3a
       0.00049902697 0.0004992762 0.0004989661 0.0004993484
000060 2e c9 02 3a bc ce 02 3a 0f d7 02 3a 4d cc 02 3a
       0.00049890846 0.0004989912 0.00049911527 0.00049895496
000070 b7 e8 02 3a 82 ca 02 3a 79 d4 02 3a 17 d0 02 3a
       0.00049937837 0.00049892825 0.00049907673 0.0004990114
000080 38 d1 02 3a 5f d0 02 3a 57 e4 02 3a 70 f4 02 3a
       0.00049902825 0.0004990156 0.0004993132 0.00049955305
000090 a4 c8 02 3a 59 7f 8a 3d 0d f1 02 3a 5e d4 02 3a
       0.0004989004 0.06762571 0.0004995026 0.00049907516
0000a0 3a e8 02 3a 16 d5 02 3a a3 cc 02 3a 78 eb 02 3a
       0.0004993711 0.0004990859 0.00049895997 0.0004994194
0000b0 93 cc 02 3a 4d f3 02 3a cf ca 02 3a f7 d3 02 3a
       0.00049895904 0.0004995361 0.0004989327 0.00049906917
0000c0 3c e4 02 3a 35 e8 02 3a 28 c8 02 3a ba e2 02 3a
       0.0004993116 0.0004993708 0.0004988932 0.00049928913
0000d0 d0 ec 02 3a fe c7 02 3a 45 e7 02 3a 1f e0 02 3a
       0.0004994394 0.00049889076 0.0004993568 0.0004992503
0000e0 92 cc 02 3a 5c c9 02 3a ea ec 02 3a e2 cd 02 3a
       0.000498959 0.00049891113 0.00049944094 0.00049897854
0000f0 f5 cd 02 3a 84 e8 02 3a e5 e8 02 3a a5 d6 02 3a
       0.00049897964 0.0004993754 0.00049938104 0.0004991091
000100 19 6b 8b 3c ad e5 20 bd c9 e0 02 3a f8 f4 02 3a
       0.017018842 -0.039281536 0.0004992602 0.00049956096
000110 de ea 02 3a 7a ec 02 3a 92 e9 02 3a b3 eb 02 3a
       0.00049941044 0.0004994344 0.0004993911 0.00049942284
000120 47 f2 02 3a d0 ca 02 3a fc d2 02 3a 7f cc 02 3a
       0.00049952086 0.0004989328 0.00049905456 0.0004989579
000130 c1 d4 02 3a 6c e1 02 3a e9 e2 02 3a c5 ea 02 3a
       0.0004990809 0.0004992697 0.00049929187 0.000499409
000140 fc ea 02 3a a8 ed 02 3a 9f f5 02 3a 53 c5 02 3a
       0.0004994122 0.000499452 0.0004995707 0.000498851
000150 71 d3 02 3a c1 ea 02 3a 08 d6 02 3a 66 cc 02 3a
       0.00049906137 0.00049940875 0.00049909996 0.0004989564
000160 dc e8 02 3a b0 e7 02 3a b0 ef 02 3a 2c e1 02 3a
       0.0004993805 0.00049936306 0.00049948227 0.00049926597
000170 3f de 02 3a c1 ee 02 3a 43 ea 02 3a c7 e7 02 3a
       0.00049922237 0.00049946835 0.0004994014 0.0004993644
000180 f9 e9 02 3a fa eb 02 3a 42 cd 02 3a d9 e4 02 3a
       0.0004993971 0.00049942697 0.0004989692 0.00049932074
000190 87 03 03 3a d3 02 03 3a 28 04 03 3a 0b 03 03 3a
       0.0004997779 0.0004997674 0.0004997873 0.0004997707
0001a0 d9 02 03 3a eb 02 03 3a 79 03 03 3a ab 03 03 3a
       0.0004997678 0.0004997688 0.0004997771 0.00049978
0001b0 ac 03 03 3a 62 03 03 3a a1 04 03 3a 99 03 03 3a
       0.00049978006 0.00049977575 0.0004997943 0.00049977895
0001c0 e7 04 03 3a b3 02 03 3a 18 04 03 3a 63 03 03 3a
       0.0004997984 0.00049976556 0.00049978634 0.0004997758
0001d0 63 04 03 3a 6e 04 03 3a e5 03 03 3a 0b 04 03 3a
       0.0004997907 0.00049979135 0.0004997834 0.0004997856
0001e0 3a 04 03 3a f3 04 03 3a 4c 04 03 3a 6d 03 03 3a
       0.0004997883 0.0004997991 0.00049978937 0.0004997764
0001f0 fd 03 03 3a 20 04 03 3a 53 04 03 3a 3c 60 8c bd
       0.0004997848 0.0004997868 0.0004997898 -0.06854293
000200 54 03 03 3a c8 02 03 3a 49 04 03 3a 4b 04 03 3a
       0.00049977493 0.0004997668 0.0004997892 0.0004997893
000210 4d 04 03 3a 49 04 03 3a 4d 04 03 3a 00 05 03 3a
       0.0004997894 0.0004997892 0.0004997894 0.00049979985
000220 14 03 03 3a cd 04 03 3a 61 04 03 3a 4c 04 03 3a
       0.0004997712 0.0004997969 0.0004997906 0.00049978937
000230 61 04 03 3a f7 03 03 3a 0e 04 03 3a ce 04 03 3a
       0.0004997906 0.0004997844 0.00049978576 0.00049979694
000240 d4 02 03 3a 03 f9 10 bd d6 03 03 3a 68 04 03 3a
       0.0004997675 -0.035393726 0.0004997825 0.000499791
000250 55 04 03 3a 63 03 03 3a 21 04 03 3a 4c 04 03 3a
       0.0004997899 0.0004997758 0.00049978687 0.00049978937
000260 94 04 03 3a f2 02 03 3a c5 03 03 3a 43 03 03 3a
       0.00049979356 0.00049976923 0.0004997815 0.00049977395
000270 f8 03 03 3a b0 02 03 3a b3 04 03 3a b7 02 03 3a
       0.0004997845 0.0004997654 0.00049979537 0.0004997658
000280 e8 03 03 3a 8a 03 03 3a 8e 04 03 3a 51 04 03 3a
       0.00049978355 0.0004997781 0.0004997932 0.00049978966
000290 92 04 03 3a d1 04 03 3a 56 04 03 3a 82 05 03 3a
       0.00049979344 0.0004997971 0.00049978995 0.0004998074
0002a0 0f 05 03 3a e8 04 03 3a cb 03 03 3a 9b 04 03 3a
       0.0004998007 0.00049979845 0.00049978186 0.00049979397
0002b0 e2 04 03 3a 9f 02 03 3a 1a a9 7f 3c af 02 03 3a
       0.0004997981 0.0004997644 0.015604282 0.00049976533
0002c0 41 03 03 3a 15 05 03 3a 16 03 03 3a 11 05 03 3a
       0.0004997738 0.00049980107 0.0004997713 0.00049980084
0002d0 f3 a1 ef 3c a9 04 03 3a 4c 05 03 3a d6 03 03 3a
       0.029252028 0.0004997948 0.0004998043 0.0004997825
0002e0 f5 02 03 3a 56 03 03 3a 4a 03 03 3a a6 02 03 3a
       0.0004997694 0.00049977505 0.00049977435 0.0004997648
0002f0 6e 04 03 3a 2f 03 03 3a 3a 04 03 3a aa 04 03 3a
       0.00049979135 0.0004997728 0.0004997883 0.00049979484
000300 3d 03 03 3a 4d 05 03 3a 89 03 03 3a 4c 03 03 3a
       0.0004997736 0.00049980433 0.000499778 0.00049977447
000310 41 04 03 3a ff 04 03 3a 4d 04 03 3a b9 06 8d 3c
       0.00049978873 0.0004997998 0.0004997894 0.01721512
000320 8a 01 03 3a 19 fc 02 3a a7 ff 02 3a 34 00 03 3a
       0.0004997483 0.0004996672 0.00049972016 0.00049972837
000330 98 01 03 3a a9 01 03 3a f9 01 03 3a a2 01 03 3a
       0.0004997491 0.0004997501 0.00049975474 0.0004997497
000340 22 01 03 3a 8c fb 02 3a 3b fb 02 3a a8 00 03 3a
       0.0004997422 0.000499659 0.00049965427 0.0004997351
000350 d4 fb 02 3a bf 01 03 3a 6a fe 02 3a e1 fb 02 3a
       0.0004996632 0.00049975136 0.0004997017 0.00049966393
000360 d6 fb 02 3a 5d fd 02 3a d5 00 03 3a b5 00 03 3a
       0.0004996633 0.00049968605 0.00049973774 0.0004997359
000370 d8 00 03 3a 73 3c c6 3d 5b 01 03 3a 09 fc 02 3a
       0.0004997379 0.096794985 0.00049974554 0.00049966626
000380 4a 01 03 3a f6 00 03 3a f4 ff 02 3a 93 01 03 3a
       0.00049974455 0.00049973966 0.00049972464 0.0004997488
000390 6e fb 02 3a cc 01 03 3a 81 00 03 3a 19 01 03 3a
       0.00049965724 0.0004997521 0.00049973285 0.0004997417
0003a0 d1 00 03 3a 1b 01 03 3a c4 fe 02 3a 53 f2 02 3a
       0.0004997375 0.0004997418 0.00049970695 0.00049952156
0003b0 7e 01 03 3a 55 fc 02 3a e3 f8 02 3a 9e 00 03 3a
       0.0004997476 0.0004996707 0.00049961935 0.00049973454
0003c0 ff fc 02 3a 06 01 03 3a 24 01 03 3a f4 fb 02 3a
       0.0004996806 0.0004997406 0.00049974234 0.00049966504
0003d0 91 01 03 3a 2c f6 02 3a 4c 01 03 3a a9 00 03 3a
       0.0004997487 0.0004995789 0.00049974467 0.0004997352
0003e0 62 fd 02 3a 09 fc 02 3a f6 c2 1d 3d 4c ff 02 3a
       0.00049968634 0.00049966626 0.038516007 0.00049971486
0003f0 c7 fa 02 3a 88 01 03 3a 97 fc 02 3a 09 ff 02 3a
       0.0004996475 0.00049974816 0.0004996745 0.00049971096

bias f4 [40]
000000 0a 74 23 bc 12 e5 7f 3d 4c e5 b7 3d d0 4e c3 bd
       -0.009976396 0.062474318 0.08979282 -0.09536517
000010 99 2d c3 bc ef 98 eb 3c 56 ab 2b 3c 87 e1 e8 bc
       -0.023825454 0.028759448 0.010477861 -0.028427852
000020 16 dd 3a bd 40 01 a6 3b 30 2e b1 3c d3 ee f1 bc
       -0.045621 0.005066067 0.02162847 -0.029532826
000030 cd b8 38 bd 42 15 99 3d 74 0f 3a bd f1 76 58 3d
       -0.045098115 0.07474758 -0.045424893 0.052847806
000040 ce 86 53 3c c3 eb 96 bd 15 e6 98 3c d9 3f 4e bd
       0.012910558 -0.07369187 0.0186644 -0.05035386
000050 f6 c8 aa 3d dd db 8b bd 6b dd c8 3c aa 2a aa 3a
       0.083391115 -0.06829045 0.024519643 0.0012982686
000060 26 da 91 3d 50 34 b5 bd 59 a9 97 3d e4 b0 27 3d
       0.07121687 -0.088478684 0.074053474 0.04094018
000070 b8 f0 73 bc 79 65 12 bd 6d 55 03 3d 98 97 20 3d
       -0.014888935 -0.035741303 0.03206389 0.03920707
000080 de 3a c1 3d a6 51 91 bc 4e 4b 68 bd 09 f3 f1 bc
       0.09435056 -0.017739128 -0.05671244 -0.029534834
000090 d6 99 c3 bd ea a6 88 3c 17 10 66 bc 93 fd 5d bc
       -0.09550826 0.016681153 -0.014041922 -0.013549226
