SERGIO_output2/interm_models/trained_model_epoch_1_alpha_comb.pt (torch, 34265 bytes, 1 tensors)

weight f4 [100, 80]
00000000: a8b7 02ba 60f1 023a a4b5 013a 6fac 02ba
00000010: c6e6 02ba 8ed4 023a abf0 023a 0bdc 02ba
00000020: 33d7 02ba 0dd1 023a 01f8 02ba 1666 02ba
00000030: eb1a 023a 14f9 023a d4c5 f5b9 3455 023a
00000040: d0fb 02ba 11b5 023a 50d2 023a 209f 02ba
00000050: 0cd0 02ba 60ea 023a deed 02ba 02f7 02ba
00000060: acf6 023a 04bc 01ba 64fc 023a 684c c93b
00000070: 6346 b7bb 73f1 02ba b2c1 02ba 5b8a 023a
00000080: 32ff 02ba e3d9 023a 4c76 02ba 9770 02ba
00000090: f0ef 02ba 13ea 02ba 74f9 02ba 7bb6 023a
000000a0: e30e 03ba 390f 03ba 0a0f 03ba 470e 03ba
000000b0: ea0e 03ba 6e0f 03ba 0b0f 03ba e50e 03ba
000000c0: 270f 03ba 170f 03ba eb0e 03ba c60e 03ba
000000d0: b00e 03ba e00e 03ba cc0e 03ba 610f 03ba
000000e0: c00e 03ba 150e 03ba e20e 03ba 8e0e 03ba
000000f0: 3d0f 03ba 8b0e 03ba fa0e 03ba b40e 03ba
00000100: 120f 03ba d80e 03ba 780f 03ba 140f 03ba
00000110: 69d9 693d a60e 03ba 0a0f 03ba f40e 03ba
00000120: 2c0f 03ba f40e 03ba ad0e 03ba 010f 03ba
00000130: a20e 03ba 090f 03ba df0e 03ba ef0e 03ba
00000140: c7f7 023a 7105 03ba c675 02ba 3d94 61bd
00000150: 4e00 033a 4dfe 02ba 0da8 82bd 3600 033a
00000160: d7f6 023a 73f4 02ba dc07 033a 91f7 8ebc
00000170: 98f8 fab9 4708 03ba b851 023a 45d7 02ba
00000180: 8c09 033a ebed 02ba accd b83d fad4 023a
00000190: 0bfa 023a 8a00 03ba ab03 033a f705 033a
000001a0: 8c05 03ba f3ef 023a 830a 03ba ced3 023a
000001b0: 91fe 02ba a205 033a 71f6 023a 35dd 02ba
000001c0: 1108 033a 45f8 02ba 87e5 023a 05cc 023a
000001d0: da02 033a a301 033a 8608 033a 26e5 02ba
000001e0: 0c11 033a 2811 033a 1c11 033a cd10 033a
000001f0: 0311 033a 3011 033a 1511 033a 0711 033a
00000200: 2011 033a 1611 033a 0511 033a ff10 033a
00000210: f810 033a 0a11 033a ff10 033a 4211 033a
00000220: 0011 033a b910 033a 0011 033a eb10 033a
00000230: 2f11 033a e610 033a 1311 033a f610 033a
00000240: 1b11 033a fe10 033a 4411 033a 2211 033a
00000250: 0d11 033a 7a17 80bd 1711 033a c22f 0abd
00000260: 2211 033a 1411 033a f710 033a 1411 033a
00000270: ed10 033a 0f11 033a 0611 033a 1011 033a
00000280: 35da 023a d5c9 02ba e77a 273c 8120 023a
00000290: 542c 0fbd 769a 02ba b5df 02ba da22 023a
000002a0: e580 023a 3897 02ba 62e1 023a 1f4f 023a
000002b0: 3025 023a 63e5 02ba 3bf3 01ba 313b 02ba
000002c0: 55e1 023a 46c6 02ba 8294 02ba ef9a 023a
000002d0: 1b12 d9b9 81ce 02ba d99a 023a 05a8 023a
000002e0: 35b2 02ba 96be 023a 87e5 02ba 32af 013a
000002f0: 4aec 02ba 94c0 023a bb28 f739 3229 f2b9
00000300: 53da 023a 5b61 02ba bb13 02ba 505e b9b9
00000310: e39d 023a add4 023a c8c4 023a 95ff 003a
00000320: b309 033a 5e0a 033a 6909 033a 0406 033a
00000330: bc07 033a 9a09 033a 5409 033a 5809 033a
00000340: 6409 033a 0c0a 033a 6708 033a 1109 033a
00000350: b808 033a 0809 033a bb08 033a 5b0b 033a
00000360: d108 033a 2004 033a d208 033a e708 033a
00000370: 850a 033a 9007 033a 7e09 033a 5807 033a
00000380: 3309 033a b208 033a 4f0a 033a 650a 033a
00000390: fd08 033a dc07 033a 9d09 033a 2309 033a
000003a0: 9d09 033a 270a 033a fa08 033a f009 033a
000003b0: b308 033a 8409 033a 1009 033a b709 033a
000003c0: 5261 023a e617 fbb9 6c3d edb9 46c7 01ba
000003d0: aa64 fd39 3a53 023a ad88 02ba 12a3 02ba
000003e0: 8944 01ba f900 00ba ba3e 00ba 9598 023a
000003f0: a24f 01ba 191c 01ba a644 02ba 1931 f739
-0.00049864734 0.0004995074 0.0004948026 -0.0004984801 -0.00049934944 0.00049907796 0.0004994969 -0.00049918954
-0.00049911736 0.00049902574 -0.0004996062 -0.00049743184 0.00049631175 0.0004996222 -0.00046877435 0.00049718027
-0.00049966294 0.00049860874 0.00049904454 -0.0004982818 -0.0004990108 0.0004994031 -0.00049945514 -0.00049959135
0.00049958634 -0.0004948976 0.00049967156 0.0061431415 -0.0055931075 -0.0004995085 -0.00049879693 0.0004979723
-0.00049971335 0.0004991574 -0.0004976734 -0.00049758836 -0.000499486 -0.0004993986 -0.0004996278 0.0004986298
-0.0004999472 -0.0004999522 -0.00049994944 -0.0004999381 -0.0004999476 -0.00049995526 -0.0004999495 -0.0004999473
-0.00049995113 -0.0004999502 -0.00049994764 -0.0004999455 -0.0004999442 -0.000499947 -0.00049994583 -0.0004999545
-0.00049994513 -0.0004999352 -0.0004999471 -0.0004999422 -0.0004999524 -0.00049994205 -0.0004999485 -0.00049994444
-0.0004999499 -0.00049994653 -0.00049995584 -0.00049995 0.057092104 -0.0004999436 -0.00049994944 -0.00049994816
-0.0004999514 -0.00049994816 -0.000499944 -0.0004999489 -0.0004999434 -0.0004999494 -0.00049994694 -0.00049994787
0.0004996028 -0.0004998064 -0.0004976656 -0.05507301 0.0004997299 -0.0004997 -0.063797094 0.0004997285
0.00049958884 -0.0004995532 0.00049984246 -0.017452033 -0.00047868933 -0.0004998487 0.00049712835 -0.0004991184
0.0004998676 -0.0004994559 0.09023604 0.00049908424 0.0004996366 -0.0004997334 0.00049978 0.0004998142
-0.000499808 0.00049948617 -0.000499882 0.0004990668 -0.000499704 0.0004998093 0.0004995829 -0.0004992069
0.00049984554 -0.00049961015 0.00049933087 0.0004989508 0.00049976783 0.00049974973 0.00049985235 -0.0004993252
0.00049997936 0.000499981 0.0004999803 0.0004999757 0.00049997884 0.00049998146 0.0004999799 0.00049997907
0.0004999805 0.00049997994 0.00049997895 0.0004999786 0.0004999782 0.00049997924 0.0004999786 0.0004999825
0.00049997866 0.0004999745 0.00049997866 0.00049997744 0.0004999814 0.00049997715 0.00049997977 0.0004999781
0.00049998023 0.00049997855 0.0004999826 0.00049998064 0.0004999794 -0.06254478 0.00049998 -0.03373695
0.00049998064 0.0004999798 0.00049997814 0.0004999798 0.00049997756 0.00049997953 0.000499979 0.0004999796
0.0004991622 -0.0004989182 0.010222173 0.000496395 -0.034954384 -0.0004982123 -0.00049924414 0.00049643
0.0004978313 -0.000498164 0.0004992691 0.00049708964 0.0004964648 -0.0004993288 -0.00049572036 -0.00049679267
0.00049926835 -0.00049886515 -0.0004981236 0.00049821933 -0.00041402955 -0.0004989878 0.00049821805 0.00049841433
-0.00049856614 0.0004987506 -0.00049933087 0.00049470656 -0.0004994316 0.0004987803 0.00047141858 -0.0004618853
0.0004991639 -0.00049736135 -0.00049620465 -0.00035356218 0.00049826334 0.00049907976 0.0004988429 0.0004920897
0.0004998699 0.0004998798 0.00049986556 0.000499815 0.0004998406 0.0004998684 0.00049986434 0.0004998646
0.0004998653 0.00049987505 0.00049985055 0.00049986044 0.00049985526 0.0004998599 0.00049985544 0.00049989455
0.0004998567 0.0004997868 0.0004998568 0.000499858 0.0004998821 0.00049983803 0.0004998668 0.0004998348
0.0004998624 0.0004998549 0.00049987895 0.00049988023 0.0004998593 0.00049984246 0.0004998686 0.0004998615
0.0004998686 0.0004998766 0.0004998591 0.0004998734 0.00049985497 0.00049986714 0.0004998604 0.0004998701
0.00049736083 -0.00047892256 -0.00045249925 -0.00049506535 0.0004833092 0.0004971508 -0.0004979473 -0.0004983406
-0.0004931172 -0.00048829574 -0.00048921595 0.0004981843 -0.00049328257 -0.00049251463 -0.0004969336 0.00047148092
