SERGIO_output2/interm_models/trained_model_epoch_10_alpha_comb.pt (torch, 34270 bytes, 1 tensors)

weight f4 [100, 80]
00000000: 8274 80b9 5278 633a d341 423b d5a9 43bb
00000010: 29c7 89ba 405b 6b38 230b 1a3a 8003 6237
00000020: 70c7 50bb be13 fe39 bcdf 8fba da6e 97bb
00000030: e4e3 9e3a d657 733a 709b 2ab8 7c78 bdb8
00000040: 72f3 77ba 1048 163a 7ad5 e13a 7a57 00bb
00000050: fa49 35b9 8e82 433a d87d 1eba 19f7 d2ba
00000060: c5b3 173b 6431 3c3b 2055 d539 fb87 e63b
00000070: 23c2 efbb 088c 79ba 74d3 cf38 08b0 8539
00000080: 3a31 e0ba 6501 543a 32e1 ef39 8a3b 6639
00000090: 34d5 deba 1e25 beba 3826 40ba f580 d139
000000a0: 809e 88ba 293f 93ba 8e98 84ba 020a 74ba
000000b0: 8184 8dba 5535 9bba 5868 6fba f883 8fba
000000c0: 3253 7eba 0d83 91ba b181 90ba 27a1 8aba
000000d0: 8618 84ba 3eb6 89ba 4b02 83ba e59a 70ba
000000e0: eee0 82ba fa39 7aba 93f9 93ba caa8 88ba
000000f0: 76b1 83ba 81db 7eba 8885 8aba 3b49 85ba
00000100: 6f19 86ba 1a18 91ba fe2a 6fba a880 83ba
00000110: eabd 673d 2945 8cba 9468 8bba bf07 8cba
00000120: 423f 8dba 7a1e 80ba 346a 85ba 8c89 8cba
00000130: 5c0a 84ba 5815 94ba e486 69ba 4007 7dba
00000140: 9c1c 8a3b 528c 55bb fd94 b5b9 0e6d 54bd
00000150: c915 613b b3cb 5abb e16b 88bd 97f9 5a3b
00000160: 9a49 623b 8f0d 34bb d7c5 6e3b 8dab a3bc
00000170: 2ce5 d0ba 8904 5dbb 5072 793a 699f 4dbb
00000180: a14e 623b ba82 54bb 38ce b13d 4614 6c3b
00000190: ed7a 6d3b 7637 45bb dcf5 4f3b 2cd8 453b
000001a0: 27b8 5bbb 60ff 943b 6f7e 5ebb 3309 6b3b
000001b0: 8f79 88bb 6b7e 5d3b b6dd 573b 9a12 76bb
000001c0: 4bf1 353b 07a4 40bb 0ac2 503b f66e 1b3b
000001d0: 4ac6 553b f7a0 813b bb43 663b e72f 28bb
000001e0: 02ed 623b 2d82 623b 9a72 623b 607b 603b
000001f0: d41d 5c3b 1de9 5a3b 882c 5f3b 3623 613b
00000200: ca81 5d3b 5538 5f3b f7aa 5e3b cd3a 623b
00000210: 5040 623b 068a 623b 1417 5f3b 316a 613b
00000220: 4d5d 623b d9aa 5f3b a82b 5f3b 1c36 633b
00000230: 2db5 623b f099 613b a1ee 613b fae4 5f3b
00000240: a892 603b 046c 5f3b 6787 5e3b dc4b 643b
00000250: 14f2 623b ba33 74bd 7197 613b d940 fcbc
00000260: a8ca 603b fce8 613b 4485 623b 266b 613b
00000270: 4541 623b 5678 5e3b e890 5f3b 09c2 633b
00000280: 3002 9f3b 2205 98ba f4ae 543c f79a 92ba
00000290: d05e 05bd 7bf6 1abb ba77 7fbb 3d32 1fbb
000002a0: 847a 5db9 3e45 4dbb 9052 0a3b 3065 a43b
000002b0: 5a60 333b 4e21 29bb 4b31 a3bb f13a 84bb
000002c0: 5d0e cdb9 a41a 9ebb e2e8 8439 355c 913b
000002d0: 2a95 a8ba dddc 7dbb 903f c3ba b4d5 e9ba
000002e0: b78e e53a 5b07 a13b 3896 0dbb 00c8 2939
000002f0: 7a2b a3bb aef7 0f3b 80af 6dbb 446b 3dba
00000300: 109d b93a 33ab 133b 6f21 96bb a192 02bb
00000310: a4c0 9a3a 19b1 813b 13da aa3a 2aa0 623b
00000320: 4fa6 513a 3e58 273a eacf fa38 8628 5fb8
00000330: 4ee3 36ba 6696 7eb9 d795 3d3a d21a f739
00000340: 8f7f 3e39 5029 413a 6727 32b9 0973 e139
00000350: 9c2a aa39 8467 9e39 9449 4f39 7a6c 5b3a
00000360: 141c 5339 e4b2 4cba d473 e038 6139 373a
00000370: 20a0 2b3a 0d5d f039 f26a b839 e21c 12ba
00000380: 7831 4bb8 a4f4 bd38 a40b 2b39 660a 5d3a
00000390: 349f f638 296a e9b8 a804 b539 e600 2e39
000003a0: 30aa a538 e5ff 6c3a d5e2 153a d2c0 2e3a
000003b0: 439c 7b3a 906b c839 2928 1f3a 20a9 9c3a
000003c0: a97d a03b 1b31 35bb 62de 473b 629a 9fbb
000003d0: 1f19 593b 55b6 c13a fdc8 8fbb c61c 7dbb
000003e0: ea19 83bb a305 7dbb fa9a 5eba 32ba a53b
000003f0: c966 9ebb 769d 34bb c097 a3bb 5e28 1fbb
-0.00024500868 0.0008677292 0.0029641285 -0.0029855866 -0.0010511625 5.611335e-05 0.0005876293 1.3471465e-05
-0.0031857155 0.00048461364 -0.0010976712 -0.004621369 0.001212236 0.0009282803 -4.067592e-05 -9.034664e-05
-0.00094585784 0.0005732784 0.0017229759 -0.001958339 -0.00017289064 0.0007458114 -0.0006045974 -0.0016095369
0.0023147922 0.0028715963 0.0004068995 0.007035253 -0.007316844 -0.00095194625 9.9099154e-05 0.0002549889
-0.0017104514 0.0008087366 0.00045753416 0.0002195669 -0.0017000795 -0.0014506911 -0.0007329914 0.00039959667
-0.0010423213 -0.0011234033 -0.0010116266 -0.00093093526 -0.0010796936 -0.0011841456 -0.0009132675 -0.0010949364
-0.0009701728 -0.0011101678 -0.0011024979 -0.0010576592 -0.0010078109 -0.0010506583 -0.000999519 -0.00091783545
-0.0009985247 -0.00095453823 -0.0011289589 -0.001042628 -0.0010047394 -0.00097220397 -0.001056836 -0.0010168919
-0.0010230968 -0.0011069805 -0.0009123533 -0.0010032849 0.0565776 -0.0010701764 -0.0010636025 -0.0010683461
-0.0010776299 -0.0009774708 -0.0010178746 -0.0010722145 -0.0010073888 -0.0011297865 -0.0008908345 -0.00096522644
0.0042148363 -0.0032584858 -0.00034634015 -0.051861815 0.003434526 -0.0033385574 -0.06661201 0.0033412927
0.0034528733 -0.0027473902 0.003643384 -0.019979263 -0.0015937439 -0.0033724627 0.000951563 -0.0031375533
0.003453173 -0.0032426552 0.08681911 0.0036022826 0.00362366 -0.0030092872 0.0031732237 0.0030188663
-0.0033526511 0.0045470446 -0.0033949872 0.0035863637 -0.0041648815 0.0033797275 0.0032938547 -0.0037547708
0.002776223 -0.0029394643 0.0031853938 0.002371726 0.003261941 0.003955956 0.0035135585 -0.0025663318
0.003462613 0.0034562454 0.003455317 0.0034253225 0.0033587115 0.0033403106 0.0034053642 0.0034353263
0.0033799284 0.0034060676 0.0033976415 0.0034519911 0.0034523197 0.0034567132 0.0034040855 0.003439557
0.0034540475 0.0034128933 0.003405312 0.0034669703 0.0034592852 0.003442403 0.003447451 0.003416358
0.0034267101 0.0034091482 0.0033955218 0.0034835255 0.0034629153 -0.059619643 0.0034422542 -0.03079264
0.003430048 0.0034471145 0.0034564296 0.003439614 0.0034523767 0.0033946238 0.003411347 0.0034753105
0.0048525557 -0.0011598209 0.012981165 -0.0011185099 -0.032561123 -0.002364545 -0.0038981275 -0.002429142
-0.00021121843 -0.003132179 0.002110634 0.0050169453 0.0027370662 -0.0025807205 -0.0049802414 -0.0040353467
-0.00039111348 -0.004824953 0.00025350513 0.0044360408 -0.0012861837 -0.003873638 -0.0014896262 -0.0017840178
0.0017513846 0.004914207 -0.002160443 0.00016191602 -0.004979548 0.0021967697 -0.0036267936 -0.00072257617
0.0014161188 0.0022532463 -0.0045816223 -0.0019923823 0.0011806679 0.0039578793 0.0013034962 0.0034580329
0.0007997499 0.00063836935 0.00011959656 -5.3205084e-05 -0.000697662 -0.00024279355 0.00072321057 0.00047131494
0.00018167331 0.0007368522 -0.00016990081 0.00043001052 0.00032456673 0.00030213234 0.00019768468 0.0008370351
0.00020132988 -0.0007808639 0.00010702727 0.0006989446 0.0006546993 0.00045845695 0.00035174895 -0.0005573762
-4.8445043e-05 9.05779e-05 0.00016312167 0.00084320304 0.00011759848 -0.0001113008 0.0003452648 0.00016594268
7.899513e-05 0.0009040817 0.00057176995 0.00066663057 0.0009598175 0.00038227113 0.0006071353 0.0011952259
0.0048977924 -0.0027647677 0.003049754 -0.004870699 0.0033126546 0.0014779071 -0.0043879733 -0.0038621887
-0.004000892 -0.0038608096 -0.0008491721 0.0050575966 -0.0048340303 -0.0027559674 -0.0049924552 -0.0024285535
