SERGIO_output3/2024-12-12(1;52)_SERGIO_data2_10epochs/final_model_prods.pt (torch, 18708 bytes, 2 tensors)

weight f4 [40, 100]
0	0x3b8dbb1d	0.004325284
1	0x3b90770e	0.0044087237
2	0x3b94079d	0.004517509
3	0x3b95299c	0.0045520794
4	0x3b9545c6	0.004555437
5	0x3b988a74	0.004655177
6	0x3b91405e	0.004432722
7	0x3b8e8564	0.0043493975
8	0x3b8e99cb	0.0043518296
9	0x3b8cf970	0.004302196
10	0x3b918642	0.0044410536
11	0x3b966437	0.0045895833
12	0x3b8df520	0.0043321997
13	0x3b97340f	0.00461436
14	0x3b914981	0.004433811
15	0x3b8ceb83	0.004300536
16	0x3b91759a	0.004439068
17	0x3b9353ca	0.0044960724
18	0x3b9ac79c	0.0047235023
19	0x3b88c01c	0.004173292
20	0xbc99784d	-0.018734122
21	0x3b8ea776	0.004353459
22	0x3b89282c	0.004185697
23	0x3b89e7ae	0.0042085266
24	0x3b89e9a5	0.004208761
25	0x3b8998f4	0.0041991416
26	0x3b85f9a1	0.004088596
27	0x3b9772ac	0.0046218242
28	0x3b8c0e6b	0.0042741797
29	0x3b9746cc	0.004616594
30	0x3b88dbf5	0.0041766115
31	0x3b8a6930	0.004223965
32	0x3b874dca	0.004129146
33	0x3b89ebcd	0.004209018
34	0x3b941c0e	0.004519946
35	0x3b76c1e4	0.003765219
36	0x3b93fde9	0.0045163524
37	0x3b9058dc	0.004405124
38	0x3b91fc3d	0.004455118
39	0x3b8aca1a	0.004235518
40	0x3b909a9c	0.004412962
41	0x3b960032	0.00457766
42	0x3b8a2c62	0.0042167166
43	0x3b8f3b2c	0.0043710675
44	0x3b96eb05	0.004605653
45	0x3b8e59dc	0.004344208
46	0x3b8c2f8e	0.00427813
47	0x3b89230a	0.004185085
48	0x3b896e94	0.00419409
49	0x3b8cb11f	0.0042935754
50	0x3b8abd89	0.00423402
51	0x3b9514a0	0.004549578
52	0x3b8fa486	0.0043836264
53	0x3b943b92	0.004523703
54	0x3b8a04cb	0.004211997
55	0x3b956917	0.004559647
56	0x3b8b2f76	0.004247601
57	0x3b97475d	0.0046166615
58	0xbde8d6dd	-0.11369107
59	0x3b967250	0.004591264
60	0x3b8b1b04	0.004245164
61	0x3b8bd11a	0.00426687
62	0x3b91b221	0.0044462834
63	0x3b889479	0.00416809
64	0x3b85cd76	0.0040833307
65	0x3b9097e8	0.00441264
66	0x3b94080a	0.00451756
67	0x3b6e2fe6	0.0036344468
68	0x3b8c2ab5	0.004277552
69	0x3b8fb22a	0.0043852525
70	0x3b887dc9	0.0041653854
71	0x3b924e2a	0.0044648843
72	0x3b82159f	0.0039698626
73	0x3b96e0dc	0.004604442
74	0x3b88e3fb	0.004177568
75	0x3b9771c8	0.004621718
76	0x3b92be30	0.0044782385
77	0x3b8d7f38	0.004318144
78	0x3b8ee008	0.0043602027
79	0x3b8b92d9	0.004259449
80	0x3b8e59da	0.0043442072
81	0x3b8fc7a0	0.004387811
82	0x3b6fd512	0.0036595506
83	0x3b8cf3f1	0.004301541
84	0x3b973551	0.00461451
85	0xbdd63bc7	-0.104606204
86	0x3b95d542	0.0045725415
87	0x3b972f8a	0.0046138214
88	0x3b8b6cb7	0.004254903
89	0x3b930a7f	0.004487335
90	0x3b8338d5	0.0040045776
91	0x3b8f9df2	0.004382842
92	0x3b94b6de	0.004538401
93	0xbd33f1ef	-0.043931898
94	0x3b8fe6eb	0.0043915412
95	0x3b8eb731	0.004355334
96	0x3b9161b5	0.0044366964
97	0x3b8cf1f8	0.004301306
98	0x3b89394f	0.00418774
99	0x3b92aa62	0.0044758776
100	0x3a917e86	0.0011100329
101	0x3b8759c3	0.0041305735
102	0x3b39eec3	0.0028371073
103	0x3ce1941e	0.027536448
104	0x3afb96d6	0.0019194733
105	0x3b086007	0.002080919
106	0x3a86936e	0.0010267326
107	0x3a9dc62e	0.0012037212
108	0x3ae6b94b	0.0017602829
109	0x3b866361	0.0041012024
110	0x3b8273ab	0.003981074
111	0x3b152ee4	0.0022763545
112	0x3b718e8a	0.0036858642
113	0x3afce30d	0.0019293741
114	0x3b4d7514	0.0031350302
115	0x3b8519bb	0.004061905
116	0x3b815c31	0.0039477577
117	0x3b72e201	0.0037060978
118	0x3ab91648	0.001412102
119	0x3ac44f1e	0.0014977192
120	0x3abd49ab	0.001444151
121	0x3b32c5c9	0.0027278534
122	0x3a86a172	0.0010271503
123	0x3b81139d	0.0039391057
124	0x3a7c5727	0.0009626024
125	0x3aadc26f	0.0013256798
126	0xbdaf4bd3	-0.08559384
127	0x3d2ba54b	0.041905683
128	0x3b854e98	0.004068207
129	0x3aef4506	0.0018254824
130	0x3aec8fea	0.0018048261
131	0x3aa89b40	0.0012863651
132	0x3aba691e	0.0014222001
133	0x3ab2d090	0.0013642479
134	0x3b523a44	0.0032078186
135	0x3b90b6d4	0.004416326
136	0x3ace255c	0.0015727687
137	0x3b797fc8	0.0038070548
138	0x3b8b7a40	0.0042565167
139	0x3ae88f69	0.0017742935
140	0x3b6ea726	0.0036415546
141	0x3af48bfb	0.001865744
142	0x3aa8502e	0.0012841278
143	0x3b7a68ee	0.0038209516
144	0x3b0129fc	0.0019708863
145	0x3b9176f3	0.0044392287
146	0x3a9a4f44	0.001177289
147	0x3ae17e82	0.001720384
148	0x3b5c13c3	0.0033581115
149	0x3b83bf4e	0.004020608
150	0x3a43be2f	0.0007466999
151	0x3b428a0c	0.0029684333
152	0x3b81e998	0.003964614
153	0x3ad1885a	0.001598607
154	0x3b8040be	0.003913968
155	0x3b5276f9	0.003211437
156	0x3aadab66	0.0013249933
157	0x3ae69324	0.0017591459
158	0x3b81ae34	0.003957534
159	0x3b0cc0a7	0.0021477134
160	0x3ab8b942	0.0014093297
161	0x3b58b5c0	0.0033067316
162	0x3b6c7a6f	0.0036083718
163	0x3b03d41f	0.0020115448
164	0x3b2c4086	0.0026283576
165	0x3b809c3a	0.0039248737
166	0x3b2d9a50	0.0026489682
167	0x3b904cff	0.00440371
168	0x3b725522	0.0036977013
169	0x3b7dfba5	0.0038754728
170	0x3b84bc9a	0.0040508034
171	0x3b7c31c8	0.003848182
172	0x3b8d479f	0.0043115164
173	0x3afd9387	0.0019346335
174	0x3ac77d12	0.0015219769
175	0x3b044fa1	0.0020189064
176	0x3b12cb76	0.0022399104
177	0x3b1609fc	0.0022894135
178	0x3b768714	0.0037617134
179	0x3b7ff33a	0.0039054886
180	0x3b83a720	0.0040177256
181	0x3b8453b0	0.0040382966
182	0x3b91a5c6	0.0044448106
183	0x3a21b692	0.00061688677
184	0x3ba78b71	0.0051130583
185	0x3b8753da	0.004129869
186	0x3b1242e4	0.0022317702
187	0x3b049789	0.0020231924
188	0x3b719773	0.0036863952
189	0x3b7f8723	0.003899046
190	0xbd9c0950	-0.07618964
191	0x3b37007d	0.0027923875
192	0x3b429d44	0.0029695788
193	0x3b84feee	0.0040587103
194	0x3b83d7a2	0.004023508
195	0x3b81680e	0.003949172
196	0xbddb5024	-0.10708645
197	0x3b79e123	0.0038128577
198	0x3a8cd0a7	0.0010743336
199	0x3b4b5af7	0.003102956
200	0xbb820dc9	-0.0039689285
201	0xbb8bf16a	-0.004270722
202	0xbb14e2f9	-0.0022718294
203	0xbb7ce5a2	-0.003858902
204	0xbd625372	-0.05525536
205	0xbb841429	-0.0040307236
206	0xbb81b44c	-0.0039582606
207	0xbb8040b7	-0.0039139646
208	0xbb7765ff	-0.0037750003
209	0xbb67a3cd	-0.0035345436
210	0x3a2b5a2c	0.0006536569
211	0xbb36f855	-0.0027919014
212	0x3b54b7c3	0.0032458163
213	0xbb8b6964	-0.004254507
214	0xbab62345	-0.0013896009
215	0xbb6fce6b	-0.003659154
216	0xb9e2171c	-0.00043123297
217	0xb9d3f07f	-0.0004042424
218	0xbcb3a9c5	-0.021931538
219	0xbb357962	-0.0027690758
220	0xbb28797b	-0.0025707174
221	0xb94edcf6	-0.00019728005
222	0xbb3b5ea9	-0.0028590357
223	0xbb6777f4	-0.00353193
224	0xbb5152b7	-0.003194017
225	0xbb3a406d	-0.0028419748
226	0xbb068fd1	-0.0020532499
227	0x3b200f56	0.0024423203
228	0xbb682a94	-0.003542577
229	0xbb894e35	-0.004190231
230	0xbb2564cd	-0.0025237084
231	0xbb2aebe1	-0.0026080536
232	0xbb264762	-0.0025372137
233	0xbb32012e	-0.0027161348
234	0xbd871eee	-0.06597696
235	0x3b7365dd	0.0037139573
236	0xbb8482b5	-0.004043902
237	0x3a03dcc4	0.000503015
238	0x3b3da3fa	0.002893685
239	0xbb0f8a48	-0.002190249
240	0xba17b651	-0.000578736
241	0xbb269c7e	-0.0025422866
242	0xbb4fe49f	-0.0031721962
243	0x39bff10f	0.00036609962
244	0xbb899a2f	-0.0041992883
245	0x37c54220	2.3515022e-05
246	0xbb5b4a4c	-0.0033461032
247	0xbb1c9ae3	-0.002389603
248	0xbaf35fdd	-0.0018567998
249	0xbb6a65a2	-0.0035766144
250	0xbb41d9c0	-0.0029579252
251	0x392df8ea	0.00016591293
252	0x3aab41ad	0.0013065838
253	0xbb85c9f2	-0.0040829116
254	0xbb64d4ac	-0.0034916801
255	0xbb26f7ad	-0.0025477216

bias f4 [40]
0	0xbd34030f	-0.04394823
1	0x3d793c01	0.06084824
2	0xbda6336e	-0.08115278
3	0x3ca9a6c9	0.020709412
4	0xbca72617	-0.020403905
5	0x3d922b98	0.07137221
6	0xbd17b30e	-0.037035994
7	0x3bbb2677	0.0057113725
8	0xbdb7d76f	-0.089766376
9	0x3c9bda8f	0.019025115
10	0x3dc17f09	0.09448058
11	0x3cab2800	0.020893097
12	0x3d278050	0.040893853
13	0x3a3f16e4	0.0007289483
14	0x3bbb566e	0.0057170903
15	0x3d84e88b	0.064896666
16	0xbcfa76b2	-0.030574176
17	0x3af40271	0.001861645
18	0x3dc28145	0.094973125
19	0xbd0f51bb	-0.034990054
20	0xbd060ca0	-0.032726884
21	0xbdc827e6	-0.09773235
22	0xbd0e026a	-0.03467027
23	0x3da3e87a	0.08003326
24	0x3daf0634	0.08546105
25	0x3dae0e52	0.08498825
26	0xbdd024f8	-0.10163301
27	0xbd0d5853	-0.03450806
28	0xbd14d01c	-0.03633128
29	0xbd9478be	-0.07249592
30	0x3d2d4974	0.04230638
31	0x3d9b8c12	0.07595076
32	0x3db776cc	0.089582056
33	0xbd5c3960	-0.053765655
34	0x3d5399f9	0.05166051
35	0xbd5eaf97	-0.054366674
36	0xbd2e45d0	-0.042547047
37	0x3d5f7190	0.05455166
38	0x3da91e29	0.08257706
39	0xbbf2cffc	-0.0074100476
