SERGIO_output3/2024-12-12(1;52)_SERGIO_data2_10epochs/interm_models/trained_model_epoch_7_alpha_comb.pt (torch, 34265 bytes, 1 tensors)

weight f4 [100, 80]
0.0030317956 -0.002878584 -0.0032079897 -0.00046817277 0.0028878362 -0.0028099334 -0.007019385 0.0030427712
-0.0027301589 0.0029020908 -0.002920344 0.0029797347 -0.0027890322 -0.0025778357 0.0025134177 -0.0028658037
4.289941e-05 -0.00278126 0.0026347705 -0.0031967203 -0.002938186 -0.0027455632 -0.002884086 -0.0028698752
-0.0016952495 -0.003135902 0.003042802 -0.0029978196 -0.0029485028 0.002547168 0.0031323156 0.030636176
0.002918087 -0.0027084735 -0.00094963494 -0.0029936666 -0.0025242807 0.0028389092 -0.0026885576 -2.8139286e-05
-0.0028085792 -0.00280163 -0.0028551281 0.083893806 -0.0028103902 -0.0028292676 -0.002806762 -0.0028389234
-0.002826635 -0.0028132126 0.035491068 -0.0028218434 -0.0027978779 -0.0028290986 -0.0028209696 -0.0028193316
-0.002782912 -0.0028499782 -0.0028095446 -0.0028213705 -0.01841388 -0.0028135628 -0.0028143509 -0.0028218206
-0.0028189002 -0.002810438 -0.0028101746 -0.0028187644 -0.002843683 -0.0028336288 -0.0028288653 -0.0028271133
-0.0028171553 -0.0028192764 -0.002810556 -0.002807398 -0.0028451341 -0.0028144985 -0.0028216569 -0.0028188103
0.00087204954 -0.0005328647 -0.0030400394 0.0028683103 0.0019255918 0.001898034 -0.0010662467 7.66312e-05
-0.0022277557 -0.04993033 -0.0016972538 0.0012206248 -0.0030119028 0.00019423335 0.0012304625 0.0031619947
-0.0020834627 -0.0014575869 -0.021408115 0.0031133236 0.00084607734 -0.0014125899 0.0032184843 -0.00079806225
-0.0018724271 -0.0020213923 0.0014814524 -0.0014044753 -0.003031389 -0.02019488 0.0010823191 0.00023110476
0.001891958 -0.000598636 0.0010797939 -0.0013938163 -0.001217737 0.0031707108 -0.0018419845 -0.0031862645
-0.0010394036 -0.001164102 -0.0009495272 -0.0009164383 -0.001077672 -0.0011452561 -0.0011105728 -0.0012545277
-0.0010950492 -0.0010011202 -0.0009128868 -0.0011117671 -0.0010370347 -0.0010896679 -0.0010492502 -0.0011209659
-0.00062759843 -0.0009878675 -0.001067214 -0.0011452053 0.055603515 -0.001056615 -0.0010029214 -0.00078601256
-0.001030124 -0.001056334 -0.0011070463 -0.0010230751 -0.0010397874 -0.0010778136 -0.0009290686 -0.0010909609
-0.0010785303 -0.0009909606 -0.0010126355 -0.0008854829 -0.00093825144 -0.0009871493 -0.0010924512 -0.0009636589
-0.0022337558 -9.3920375e-05 -0.0034202524 -0.003280075 0.0031494233 0.0027960578 0.0009287441 -0.0024695606
-0.0003385271 -0.0019139672 3.861761e-05 -0.0007547747 0.0003956243 0.0019274097 0.0004844072 0.0030898943
-0.0033579909 -0.07380883 -0.0023621053 0.0031272706 -0.003406948 0.00053691585 0.003425324 -0.0014483512
-0.0013593829 -0.0016567034 -0.0017152664 0.055369407 -0.003314176 -0.0018029729 0.000968186 -0.002355794
0.0007841832 0.00038920416 0.01192521 -0.00033441206 0.000607882 0.0017996423 0.0016843112 -0.003497906
0.00044942697 0.00030907098 0.000641767 0.0005951312 0.00036690762 -0.010520507 0.00033167505 0.0003913532
0.00067463506 0.00053791865 0.00059784594 0.0005433478 0.00039081307 0.00043212238 0.0005291295 0.0004909843
0.00062003033 0.0004854335 0.0004981203 0.00061853766 0.0005145258 0.0004954358 0.0004846772 0.0010515661
0.0005579153 0.000431492 0.00033619272 0.00061938085 0.00047633884 0.0005498189 0.0005230784 0.00043626755
0.0005535512 0.0005486943 0.00039971442 0.0006517952 0.0004356548 0.0005976028 0.0005988012 0.00065467414
0.0033018081 -0.0033072405 -0.003413946 -0.0019269267 0.0034366145 -0.0033899713 -0.003311178 0.003329068
-0.0030529709 0.003423971 -0.0033006978 0.08630906 -0.0029771933 -0.0030101645 0.0029074673 -0.0033880756
00000000: 17b1 463b a0a6 3cbb 233d 52bb 1675 f5b9
00000010: da41 3d3b dc26 38bb df02 e6bb 3b69 473b
00000020: 77ec 32bb 0131 3e3b 3e63 3fbb a747 433b
00000030: 32c8 36bb e8f0 28bb 27b8 243b 35d0 3bbb
00000040: e4ee 3338 cd45 36bb 1dac 2c3b 1180 51bb
00000050: 958e 40bb e8ee 33bb ef02 3dbb 8414 3cbb
00000060: 2233 deba b583 4dbb bf69 473b 1177 44bb
00000070: ab3b 41bb 63ee 263b 8947 4d3b b8f8 fa3c
00000080: 603d 3f3b a580 31bb ecf0 78ba 6431 44bb
00000090: 676e 25bb fe0c 3a3b 8332 30bb a80c ecb7
000000a0: 2410 38bb 8d9b 37bb 1a1d 3bbb 84d0 ab3d
000000b0: 862e 38bb 3c6b 39bb a7f1 37bb 3b0d 3abb
000000c0: 113f 39bb e05d 38bb 155f 113d adee 38bb
000000d0: 9a5c 37bb 6668 39bb 04e0 38bb 89c4 38bb
000000e0: 8461 36bb b3c6 3abb 5620 38bb bee6 38bb
000000f0: b5d8 96bc c063 38bb f970 38bb 4bee 38bb
00000100: 4cbd 38bb 532f 38bb e82a 38bb 05bb 38bb
00000110: 155d 3abb 67b4 39bb 7c64 39bb 1747 39bb
00000120: 06a0 38bb 9cc3 38bb 4e31 38bb 53fc 37bb
00000130: 6e75 3abb 7373 38bb 8ceb 38bb cabb 38bb
00000140: 419a 643a f2af 0bba 663b 47bb 43fa 3b3b
00000150: 2464 fc3a 74c7 f83a 4dc1 8bba 10b5 a038
00000160: 8aff 11bb bf83 4cbd 6376 deba 5ffd 9f3a
00000170: 5863 45bb 1eab 4b39 7847 a13a 7839 4f3b
00000180: b48a 08bb 800c bfba 1260 afbc e708 4c3b
00000190: 4acb 5d3a a726 b9ba 35ed 523b 0d35 51ba
000001a0: 3a6c f5ba 5679 04bb 4b2d c23a 5f16 b8ba
000001b0: 45aa 46bb bc6f a5bc 9adc 8d3a b654 7239
000001c0: 93fb f73a c8ed 1cba df87 8d3a b7b0 b6ba
000001d0: 799c 9fba b3cb 4f3b be6e f1ba a6d0 50bb
000001e0: 993c 88ba c894 98ba b1e9 78ba 223d 70ba
000001f0: ac40 8dba 6b1c 96ba a490 91ba f76e a4ba
00000200: c187 8fba 0538 83ba cc4e 6fba b7b8 91ba
00000210: 1ced 87ba 30d3 8eba ff86 89ba 60ed 92ba
00000220: 6b85 24ba 557b 81ba c2e1 8bba b71a 96ba
00000230: 83c0 633d 1e7e 8aba 7574 83ba 690c 4eba
00000240: 3a05 87ba b074 8aba 4f1a 91ba b418 86ba
00000250: 7a49 88ba 6c45 8dba bd8c 73ba 93fe 8eba
00000260: 795d 8dba 1fe3 81ba 69ba 84ba c01f 68ba
00000270: fdf4 75ba 3c63 81ba 9430 8fba 0e9e 7cba
00000280: 3464 12bb 1ef7 c4b8 5026 60bb 87f6 56bb
00000290: 8e66 4e3b 113e 373b f676 733a 5ad8 21bb
000002a0: 577c b1b9 15de faba 58f9 2138 13dc 45ba
000002b0: cb6b cf39 23a1 fc3a 09f8 fd39 d37f 4a3b
000002c0: bd11 5cbb 1529 97bd 8dcd 1abb e5f2 4c3b
000002d0: 1a47 5fbb d0bf 0c3a 677b 603b 9ad6 bdba
000002e0: 522d b2ba be25 d9ba cad2 e0ba 08cb 623d
000002f0: a632 59bb bb51 ecba ddcd 7d3a aa63 1abb
00000300: a591 4d3a 190e cc39 f561 433c 0754 afb9
00000310: 455a 1f3a fae1 eb3a 1bc4 dc3a 203d 65bb
00000320: 11a1 eb39 ce0a a239 413c 283a 9402 1c3a
00000330: 825d c039 345e 2cbc ace4 ad39 8a2e cd39
00000340: fed9 303a 1c03 0d3a c3b8 1c3a 746f 0e3a
00000350: 0be6 cc39 7c8e e239 48b5 0a3a 66b5 003a
00000360: 8889 223a c881 fe39 4a94 023a 5c25 223a
00000370: 3ee1 063a 22e0 013a 461c fe39 b4d4 893a
00000380: 1041 123a e039 e239 0643 b039 f25d 223a
00000390: 1ebd f939 b921 103a 321f 093a d7ba e439
000003a0: 311c 113a 40d6 0f3a c390 d139 3cdd 2a3a
000003b0: 9968 e439 72a8 1c3a def8 1c3a 709e 2b3a
000003c0: 2663 583b 4abe 58bb 82bc 5fbb ee90 fcba
000003d0: d338 613b 482a 5ebb 5900 59bb 7e2c 5a3b
000003e0: 5a14 48bb b364 603b 8550 58bb cec2 b03d
000003f0: 041d 43bb 2e46 45bb 358b 3e3b 7a0a 5ebb
