SERGIO_output3/2024-12-12(1;52)_SERGIO_data2_10epochs/interm_models/trained_model_epoch_1_sums.pt (torch, 18826 bytes, 2 tensors)

weight f4 [40, 100]
000000 59 cf fc 39 52 fb 35 3d bf db ff 39 f4 e3 01 ba
       0.00048219672 0.04442913 0.00048801114 -0.0004954927
000010 b2 58 f8 39 98 36 01 3a 0f 7f 01 3a de b5 ff 39
       0.0004736833 0.00049290946 0.00049398927 0.00048772892
000020 ab a6 ed 39 0c 79 02 ba 48 ff 00 ba f5 f7 00 3a
       0.0004532834 -0.0004977144 -0.00049208524 0.0004919761
000030 95 16 00 ba ad 53 01 3a 39 65 01 ba 6c 78 02 ba
       -0.00048861775 0.0004933428 -0.0004936043 -0.00049770507
000040 f1 2f 02 ba f1 ab 00 ba 41 03 fe 39 f6 e0 ff 39
       -0.000496625 -0.0004908434 0.0004844908 0.00048805
000050 17 c6 00 3a 9c 67 00 3a 74 6d 01 3a 61 73 02 ba
       0.000491233 0.00048982515 0.0004937269 -0.0004976299
000060 81 eb 00 3a 68 3d 00 3a 2a 6e e0 39 61 3f 01 3a
       0.00049179053 0.0004891963 0.00042806688 0.00049304037
000070 96 7d 02 ba b6 91 01 3a 52 0e fc 39 0d 21 01 3a
       -0.000497782 0.0004942672 0.00048075855 0.00049258844
000080 d3 7c 00 3a a2 d5 00 3a 2e 95 00 3a 19 6d 02 ba
       0.0004901413 0.0004914646 0.0004905042 -0.0004975363
000090 2e 02 01 3a 67 6f 01 ba d4 e0 00 ba 2f 92 17 bd
       0.0004921284 -0.000493756 -0.00049163145 -0.037004646
0000a0 58 d6 01 ba 9d fe 01 3a b0 2e ff 39 df e6 01 ba
       -0.0004952899 0.00049589 0.00048672175 -0.0004955362
0000b0 66 c1 00 3a 9c 3e 96 3c dc 69 00 3a 6f c1 00 3a
       0.0004911631 0.018340401 0.0004898587 0.00049116364
0000c0 ec 53 02 ba 1d 75 02 ba 30 e9 7d 3c 22 3e 02 3a
       -0.0004971612 -0.00049765577 0.015497491 0.0004968365
0000d0 04 66 01 ba 41 b5 00 3a d6 70 02 ba e2 9b 00 ba
       -0.0004936161 0.00049098214 -0.00049759203 -0.0004906041
0000e0 12 9a 00 3a 35 8c 01 3a 8e 47 01 ba a3 4b 00 3a
       0.0004905771 0.0004941852 -0.0004931622 0.0004894083
0000f0 e9 21 00 3a 85 74 02 ba b5 20 01 ba 25 8c 00 3a
       0.00048878655 -0.0004976469 -0.0004925833 0.00049036957
000100 ba 80 e0 b9 35 03 fe b9 99 c1 ff 39 8e 6e 02 ba
       -0.00042820518 -0.00048449045 0.00048781632 -0.00049755804
000110 97 e3 fe b9 35 58 01 ba 6f 78 02 ba 3e c1 00 ba
       -0.00048616223 -0.00049341033 -0.00049770524 -0.0004911608
000120 d4 6d 02 ba e8 e6 00 3a 39 3e 01 3a b0 56 01 3a
       -0.0004975472 0.000491722 0.00049302314 0.0004933877
000130 5b ae ff b9 5e 31 02 3a e4 5c 02 ba 8c fe f3 b9
       -0.00048767295 0.0004966463 -0.0004972948 -0.00046538224
000140 d7 80 02 ba 81 18 01 ba 93 43 02 ba 10 38 66 3d
       -0.0004978305 -0.0004924611 -0.0004969176 0.05620581
000150 0f 99 fd 39 38 87 02 ba 6c 8c ff b9 fb 2b 01 3a
       0.00048369958 -0.00049792556 -0.00048742013 0.0004927513
000160 57 59 02 ba 5f 73 02 ba fc a1 02 ba 77 66 ee 39
       -0.0004972419 -0.0004976298 -0.0004983244 0.0004547124
000170 3d aa fb b9 6e 2d 02 ba 61 e1 8d bd f1 73 02 ba
       -0.00048001288 -0.0004965876 -0.06927753 -0.0004976383
000180 63 1a 02 ba cb d1 00 ba f0 77 00 3a 8c 87 01 3a
       -0.00049630384 -0.0004914074 0.00049006846 0.00049411575
000190 0e f1 02 ba 9e 5f 02 ba b9 da 02 ba da db 02 ba
       -0.00049950264 -0.00049733545 -0.00049916987 -0.0004991867
0001a0 0d f5 02 ba 31 f8 02 ba e7 f6 02 ba 4a f2 02 ba
       -0.0004995622 -0.000499609 -0.0004995898 -0.00049952103
0001b0 b9 ec 02 ba 20 50 f1 39 c5 d4 02 3a 96 ed 02 ba
       -0.0004994381 0.000460268 0.00049908116 -0.00049945095
0001c0 24 df 02 3a 3b f9 02 ba 2d 65 02 ba 5a 6e fd b9
       0.0004992357 -0.00049962447 -0.0004974183 -0.0004833814
0001d0 34 b1 02 3a e3 04 02 3a 7a e9 02 ba 8b e7 02 ba
       0.0004985512 0.00049598346 -0.0004993897 -0.0004993609
0001e0 f4 e7 02 ba 5a 59 02 ba 65 ee 02 ba 61 a0 ff b9
       -0.000499367 -0.0004972421 -0.000499463 -0.00048756882
0001f0 cb ee 02 ba d2 e9 02 ba ce d1 02 ba ba f8 02 ba
       -0.00049946894 -0.00049939484 -0.000499037 -0.00049961696
000200 2e fa e9 39 d2 f9 02 ba 4a e0 02 ba 73 cd 06 3e
       0.00044627622 -0.00049963326 -0.0004992528 0.1316431
000210 97 e6 02 ba 88 ea 02 ba 48 61 02 ba 64 f3 02 3a
       -0.0004993467 -0.00049940543 -0.00049736025 0.00049953745
000220 af f5 02 ba d3 c1 02 3a cd f4 02 3a 8c e5 02 ba
       -0.0004995716 0.00049879885 0.00049955846 -0.00049933116
000230 82 2e 02 3a d6 f1 02 ba 3e eb 02 ba 10 c3 02 3a
       0.00049660366 -0.0004995143 -0.000499416 0.0004988173
000240 9f f7 02 ba 95 ed 02 3a 5f ef 02 ba c9 05 74 bd
       -0.0004996005 0.0004994509 -0.00049947755 -0.05957583
000250 b5 9b fd b9 86 9c fe b9 42 f1 02 ba b5 91 02 ba
       -0.0004837193 -0.00048563274 -0.00049950567 -0.00049808185
000260 a4 e3 02 3a b7 f5 02 ba 26 3a 00 ba db c2 02 ba
       0.00049930275 -0.0004995721 -0.00048914773 -0.0004988142
000270 77 ed 02 ba 16 fa 02 ba 49 dc 02 3a 4b f6 02 ba
       -0.00049944915 -0.0004996372 0.00049919315 -0.0004995807
000280 3f ec 02 ba 27 9d fb b9 ee 8a 02 3a 1d d9 02 ba
       -0.000499431 -0.00047991538 0.00049798086 -0.0004991459
000290 84 b1 02 ba 1b da 02 3a d5 a4 02 ba 7c f4 02 3a
       -0.00049855583 0.00049916067 -0.00049836683 0.00049955375
0002a0 e4 d1 02 3a 0e dc 02 3a 61 82 fe 39 ba d0 02 3a
       0.00049903826 0.0004991897 0.00048543795 0.0004990209
0002b0 03 e8 02 3a 72 f8 02 ba cf e7 02 ba 01 f9 02 ba
       0.0004993679 -0.00049961277 -0.00049936486 -0.0004996211
0002c0 17 e9 02 ba b4 35 02 3a 14 89 02 ba 0c d6 02 3a
       -0.00049938395 0.0004967109 -0.00049795327 0.0004991002
0002d0 ee c4 01 3a f1 d7 02 3a 79 fa 02 3a fc ef 02 ba
       0.0004950304 0.0004991284 0.000499643 -0.0004994867
0002e0 48 f3 02 ba 71 93 74 3d c6 e8 02 ba 5d f8 02 ba
       -0.0004995358 0.059710924 -0.00049937924 -0.00049961155
0002f0 df 4f 02 3a 6e ab 01 ba b1 a4 02 3a 4b 8a 02 ba
       0.0004971008 -0.00049465045 0.00049836474 -0.00049797137
000300 44 db 02 ba b5 89 93 bc 41 27 fa 39 a7 02 85 bd
       -0.00049917796 -0.01801 0.00047712962 -0.064946465
000310 fb 6f 02 3a ee d9 02 3a 6a ec 02 ba 43 e2 00 3a
       0.0004975793 0.00049915805 -0.0004994335 0.0004916528
000320 e5 ba 02 ba 7a d3 02 ba aa d8 02 ba e2 ad 02 ba
       -0.0004986956 -0.0004990619 -0.0004991392 -0.0004985017
000330 52 ca 02 ba 15 73 02 ba c0 c1 02 ba 7b bf 02 ba
       -0.00049892545 -0.0004976255 -0.00049879774 -0.0004987639
000340 0f c6 02 ba c6 d5 02 ba 73 54 fc bd e9 cf 02 ba
       -0.00049886195 -0.0004990961 -0.12320795 -0.00049900875
000350 b6 e1 02 ba 68 cc 02 ba 22 cb 02 ba 33 d4 02 ba
       -0.000499274 -0.00049895654 -0.00049893756 -0.00049907266
000360 f9 d4 02 ba 16 dd 02 ba 03 c2 02 ba bf c1 02 ba
       -0.0004990842 -0.0004992051 -0.00049880164 -0.0004987977
000370 41 c2 02 ba b0 d7 02 ba 37 bd 02 ba 39 d1 02 ba
       -0.00049880525 -0.00049912464 -0.00049873017 -0.0004990283
000380 ce b8 02 ba 98 bd 02 ba 1f c5 02 ba 52 cc 02 ba
       -0.00049866445 -0.0004987358 -0.000498848 -0.00049895525
000390 9d d2 02 ba 5d cd 02 ba d6 c5 02 ba ae c0 02 ba
       -0.000499049 -0.0004989708 -0.00049885863 -0.0004987818
0003a0 01 6a e5 3c b9 c0 02 ba 83 de 02 ba ad e2 02 ba
       0.028004648 -0.00049878244 -0.0004992263 -0.0004992884
0003b0 32 c9 02 ba e8 de 02 ba c7 f0 02 ba 3c cf 02 ba
       -0.0004989087 -0.0004992322 -0.0004994985 -0.0004989987
0003c0 eb a6 bc bc 82 d2 02 ba 75 ba 02 ba f6 d8 02 ba
       -0.023028811 -0.00049904746 -0.00049868907 -0.0004991436
0003d0 9b cc 02 ba d7 ed 02 ba 89 bc 02 ba bd c9 02 ba
       -0.0004989595 -0.00049945473 -0.00049872004 -0.0004989168
0003e0 24 ae 02 ba f2 d4 02 ba 28 b8 02 ba 69 e7 02 ba
       -0.00049850554 -0.0004990838 -0.0004986548 -0.0004993589
0003f0 25 e7 02 ba 60 c9 02 ba 61 d1 02 ba 29 ce 02 ba
       -0.00049935497 -0.00049891137 -0.00049903063 -0.00049898267

bias f4 [40]
000000 fc e9 13 bd 69 f8 a7 3d 1b 7c 09 bd b8 46 9e 3c
       -0.036111817 0.08201677 -0.03356562 0.01932083
000010 ed 64 94 bd c9 7b 84 3d cb 83 a5 3d bd 24 b0 bc
       -0.072458126 0.06468923 0.08081778 -0.021501893
000020 37 b3 8d 3d 37 24 a5 bd 73 6d bf 3d 62 59 89 bd
       0.06918948 -0.08063548 0.09347048 -0.067065015
000030 f0 6e d8 3c 4a ac 57 3d c4 c1 ad bd f9 0e 30 3c
       0.026420087 0.052654542 -0.084842235 0.010745757
000040 47 38 99 bc ff 87 cb 3d 4b 43 f6 bc 79 f9 78 3d
       -0.018703593 0.099380486 -0.030061385 0.06078479
000050 f0 68 a5 3d 9c ff 89 3d 96 e5 55 3d 2b 58 0d 3d
       0.08076656 0.06738207 0.052220903 0.03450791
000060 68 aa df bc 3d 5b 80 3d 9b 69 6e bc bb 84 72 3d
       -0.027302936 0.06267402 -0.0145515455 0.059208613
000070 9e 54 8e bc 92 ce ca bd d7 02 f5 3c 9f 66 08 bd
       -0.017374333 -0.099026814 0.02990858 -0.033300992
000080 d9 1c 7e bd ca d9 b4 3d ff 11 8c 3b 13 ea 7c 3d
       -0.06203923 0.088306025 0.0042746062 0.061746668
000090 ce 8e a4 3d 71 9f 05 bd e2 48 52 3d de e2 4a 3d
       0.0803505 -0.03262276 0.051339038 0.049532764
