SERGIO_output3/2024-12-12(1;52)_SERGIO_data2_10epochs/interm_models/trained_model_epoch_10_sums.pt (torch, 18832 bytes, 2 tensors)

weight f4 [40, 100]
000000 2f 9d 9a 3b 4f b2 29 3d aa 9d 98 3b fd 80 3f 3a
       0.004718445 0.041429814 0.004657467 0.00073052925
000010 9c 77 97 3b 0c 17 9e 3b b2 c7 9f 3b 50 32 9c 3b
       0.004622413 0.0048245247 0.0048761005 0.00476674
000020 74 39 96 3b 11 ae 6b bb 19 ec 94 3a cc 3c 9c 3b
       0.0045844857 -0.0035961906 0.0011361866 0.0047679897
000030 01 e6 ef 3a f8 4d 9e 3b 57 30 da 3a 62 3e 63 bb
       0.00183028 0.004831072 0.0016646486 -0.0034674634
000040 19 72 12 bb 39 89 f2 3a 5c 66 9a 3b 79 69 9c 3b
       -0.002234584 0.001850403 0.004711909 0.0047733155
000050 85 0e 9e 3b a9 d3 99 3b 6f f9 9f 3b b6 aa 55 bb
       0.004823508 0.0046944213 0.0048820297 -0.0032602972
000060 34 a3 9e 3b be 0c 9d 3b 99 e9 94 3b 7d e2 9d 3b
       0.0048412327 0.0047927788 0.0045444486 0.0048182593
000070 26 93 6d bb b2 33 9f 3b 17 fd 99 3b d0 00 9f 3b
       -0.0036251037 0.0048584575 0.00469936 0.004852392
000080 b7 87 9d 3b 5d 2c 9e 3b d0 32 97 3b d1 2b 81 bb
       0.0048074382 0.004827066 0.0046142116 -0.003941991
000090 f4 e9 9d 3b c0 41 37 3a 70 31 11 3a 2f a4 05 bd
       0.004819149 0.00069906935 0.0005538678 -0.03262728
0000a0 e0 5b 7f b7 f3 d0 a0 3b 90 09 9c 3b 0a c4 26 ba
       -1.5220576e-05 0.004907721 0.004761882 -0.00063616096
0000b0 9a 82 9c 3b ea 84 83 3c 78 47 9d 3b 66 e5 9d 3b
       0.004776311 0.01605459 0.0047997795 0.004818606
0000c0 19 fb 20 bb 96 73 5a bb 9f 0f a3 3c 6a 66 a0 3b
       -0.0024563728 -0.0033333055 0.01990491 0.004895021
0000d0 01 cf e7 39 e4 10 9d 3b 59 0f 4e bb f2 ba 1e 3b
       0.00044213983 0.0047932733 -0.0031442253 0.0024220315
0000e0 53 b7 9d 3b 49 30 9f 3b 02 81 42 3a ee 57 9b 3b
       0.0048131137 0.004858051 0.00074197364 0.0047407066
0000f0 ea a8 9c 3b 5d 7c 5b bb 93 08 b7 3a cb 2c 9d 3b
       0.0047808783 -0.0033490874 0.0013964347 0.0047965995
000100 ae 12 6a 3b a4 60 08 3b 18 7b 97 3b e7 94 84 bb
       0.00357167 0.0020809555 0.004622828 -0.004046071
000110 4f 11 1b 3b b4 2e 22 3a f8 01 61 bb 8e 58 b1 3a
       0.002366144 0.0006186769 -0.003433345 0.001353042
000120 fe 84 7c bb e7 f5 9c 3b 14 34 9f 3b 32 36 9e 3b
       -0.0038531418 0.004790056 0.004858503 0.004828238
000130 d8 79 48 3b c8 64 a1 3b c0 14 1b bb d2 f7 3a 3b
       0.0030590203 0.004925344 -0.002366349 0.002852906
000140 38 66 82 bb d3 1c 8e 3a c6 07 59 bb ef a0 77 3d
       -0.0039794706 0.001084233 -0.0033116206 0.060456213
000150 c4 7f 98 3b be 5a 80 bb 3a 75 43 3b ab b0 9d 3b
       0.0046539027 -0.0039170673 0.002982451 0.00481232
000160 f8 af 4f bb 00 1f 71 bb e0 c7 92 bb 9b 08 92 3b
       -0.003169058 -0.003679216 -0.0044793934 0.0044565923
000170 a1 a6 4b 3b e5 dc 00 bb 1c 14 95 bd c4 51 64 bb
       0.003107466 -0.0019662913 -0.07279226 -0.0034838775
000180 04 59 c1 ba aa 7e c5 3a ea ae 9d 3b 69 1b 9b 3b
       -0.001475126 0.0015067656 0.004812111 0.004733492
000190 25 f3 9d bb 57 6f 86 bb 10 66 99 bb c8 a7 9a bb
       -0.004820245 -0.004102628 -0.0046813563 -0.004719708
0001a0 48 b4 9f bb 86 0d a0 bb fb 58 9f bb 6d 4b 9e bb
       -0.004873786 -0.0048844246 -0.004862902 -0.004830769
0001b0 22 2e 9d bb 2a c5 9f ba 1c e4 9c 3b d8 cd 9d bb
       -0.004796759 -0.0012189497 0.004787935 -0.0048157983
0001c0 3f 67 a0 3b 66 76 a0 bb 94 41 73 bb 5d 40 2b bb
       0.0048951204 -0.0048969267 -0.0037117945 -0.0026130893
0001d0 5e 8d 89 3b d5 af bc 3a 7b 49 9c bb e9 a8 9a bb
       0.0041977605 0.0014395664 -0.0047695017 -0.0047198427
0001e0 6e d4 9a bb 94 ff 56 bb 5c 58 9c bb 34 52 2c bb
       -0.0047250306 -0.0032806145 -0.0047712754 -0.0026294114
0001f0 12 a8 9c bb 86 51 9b bb a7 82 93 bb 3e 61 a0 bb
       -0.0047807777 -0.004739943 -0.004501659 -0.0048944047
000200 94 24 8e ba 2a 79 a0 bb e8 8f 98 bb dd 71 02 3e
       -0.0010844641 -0.0048972564 -0.004655827 0.12738748
000210 dd 17 9a bb 6c 81 9b bb 99 0f 6b bb 39 8e a3 3b
       -0.0047025518 -0.004745653 -0.0035867451 0.0049913195
000220 13 70 9f bb e6 8e 94 3b 2f b6 a3 3b 34 f5 99 bb
       -0.004865655 0.0045336364 0.004996083 -0.00469842
000230 53 ba f1 3a 5c 69 9e bb 74 fb 9b bb a8 3a 95 3b
       0.001844237 -0.004834337 -0.0047602 0.0045541115
000240 47 29 a0 bb 01 a1 a2 3b d9 37 9d bb 4a 8a 82 bd
       -0.004887733 0.004963041 -0.0047979173 -0.06374033
000250 94 64 05 bb 46 d9 2c bb c7 22 9d bb f0 10 7b bb
       -0.0020354139 -0.0026374622 -0.0047954055 -0.0038309656
000260 ee 25 a1 3b 72 67 9f bb 84 47 2f bb 26 10 94 bb
       0.0049178516 -0.0048646266 -0.0026745507 -0.0045185266
000270 04 ad 9c bb 0e 8e a0 bb 2b 33 9f 3b 5d ec 9f bb
       -0.0047813673 -0.0048997467 0.0048583946 -0.0048804716
000280 a1 58 9c bb ff 64 22 bb f6 7f 5f 3b 28 b5 95 bb
       -0.0047713076 -0.0024779437 0.003410337 -0.0045687146
000290 8e 37 88 bb 6c 96 9e 3b 6f 12 86 bb d6 bf a3 3b
       -0.0041570133 0.004839709 -0.004091553 0.004997234
0002a0 76 7e 9c 3b ee 47 9f 3b 08 1a 0a ba c0 5b 9b 3b
       0.0047758175 0.0048608696 -0.0005268161 0.004741162
0002b0 02 cb a1 3b 43 50 a0 bb 7c 8c 9a bb fe 5e a0 bb
       0.0049375305 -0.0048923804 -0.004716454 -0.0048941365
0002c0 a7 58 9d bb 9a 7b 28 3b 24 00 8a bb 06 eb 9d 3b
       -0.004801828 0.0025708438 -0.0042114425 0.0048192767
0002d0 96 16 22 3a 9c cb 9d 3b 3a 36 a4 3b db 40 9d bb
       0.0006183175 0.004815532 0.005011347 -0.004798991
0002e0 b3 59 9f bb a9 94 68 3d 22 47 9d bb f8 43 a0 bb
       -0.004862988 0.0567824 -0.0047997395 -0.004890915
0002f0 2b 5b 14 3b 0d 09 60 bb cb 0c 76 3b 79 43 7b bb
       0.0022637348 -0.0034185082 0.0037544246 -0.0038339777
000300 59 47 9a bb 65 46 5f bc 90 74 76 ba a7 0a 8b bd
       -0.0047082123 -0.013627623 -0.00094015244 -0.06789141
000310 d2 db 33 3b fa e5 9e 3b 4c 1e 9c bb 1b 6a 49 3a
       0.0027444256 0.0048491927 -0.004764354 0.00076833525
000320 48 6d 81 3a ed d9 b5 ba da bb c2 ba 5a e4 8d 3a
       0.0009874487 -0.0013874151 -0.001485701 0.00108255
000330 28 4f 64 38 3a 3d 24 3b 44 98 42 3a 4d 49 4f 3a
       5.4433156e-05 0.0025060908 0.0007423202 0.0007907346
000340 b6 0b b5 39 0e 8a f2 ba ff a3 01 be 9a a4 04 ba
       0.00034531736 -0.0018504278 -0.12660216 -0.0005059928
000350 14 62 6b bb 50 a9 97 b7 74 bb 2b ba 6e a8 cf ba
       -0.0035916613 -1.8079445e-05 -0.0006551065 -0.0015843043
000360 84 27 12 bb 53 94 36 bb 9d 05 de 39 85 6c 2b 3a
       -0.0022301385 -0.0027859404 0.00042347322 0.0006539303
000370 c3 98 19 3a dc 35 c8 ba ee e6 7c 3a 0c 1d a2 ba
       0.000585925 -0.001527484 0.00096474483 -0.0012368276
000380 73 8c 93 3a 4a aa 62 3a 6e d5 9e 39 d0 fa ec b7
       0.0011257067 0.0008646591 0.00030295126 -2.8250186e-05
000390 a2 5e be ba 60 b8 c8 b7 d2 ed ba 39 3c 93 3c 3a
       -0.0014524052 -2.3927714e-05 0.00035653875 0.00071935705
0003a0 5e 21 ef 3c 3e 44 3d 3a d1 93 26 bb 21 02 80 bb
       0.029190715 0.0007219947 -0.0025417695 -0.003906504
0003b0 92 35 60 39 f9 17 4f bb 2b c4 96 bb 00 27 67 b9
       0.00021382261 -0.0031599982 -0.0046010218 -0.00022044405
0003c0 34 d6 c7 bc 82 9d 19 ba 2e 9e 80 3a 92 19 2a bb
       -0.024394132 -0.00058599573 0.0009812766 -0.0025955183
0003d0 e0 6a 55 b8 7c 3a 91 bb d4 3f 73 3a e6 0e 1d 39
       -5.0882692e-05 -0.0044320207 0.00092792255 0.00014978237
0003e0 3e 45 67 3a b3 ab d0 ba 09 72 9c 3a fd 78 5e bb
       0.00088222686 -0.0015920311 0.0011935841 -0.0033946626
0003f0 0b 45 84 bb 7a fb 83 39 e5 76 9d ba 9c 24 4c ba
       -0.004036551 0.00025173632 -0.0012013583 -0.00077874376

bias f4 [40]
000000 07 da 11 bd 47 a3 a8 3d bb 2c 03 bd f0 43 a5 3c
       -0.035608318 0.08234268 -0.03202508 0.020173997
000010 50 57 9b bd d8 5b 88 3d ec b6 a7 3d fe 01 b5 bc
       -0.07585013 0.06658143 0.081891865 -0.022095677
000020 b1 c2 8b 3d 39 df a7 bd 3b cf be 3d 33 24 90 bd
       0.06824244 -0.08196873 0.0931687 -0.070381545
000030 0b 22 b5 3c 1d 11 46 3d 69 b7 a8 bd 2e 58 49 3c
       0.02211096 0.048356164 -0.08238108 0.01228909
000040 e5 7a 8b bc d2 52 c8 3d 45 02 e9 bc fe a5 79 3d
       -0.017026374 0.09781422 -0.028443465 0.060949318
000050 5e d7 a9 3d 01 cb 82 3d 0a 54 5a 3d bf e0 0f 3d
       0.08293031 0.06386376 0.053302802 0.035126444
000060 ef 79 ca bc b7 b6 83 3d 46 20 73 bc c7 7f 78 3d
       -0.024716346 0.064313345 -0.014839238 0.060668733
000070 a9 90 72 bc db 83 c4 bd fd d7 e6 3c b1 c4 10 bd
       -0.0148049975 -0.09595462 0.028179163 -0.03534383
000080 bd 99 82 bd 8d e9 b7 3d 4c 54 d7 3a 04 07 81 3d
       -0.063769795 0.08980093 0.0016428321 0.06300166
000090 91 bf 9f 3d 67 de f1 bc 82 32 46 3d 90 35 4f 3d
       0.0780021 -0.029524995 0.04838801 0.05058819
