SERGIO_output3/2024-12-12(1;52)_SERGIO_data2_10epochs/interm_models/trained_model_epoch_5_alpha_comb.pt (torch, 34265 bytes, 1 tensors)

weight f4 [100, 80]
000000 2e 69 1b 3b d5 96 19 bb b6 76 21 bb 84 46 19 b9
       0.0023713815 -0.002343585 -0.0024637408 -0.00014617486
000010 b5 48 1f 3b a4 c4 1c bb 79 0d d2 bb f4 52 1d 3b
       0.0024304811 -0.0023920918 -0.0064102975 0.0024005743
000020 54 ff 0f bb 3d ac 1f 3b 77 29 18 bb 2f 6a 1c 3b
       -0.0021972256 0.0024364137 -0.0023218074 0.0023867001
000030 3c 15 11 bb 4e 10 0c bb 01 c8 07 3b ab ba 1e bb
       -0.00221379 -0.0021372023 0.0020718577 -0.002422015
000040 4c 8f e9 39 27 db 12 bb a0 21 0a 3b 85 84 1d bb
       0.00044547988 -0.0022408457 0.002107717 -0.0024035287
000050 cf d1 1f bb 43 90 12 bb 82 bb 1e bb 45 8c 1d bb
       -0.002438653 -0.0022363819 -0.002422065 -0.0024039906
000060 85 dc 8e ba 1c 33 21 bb 35 f8 1c 3b 81 a4 1d bb
       -0.001089946 -0.0024597114 0.0023951654 -0.002405435
000070 b4 1a 13 bb 91 93 0a 3b f3 40 21 3b 96 52 f5 3c
       -0.0022446336 0.0021145085 0.0024605363 0.029946607
000080 30 4d 19 3b 3f 57 13 bb 9f ec 8f ba 69 97 1d bb
       0.0023391955 -0.0022482423 -0.0010980553 -0.0024046546
000090 4a 87 09 bb d2 2d 4a 3b f2 af 0e bb 6b 6d f0 b9
       -0.002098518 0.0030850065 -0.0021772352 -0.0004585789
0000a0 d4 56 15 bb ca 37 15 bb cd 40 17 bb 80 e4 ac 3d
       -0.002278735 -0.0022768849 -0.0023079396 0.084420204
0000b0 60 68 15 bb 95 0b 16 bb 92 5e 15 bb 4d 1a 16 bb
       -0.0022797808 -0.0022895087 -0.0022791964 -0.002290386
0000c0 a2 b1 15 bb c9 7b 15 bb c1 85 13 3d f3 af 15 bb
       -0.0022841473 -0.0022809377 0.03601623 -0.002284047
0000d0 6b 29 15 bb 3b 48 16 bb 4a d0 15 bb e8 98 15 bb
       -0.0022760283 -0.0022931236 -0.0022859746 -0.0022826735
0000e0 a6 01 15 bb e9 33 17 bb d5 5f 15 bb 79 a1 15 bb
       -0.0022736578 -0.0023071712 -0.0022792716 -0.002283184
0000f0 29 6c 92 bc 04 70 15 bb 7b 7b 15 bb b0 d4 15 bb
       -0.01787384 -0.0022802362 -0.0022809196 -0.0022862367
000100 e4 87 15 bb 0c 78 15 bb 33 66 15 bb b7 a1 15 bb
       -0.0022816593 -0.002280715 -0.0022796511 -0.0022831985
000110 4e c5 16 bb c4 31 16 bb 5c 55 16 bb 3d b7 15 bb
       -0.0023005786 -0.0022917846 -0.0022939062 -0.0022844814
000120 f8 87 15 bb 1e ca 15 bb 21 ae 15 bb 1a 55 15 bb
       -0.002281664 -0.0022856067 -0.0022839385 -0.002278632
000130 54 10 17 bb c2 73 15 bb f2 9b 15 bb 1b b2 15 bb
       -0.0023050504 -0.0022804593 -0.0022828546 -0.0022841755
000140 77 f8 9c 3a e3 e5 8a ba 48 8f 15 bb 4a bd 04 3b
       0.0011975904 -0.0010597076 -0.0022820998 0.0020254427
000150 97 d8 f1 3a a5 09 80 3a 2a 10 af ba 0f 92 3b 3a
       0.001845139 0.0009768499 -0.0013356258 0.00071552483
000160 a4 9d ef ba b8 cb 48 bd 52 3b d1 ba c3 20 be 3a
       -0.0018281233 -0.049022406 -0.0015963113 0.0014505613
000170 d9 e1 10 bb e6 b1 f0 b9 b4 6c a8 3a ae bb 11 3b
       -0.0022107272 -0.00045908912 0.0012849779 0.002223711
000180 d4 0f 96 ba 7a f5 bf ba 4d d5 b0 bc 23 5a 0e 3b
       -0.0011448809 -0.0014645301 -0.021586085 0.0021721206
000190 00 00 46 35 6a d0 b7 ba 15 3b 14 3b d0 e5 a5 ba
       7.376075e-07 -0.0014023904 0.0022618223 -0.001265699
0001a0 ae 9a ec ba 5c 38 f6 ba 86 c5 d0 3a 8a b1 cc ba
       -0.0018051469 -0.0018785107 0.0015928007 -0.0015616876
0001b0 11 d4 16 bb 37 af a0 bc 9d 95 bf 3a a8 f8 5b 3a
       -0.0023014585 -0.019614799 0.0014616732 0.00083912397
0001c0 16 10 e6 3a 5b 2f 89 ba 3a a7 b7 39 b3 f6 ca ba
       0.0017552401 -0.0010466384 0.00035029073 -0.0015484899
0001d0 c4 05 af ba a4 ca 12 3b cc 5e da ba 09 94 14 bb
       -0.0013353159 0.0022398615 -0.0016660332 -0.0022671244
0001e0 ae 0d aa ba e9 4a b3 ba 1f 08 a6 ba 08 d6 a0 ba
       -0.0012974048 -0.0013678941 -0.0012667215 -0.0012270818
0001f0 2a f0 ac ba 82 a7 b1 ba b9 95 af ba 8c 0b ba ba
       -0.0013194133 -0.001355395 -0.0013396061 -0.0014194115
000200 81 23 ae ba 56 92 a7 ba 92 92 a0 ba cf 2e af ba
       -0.0013285727 -0.00127847 -0.0012250713 -0.001336539
000210 55 22 aa ba 2a fa ae ba 64 38 ab ba bf 74 b0 ba
       -0.0012980202 -0.0013349701 -0.001306307 -0.0013462527
000220 47 fd 8a ba 76 78 a8 ba 98 2f ac ba b4 e9 b1 ba
       -0.0010604047 -0.0012853283 -0.0013136743 -0.0013573677
000230 85 83 62 3d 10 56 ab ba e3 84 a7 ba b1 18 98 ba
       0.055301208 -0.0013071913 -0.0012780692 -0.0011604038
000240 44 50 a9 ba ff d6 ab ba 3c 3b af ba dc 6a a9 ba
       -0.0012917598 -0.0013110338 -0.0013369094 -0.0012925523
000250 a7 13 ab ba ba c1 ad ba 8c 0c a3 ba 61 e6 ad ba
       -0.0013052122 -0.0013256588 -0.0012439652 -0.0013267511
000260 cc cd ac ba 20 f5 a7 ba b2 9c a9 ba cc 71 9e ba
       -0.0013183891 -0.0012814142 -0.0012940376 -0.0012088357
000270 ca 05 a5 ba 97 29 a6 ba f7 f8 ad ba 84 db a4 ba
       -0.0012590226 -0.001267719 -0.001327305 -0.0012577628
000280 0c 3b ed ba f0 6e c0 39 1d 87 1f bb 10 c2 17 bb
       -0.0018099262 0.0003670375 -0.0024342008 -0.0023156442
000290 18 ca 10 3b c1 e5 0b 3b bb 52 9a 3a 14 4b 01 bb
       0.0022093114 0.002134666 0.0011773923 -0.0019728588
0002a0 e3 ef ba 39 1e b5 da ba 1b 7f 29 3a 27 dd 8d ba
       0.00035655414 -0.0016686057 0.00064657786 -0.0010823355
0002b0 d9 36 62 3a 20 40 d7 3a 56 f7 6d b9 a8 c1 12 3b
       0.0008629389 0.0016422309 -0.00022694221 0.002239326
0002c0 f0 fe 1b bb 87 2e 96 bd 22 dc f0 ba ad c2 16 3b
       -0.0023803078 -0.07333093 -0.0018376152 0.002300422
0002d0 2f f1 1e bb 16 ee 7f 3a f1 35 20 3b 82 f6 12 ba
       -0.0024252643 0.00097629556 0.0024446214 -0.00056061905
0002e0 c1 14 3e ba aa 61 47 ba 23 e3 cb ba 47 b3 65 3d
       -0.00072510174 -0.00076058006 -0.0015555363 0.056079175
0002f0 d0 33 1b bb c4 4f c7 ba c4 13 12 39 aa ce fa ba
       -0.0023682006 -0.0015206267 0.00013931008 -0.0019135077
000300 80 71 40 b7 e3 0e 59 3a 3e ea 39 3c 80 a9 bb 39
       -1.1470518e-05 0.00082801114 0.011347352 0.00035793707
000310 7d c9 6d 3a 19 37 e0 3a e7 c8 c6 3a db 12 23 bb
       0.00090708566 0.0017106264 0.0015166075 -0.0024883065
000320 79 14 63 3a 46 5e 4b 3a ea ac 80 3a 55 a3 7a 3a
       0.00086624135 0.0007757883 0.0009817157 0.00095610815
000330 67 e2 55 3a d7 e6 24 bc a6 f6 4f 3a 12 02 5b 3a
       0.0008159042 -0.010064802 0.0007933177 0.00083544955
000340 41 78 83 3a fb 82 71 3a ec fc 7a 3a ad 2e 74 3a
       0.0010030345 0.0009212938 0.00095744315 0.00093148166
000350 c0 ee 58 3a f1 34 60 3a 4c 43 71 3a f1 63 69 3a
       0.00082753226 0.0008552811 0.00092034484 0.0008903137
000360 23 19 7f 3a 61 86 6a 3a b0 11 6b 3a f1 5e 7e 3a
       0.00097312237 0.00089464156 0.0008967174 0.00097034784
000370 68 e5 6e 3a 1e 91 6a 3a a3 de 68 3a 6c ba 9f 3a
       0.00091131637 0.0008948016 0.0008883273 0.0012186295
000380 a6 96 74 3a 87 c5 60 3a b6 62 50 3a 8a f1 7d 3a
       0.00093303097 0.0008574356 0.00079492794 0.0009687176
000390 aa 86 68 3a f6 31 72 3a e6 0b 71 3a ab c4 60 3a
       0.0008870164 0.0009239012 0.00091951934 0.00085742277
0003a0 94 cb 74 3a 60 50 71 3a c1 5a 59 3a c0 03 82 3a
       0.0009338197 0.0009205397 0.00082914165 0.000991933
0003b0 a0 a5 60 3a a7 f3 7a 3a ee 4e 7b 3a f7 88 82 3a
       0.0008569602 0.000957305 0.00095866516 0.0009959032
0003c0 56 b1 1f 3b 34 81 20 bb c3 d8 22 bb 65 fb 86 ba
       0.0024367175 -0.0024491074 -0.0024848438 -0.001029831
0003d0 01 cf 23 3b ec 31 23 bb fe 8e 20 bb ad c9 21 3b
       0.002499521 -0.0024901582 -0.0024499292 0.0024686859
0003e0 e1 c5 17 bb 4b b8 23 3b f2 49 1f bb 73 f5 ae 3d
       -0.0023158717 0.0024981673 -0.002430555 0.085429095
0003f0 ab cb 16 bb a0 6a 17 bb 76 47 13 3b d4 24 23 bb
       -0.002300958 -0.0023104325 0.0022473014 -0.0024893777
