SERGIO_output3/2024-12-12(1;52)_SERGIO_data2_10epochs/interm_models/trained_model_epoch_7_sums.pt (torch, 18826 bytes, 2 tensors)

weight f4 [40, 100]
000000 ef f3 54 3b 8a c6 2e 3d 52 60 57 3b 2c a1 10 3a
       0.0032494029 0.04266981 0.0032863808 0.00055171805
000010 f7 0b 52 3b dc 3a 5c 3b f9 8a 5d 3b 86 ba 57 3b
       0.0032050589 0.003360442 0.0033804758 0.0032917573
000020 aa a6 4e 3b c7 77 18 bb 22 7b a5 3a 52 f2 5a 3b
       0.0031532445 -0.0023264752 0.0012625197 0.0033408594
000030 19 e6 d1 3a 46 7c 5c 3b 18 82 9a 3a 8c 66 12 bb
       0.0016014009 0.0033643409 0.0011788039 -0.0022338955
000040 42 72 9c ba 7f 9f c7 3a 88 a0 55 3b fe 08 58 3b
       -0.0011935907 0.0015230029 0.0032596905 0.0032964344
000050 0e ac 5a 3b 64 02 59 3b 8b 5c 5d 3b c7 2f 08 bb
       0.0033366713 0.0033112997 0.0033777084 -0.002078043
000060 9b 25 5b 3b aa e1 58 3b f8 de 4b 3b 71 0f 5c 3b
       0.0033439163 0.003309349 0.0031108242 0.003357854
000070 a0 b1 1a bb 77 ad 5d 3b 18 6c 54 3b 59 0b 5c 3b
       -0.0023604408 0.0033825317 0.0032413062 0.00335761
000080 66 a8 59 3b da d2 5a 3b 00 0d 59 3b fe 95 2a bb
       0.0033211946 0.0033389837 0.003311932 -0.0026029344
000090 19 3e 5b 3b f0 73 71 3a 96 98 8f 3a 2d bf 0b bd
       0.003345376 0.00092106964 0.0010955508 -0.034117866
0000a0 af fa ba 39 5e 7d 60 3b ee 3e 57 3b 44 62 4b 37
       0.00035663458 0.0034254412 0.0032843906 1.2122622e-05
0000b0 50 0c 5a 3b 20 21 8d 3c 0f 5a 59 3b 9d 8f 5a 3b
       0.00332715 0.01722771 0.0033165251 0.003334976
0000c0 7f 98 c2 ba 30 77 0b bb b4 b0 96 3c 47 1e 62 3b
       -0.0014846473 -0.0021280758 0.018394805 0.003450291
0000d0 a9 c0 5d 3a 1d 04 5a 3b 78 50 02 bb 42 cf d6 3a
       0.00084591896 0.0033266612 -0.001988439 0.0016388672
0000e0 eb f9 59 3b 60 9e 5d 3b ba 1d 86 3a 14 89 58 3b
       0.0033260535 0.0033816323 0.0010232248 0.003304069
0000f0 c4 85 58 3b 69 5b 0c bb 76 36 a5 3a 96 d8 59 3b
       0.0033038715 -0.002141679 0.0012604732 0.0033240668
000100 b0 56 0f 3b c4 1e ea 3a d8 68 57 3b 99 51 30 bb
       0.0021871738 0.0017861952 0.0032868888 -0.0026904105
000110 a5 7c e9 3a 2b 65 74 3a 4d cc 10 bb 1e 50 b5 3a
       0.0017813636 0.00093229365 -0.002209443 0.0013833081
000120 e2 d1 25 bb de 9a 5a 3b b8 8c 5c 3b 53 77 5c 3b
       -0.0025302102 0.0033356468 0.003365321 0.0033640459
000130 84 a0 f2 3a 9f 63 62 3b 4a 1e b7 ba d7 35 05 3b
       0.0018510972 0.0034544242 -0.0013970819 0.002032628
000140 99 04 2d bb d2 6c a0 3a 2b f9 06 bb 63 94 71 3d
       -0.0026400445 0.0012239462 -0.0020595293 0.058979403
000150 64 2e 55 3b 95 e9 29 bb 0c 43 f1 3a 1c b9 5b 3b
       0.0032528872 -0.002592658 0.0018406822 0.0033527082
000160 ae 23 02 bb 8d f4 1c bb aa b8 47 bb ee 1b 4e 3b
       -0.0019857693 -0.0023949475 -0.0030475059 0.0031449753
000170 91 18 02 3b 1c 5c 85 ba e2 52 92 bd 9b fc 12 bb
       0.0019851069 -0.0010174545 -0.07144715 -0.0022428397
000180 f5 5e 23 ba 83 02 b6 3a 10 a7 59 3b 1e 60 5d 3b
       -0.0006232106 0.0013886247 0.003321115 0.0033779214
000190 c0 80 60 bb ba d5 49 bb cb 53 5c bb 38 2a 5d bb
       -0.0034256428 -0.0030797557 -0.003361928 -0.0033747088
0001a0 19 d7 61 bb ec 2f 62 bb a2 aa 61 bb bb c7 60 bb
       -0.0034460484 -0.0034513427 -0.003443398 -0.0034298736
0001b0 d8 c8 5f bb a6 f9 a2 ba be 1e 57 3b 5e 31 60 bb
       -0.0034146812 -0.001243402 0.003282472 -0.0034209113
0001c0 14 34 5d 3b ae 82 62 bb ee 3f 42 bb b6 54 1f bb
       0.0033752965 -0.0034562754 -0.0029640156 -0.0024311966
0001d0 c8 dc 34 3b 6e a9 c3 39 bb 21 5f bb c2 e2 5d bb
       0.0027597416 0.00037319533 -0.0034047205 -0.0033857082
0001e0 2d 0c 5e bb e2 2d 39 bb ed 52 5f bb 66 13 21 bb
       -0.003388177 -0.0028256108 -0.0034076527 -0.0024578213
0001f0 2c 8d 5f bb 3e 70 5e bb 42 34 58 bb f9 6e 62 bb
       -0.0034111245 -0.0033941413 -0.0032990132 -0.0034551008
000200 7f 51 9f ba 69 88 62 bb 66 2b 5c bb ec d4 03 3e
       -0.0012155025 -0.003456617 -0.0033595203 0.12874192
000210 ec 7c 5d bb 88 96 5e bb dc 8f 3f bb 7c 1b 63 3b
       -0.0033796383 -0.0033964235 -0.0029230034 0.0034653833
000220 b9 af 61 bb 8b 5c 48 3b 2b 67 63 3b 99 56 5d bb
       -0.0034437014 0.0030572738 0.0034698944 -0.003377354
000230 7c 7d 36 3a ed ce 60 bb 9e f1 5e bb 17 8d 49 3b
       0.00069614477 -0.0034303025 -0.0034018527 0.0030754262
000240 85 3d 62 bb 9a 7a 61 3b 8a ef 5f bb 8b c1 7f bd
       -0.0034521532 0.0034405352 -0.0034169876 -0.062440436
000250 1a ce 11 bb 57 7d 20 bb 0a fa 5f bb 22 d7 46 bb
       -0.002224809 -0.002448877 -0.0034176135 -0.0030340631
000260 0f 98 5e 3b 0a a6 61 bb c7 bd 22 bb 6d 69 57 bb
       0.0033965146 -0.0034431242 -0.0024832354 -0.0032869235
000270 c0 83 5f bb 52 9a 62 bb 62 29 5b 3b c7 05 62 bb
       -0.0034105629 -0.0034576845 0.0033441414 -0.0034488307
000280 eb 36 5f bb d5 94 1b bb 73 44 06 3b 5e fc 59 bb
       -0.0034059833 -0.0023739834 0.0020487576 -0.0033261995
000290 e6 68 4f bb b7 13 5a 3b 3e 12 4d bb 8d 72 63 3b
       -0.0031648218 0.003327591 -0.003129139 0.0034705729
0002a0 e6 50 56 3b ce 48 5b 3b ef a0 6f ba 00 64 54 3b
       0.0032702028 0.0033460143 -0.00091411074 0.0032408237
0002b0 f0 d7 5f 3b eb 5f 62 bb 30 d7 5d bb 37 6e 62 bb
       0.0034155808 -0.0034542035 -0.0033850186 -0.0034550556
0002c0 72 b1 5f bb e0 dc a5 3a f1 06 4e bb 86 ce 58 3b
       -0.0034132865 0.0012654327 -0.0031437243 0.0033082082
0002d0 da fa 3e b9 6e b7 58 3b ec 6d 64 3b 08 fa 5f bb
       -0.00018213262 0.0033068317 0.0034855558 -0.003417613
0002e0 89 80 61 bb ae 3a 6b 3d e5 9a 5f bb 73 56 62 bb
       -0.0034408888 0.05742901 -0.0034119424 -0.003453639
0002f0 53 cf 89 3a f6 8c 36 bb d0 a8 1b 3b 79 a1 46 bb
       0.0010514058 -0.0027855015 0.0023751743 -0.0030308648
000300 45 e6 5c bb 6e 24 78 bc 50 12 91 ba 27 b9 89 bd
       -0.0033706587 -0.015145404 -0.001106808 -0.06724768
000310 9e be c0 3a 2a 92 5a 3b 5b 1a 5f bb c0 cf 43 b9
       0.0014705246 0.003335128 -0.0034042809 -0.00018674042
000320 e6 71 96 b9 1c 7d 06 bb 75 e9 08 bb e0 1a 53 b9
       -0.0002869509 -0.0020521348 -0.0020891104 -0.0002013254
000330 8e 5e 8a ba c0 69 8d 3a ee dd 01 ba 7a 41 ee b9
       -0.0010556744 0.0010788962 -0.00049540296 -0.0004544368
000340 d6 76 57 ba 58 bc 16 bb ff cd 00 be 53 b5 bf ba
       -0.0008219307 -0.0023000445 -0.12578581 -0.0014626182
000350 ce c0 41 bb 78 ab 91 ba 39 03 cc ba 09 57 0d bb
       -0.0029564383 -0.0011113724 -0.0015564925 -0.002156677
000360 76 f7 1f bb a5 f9 2f bb 36 03 47 ba 5a 83 14 ba
       -0.0024408973 -0.002685168 -0.0007591726 -0.0005665325
000370 d4 31 23 ba 37 13 09 bb 3c bf 9f b9 b0 00 00 bb
       -0.00062253815 -0.0020915994 -0.00030469324 -0.001953166
000380 b4 95 2e b9 e2 5b cc b9 16 fc 5e ba b5 b5 92 ba
       -0.00016649702 -0.0003897837 -0.00085061917 -0.0011193069
000390 19 5f 08 bb b2 35 92 ba 62 2e 54 ba cc 26 06 ba
       -0.0020808636 -0.0011154918 -0.000809407 -0.00051174755
0003a0 43 17 e5 3c 78 9e 05 ba 02 9f 29 bb 76 8a 49 bb
       0.027965194 -0.0005097161 -0.002588213 -0.0030752695
0003b0 b8 63 73 ba f4 9b 38 bb 40 d7 59 bb 5d 80 a4 ba
       -0.00092845736 -0.0028169127 -0.0033239871 -0.0012550462
0003c0 94 27 cb bc af 18 c7 ba 7f 80 98 b9 21 01 2a bb
       -0.024799146 -0.0015189851 -0.00029087436 -0.0025940614
0003d0 40 f6 94 ba 8f 60 56 bb 84 95 b0 b9 2b 07 7f ba
       -0.0011364892 -0.0032711362 -0.00033680734 -0.0009728546
0003e0 2d f1 c1 b9 ee 8f 0d bb 64 22 e1 b8 46 bc 3e bb
       -0.0003699152 -0.0021600681 -0.00010735242 -0.002910392
0003f0 ae 80 4c bb c2 79 6b ba ba 1a fd ba 78 a2 d7 ba
       -0.0031204629 -0.0008982682 -0.0019310333 -0.0016451618

bias f4 [40]
000000 03 81 14 bd f1 0f aa 3d 02 c9 01 bd 36 94 a7 3c
       -0.036255848 0.08303822 -0.031685837 0.020456415
000010 91 e7 99 bd 3c f0 88 3d 7c 00 a9 3d 41 88 bb bc
       -0.07514871 0.06686446 0.082520455 -0.02289212
000020 25 6b 8c 3d 7b 31 a9 bd 3f c6 c0 3d 41 c9 8e bd
       0.06856374 -0.08261391 0.094128124 -0.0697198
000030 99 4e c0 3c 84 b3 4b 3d ab a3 a9 bd 8e a3 50 3c
       0.023474978 0.049731746 -0.0828317 0.012734307
000040 c5 e1 8f bc e8 e6 c9 3d 52 12 e9 bc 60 eb 79 3d
       -0.01756371 0.09858495 -0.028451119 0.061015487
000050 5b 18 aa 3d 7b 58 84 3d bf 3a 5d 3d bd 13 13 3d
       0.08305427 0.06462189 0.054011103 0.035907496
000060 1a a7 ca bc fb 7e 84 3d 7b fe 80 bc 16 38 7a 3d
       -0.024737883 0.06469532 -0.015746346 0.061088644
000070 cc dd 74 bc ce 32 c6 bd 1f 22 e4 3c 1f 36 12 bd
       -0.014945459 -0.09677659 0.027848301 -0.035696145
000080 02 bf 83 bd 49 b0 b8 3d 81 48 0d 3b f8 7c 82 3d
       -0.06432916 0.09017999 0.0021558108 0.06371492
000090 d1 fa a0 3d c8 23 f6 bc fb 64 48 3d 1e 14 4b 3d
       0.078603394 -0.030046359 0.048924427 0.049579732
