SERGIO_output3/2024-12-12(21;53)_SERGIO_data2_40epochs/final_model_sums.pt (torch, 18702 bytes, 2 tensors)

weight f4 [40, 100]
000000 0f a7 d8 3b e8 03 5e bc 91 73 98 3a 87 d9 f9 bb
       0.006611712 -0.013550736 0.0011631121 -0.0076248082
000010 31 b8 f3 bb e9 e4 a5 bc 9f c6 01 3c da ee be 3b
       -0.007437729 -0.020250754 0.00792089 0.005826813
000020 01 5a 9b 3b 5b af 5b bc 0a 8b 9b 3b f6 ba 92 3b
       0.004740954 -0.013408507 0.0047467994 0.004477854
000030 fc e1 25 3c 60 e7 9e bb 01 71 18 3b 2f 5b 4a bc
       0.01012468 -0.0048493594 0.0023260715 -0.012350841
000040 92 95 9f ba 68 17 53 3b 68 d3 32 3c e3 26 05 3c
       -0.0012175313 0.0032209996 0.010914661 0.008126947
000050 6a 76 01 3c 0c ea 1a 3c 7a 5b 19 3c 7e 64 48 bc
       0.007901767 0.009455215 0.009360189 -0.01223099
000060 5e 6f 12 3c 08 56 7e 3d b8 fc 01 3c ce 1d 03 bc
       0.008937685 0.062093765 0.007933788 -0.008002711
000070 d8 60 3f bc ad 94 88 bb 61 35 ca 3b 0e 78 0e 3c
       -0.011680804 -0.004168114 0.006170914 0.008695615
000080 09 3e fc 3b b0 dd 13 3c 85 30 0d 3c bc 07 16 3b
       0.007697825 0.009025022 0.008617525 0.0022892794
000090 3e 53 03 3b 0b d9 9d 3b 43 ec ba 3d ec 0c 1c 3c
       0.002003863 0.0048171333 0.091270946 0.009524565
0000a0 82 e7 46 3a 86 6f f0 3b 68 f8 0e 3c ad 53 b0 3b
       0.0007587598 0.0073375134 0.008726217 0.0053810687
0000b0 68 81 bb bb 48 0f 9e ba 65 6c f6 3b 71 ba 0a 3c
       -0.0057222135 -0.0012058998 0.007520246 0.008467303
0000c0 db cd 4f bb bd 9d 42 bc fe 57 1e 3c 92 88 4f 3c
       -0.0031708393 -0.011878428 0.009664534 0.012666838
0000d0 2c 60 f5 3b d2 de 36 3b 8c f9 3d bc 92 a4 81 bd
       0.007488271 0.0027903807 -0.011595141 -0.063302174
0000e0 b3 c7 06 3c 6d ee b5 bb 4d cf e7 3b f1 19 04 bc
       0.008226323 -0.005552104 0.0070742727 -0.008062826
0000f0 ae 0b f6 3b 00 d0 44 bc d8 a1 bf 3b 6a cb 1c 3c
       0.0075087165 -0.012012482 0.0058481507 0.009569982
000100 94 2b cf 3b 76 c9 0d 3c fd a0 1f 3c 4a 64 7e 3b
       0.0063223336 0.008653989 0.009742972 0.00388171
000110 75 5a ff 3b 72 fc f5 3b b5 43 33 bc df c9 a7 3b
       0.0077927657 0.0075069005 -0.010941436 0.0051205005
000120 4c 4a 98 3a 8f 19 e7 bb 60 b0 10 3c 24 64 e2 bb
       0.0011618822 -0.0070526074 0.008831114 -0.0069089103
000130 5b 10 f8 bb 06 5a 4f 3c 3f ed 44 bc da 37 db 3b
       -0.007570309 0.012655741 -0.0120194545 0.0066900076
000140 2b 04 e2 bc 1c 3d 87 3b 48 00 cc 3b ad 89 03 3c
       -0.027589878 0.004127158 0.0062256195 0.00802843
000150 8d 19 96 bb df 25 55 bc 83 13 9f bb 41 b9 92 bb
       -0.0045806826 -0.013009517 -0.004854621 -0.0044776504
000160 c9 68 52 bb f3 01 38 bc 24 c2 5b bc f1 19 e7 3b
       -0.0032105914 -0.0112309335 -0.013412986 0.007052653
000170 35 f7 ab bb f8 b8 67 3b 78 64 3d bc 39 80 3e bc
       -0.0052479752 0.0035358053 -0.011559598 -0.01162725
000180 6a 80 f4 ba 7f 00 0c 3c 84 41 14 3c 5b 04 46 3d
       -0.0018653993 0.00854504 0.009048823 0.048343997
000190 14 4f aa 3c 07 f6 69 bc 78 18 9b 3c 5e 06 7d 3c
       0.02078966 -0.014279849 0.018932566 0.015443413
0001a0 72 3f a4 3c 63 7c ae 3c 69 e5 b0 3c aa cd ab 3c
       0.020049784 0.021299547 0.021593766 0.020972092
0001b0 44 39 a4 3c 62 a5 72 bc 97 e7 14 bd 2f 31 aa 3c
       0.020046838 -0.014809938 -0.036353674 0.020775406
0001c0 c5 f4 53 3c 4f 6c ac 3c 41 ae 73 3c ce 40 61 bc
       0.012936776 0.02104774 0.014873088 -0.013748361
0001d0 30 d5 c4 bb 48 53 0b 3c f6 c2 b2 3c 1b df ab 3c
       -0.0060068592 0.0085037425 0.02182148 0.020980408
0001e0 78 a3 ad 3c f4 65 a1 3c 90 41 b1 3c bd a3 57 bc
       0.021196112 0.019701935 0.021637708 -0.013161597
0001f0 70 be af 3c 1b 09 ad 3c 71 8b a3 3c b6 81 ab 3c
       0.021453112 0.021122506 0.019963952 0.020935874
000200 2a 2d 64 bc d9 75 ae 3c 1a be a7 3c 7c f1 af 3c
       -0.013926784 0.021296429 0.02047639 0.021477453
000210 83 06 ad 3c 36 3d ae 3c 4c c3 99 3c 2a 54 5c bc
       0.02112127 0.021269422 0.018769883 -0.013447801
000220 52 0c ad 3c cd b8 71 3b af 65 c0 bb fd 70 c6 3d
       0.021124039 0.0036883831 -0.0058714966 0.096895196
000230 c7 13 b9 3b fc 19 b0 3c 04 e2 ab 3c c5 e8 e2 b9
       0.0056481096 0.021496765 0.020981796 -0.00043279506
000240 6a 70 a9 3c f1 57 50 bc 3a 17 ae 3c ce 9d ac 3c
       0.020683486 -0.012716279 0.02125131 0.02107134
000250 4e 24 a7 39 a7 f8 5b bc f2 4a b3 3c 52 c1 8b 3d
       0.0003187977 -0.013425983 0.021886323 0.06823982
000260 00 c2 35 b6 97 97 ac 3c 8d 63 55 bc 35 2d 83 3c
       -2.7084025e-06 0.021068377 -0.013024223 0.016012767
000270 23 a4 ad 3c 97 26 ae 3c be 7f 86 39 25 c8 a7 3c
       0.02119643 0.021258635 0.00025653647 0.020481179
000280 d1 03 ac 3c a1 65 5c bc 10 f3 3d 3c ec 79 aa 3c
       0.020997914 -0.013451965 0.011593595 0.02081009
000290 16 12 9a 3c e7 82 e0 3a 01 1b a9 3c c0 77 57 bc
       0.018807452 0.0017128856 0.02064276 -0.013151109
0002a0 b3 6d 2b 3c 88 5c 49 3b 5b 73 63 bc 67 96 be 3b
       0.010463166 0.003072532 -0.013882483 0.005816269
0002b0 6f f9 56 bc 27 d7 aa 3c de 53 af 3c cd a5 ac 3c
       -0.013120993 0.020854546 0.021402296 0.021075154
0002c0 8d 66 8f 3c fe 33 b3 3c d4 d8 37 bc 02 c3 50 3c
       0.017504955 0.021875378 -0.011221129 0.012741806
0002d0 92 0e 4d bc 1f 99 ac bb 6c 49 50 bc be 80 ae 3c
       -0.012515681 -0.005267277 -0.012712818 0.021301623
0002e0 23 d2 a6 3c 64 51 71 bc 59 25 9c 3c a1 74 ab 3c
       0.020363873 -0.014728878 0.019060778 0.020929636
0002f0 28 62 57 bb d6 74 33 bc e3 ba 7b bc 34 e8 9a 3c
       -0.0032864902 -0.010953149 -0.0153643815 0.018909551
000300 e8 82 8e 3c a7 5d 18 bc 23 b3 54 bc e4 1a 5c bc
       0.017396405 -0.009299672 -0.012982163 -0.013434146
000310 53 af 83 bb 39 67 c2 3b af 94 ae 3c 0a b0 a3 3c
       -0.004018703 0.0059327153 0.021311132 0.019981403
000320 96 b9 82 bc ed 04 bd 3b e8 59 33 bc 38 26 35 bc
       -0.015957635 0.0057684095 -0.010946728 -0.011056475
000330 32 19 7a bc ab ed 8d bc 7e 21 8e bc 15 2f 88 bc
       -0.015264796 -0.017325243 -0.017349955 -0.016624013
000340 07 ad 78 bc 75 5f 0d 3c 29 3e f9 3b b4 8b 6c bc
       -0.015177972 0.008628716 0.007606287 -0.014437605
000350 15 ce 87 3b 50 dd 86 bc ee ae da bb 17 84 a5 3b
       0.00414444 -0.016462952 -0.0066736853 0.0050511467
000360 fd aa aa 3b 7d bc eb 3a a6 89 3b 3c e2 78 82 bc
       0.0052083717 0.0017985251 0.011446392 -0.015926782
000370 db 34 82 bc 86 ce 26 bc a4 6b 8d bc 3b 71 8c 3b
       -0.015894344 -0.010181075 -0.017263241 0.004285959
000380 b4 01 8b bc e9 bd 84 bc c2 69 67 bc 67 3e 18 bd
       -0.016968586 -0.016203837 -0.014124336 -0.037168887
000390 85 4d b3 3b 68 d4 86 bc 96 51 74 bc 63 f0 85 bc
       0.0054718875 -0.016458705 -0.01491203 -0.016349977
0003a0 49 20 82 bc b6 0e 83 bc e5 00 fb bb 86 ef 35 3c
       -0.015884535 -0.015998226 -0.0076600187 0.01110447
0003b0 1a 17 87 bc c0 70 9c 3b 06 38 3d 3c 53 a4 7a bc
       -0.016490508 0.004774183 0.011549002 -0.015297967
0003c0 30 d5 21 bd c6 f9 80 bc 65 46 86 bc 50 8a 9f 3b
       -0.039509952 -0.015744101 -0.016390989 0.004868783
0003d0 a5 ab 83 bc c7 d9 3f 3c 28 45 87 bc 4d cd 7a bc
       -0.016073057 0.011709637 -0.016512468 -0.015307737
0003e0 80 3d 56 bb f9 d9 a3 3b ab 5e 90 bc 86 19 26 bc
       -0.0032690465 0.0050003496 -0.017623266 -0.010137921
0003f0 1d 55 00 3c 1a df 84 bc 33 3f 6b 3b 24 ca 08 bc
       0.007832793 -0.016219664 0.0035895824 -0.008348975

bias f4 [40]
000000 1a 03 76 3c e7 bc 28 3d 48 22 8a bc 5f 36 95 3d
       0.015015388 0.041195776 -0.01686205 0.07285761
000010 6c c4 b1 bb 7b b8 f7 3c 84 78 bf bd 4f 3c 80 3d
       -0.0054250266 0.030239334 -0.093491584 0.06261503
000020 f3 47 b0 3d 18 24 bd bd d5 d6 11 bd 47 a6 97 bd
       0.08607473 -0.092354 -0.03560527 -0.07404762
000030 5e 05 23 3c ae ab 43 bc ff a4 3e 3d e9 17 a9 bc
       0.00995001 -0.011942787 0.04654407 -0.020641284
000040 d2 b6 54 3d 83 e3 9e 3d 0a ad c4 bc 20 bd af bd
       0.051932164 0.07758238 -0.024008293 -0.085809946
000050 cb 54 10 bd 9c 33 6a 3d 24 91 de bb 1b 95 7d 3d
       -0.035237115 0.057178125 -0.0067922045 0.061909776
000060 59 ab a5 bb 7c 5d b5 bd 40 09 65 3d ba 95 c2 3c
       -0.0050558266 -0.08855721 0.055917025 0.023753036
000070 e6 59 fd 3b c8 00 a1 bd 4c 8b ae 3d 82 45 9f bd
       0.007731664 -0.07861477 0.085226625 -0.077769294
000080 cd 87 97 3d 0a c3 58 bd 94 0d 86 3d 70 c7 ce ba
       0.07398949 -0.05292038 0.065455586 -0.001577599
000090 1f 3a 89 bd 51 1d 0d 3d 26 46 5c bd 08 7a 4c bd
       -0.06700539 0.034451786 -0.053777836 -0.049921066
