SERGIO_output/best_val_model_sums.pt (torch, 18720 bytes, 2 tensors)

weight f4 [40, 100]
00000000: 9803 3b3d f2c0 4e3d 32f0 303d 989b 473d
00000010: 692c 403d 9667 993d adb3 803d cc88 613d
00000020: f1e8 083d 2f08 06bd 9eed 773d ec71 ef3c
00000030: a998 653d 9d6c 543d b245 523d 7c82 ee3c
00000040: 0091 603d e065 7a3d a88f b73d ebf5 303d
00000050: 186f 623d 7773 633d 81ad 6f3d 8a67 f83c
00000060: e77a 4e3d 259d 2d3d 9e2c 2f3d 2b7e 5a3d
00000070: 34b8 023d f5d1 863d 022f 333d b9d3 6f3d
00000080: 083a 543d c388 1b3d 4a5b 543d 2fd3 c53b
00000090: 93e7 423d 94b8 703d aab0 403d b569 4d3d
000000a0: f4df 803d b198 4d3d 7095 483d 8400 603d
000000b0: 20d9 4f3d 1719 8b3d c7d9 4c3d eacc 333d
000000c0: 2ac6 713d 672b 153d 33e9 623d db8a 643d
000000d0: 6076 823d 8a76 6c3d 7e1a 0d3d 301d 3e3d
000000e0: c381 273d 6004 413d c0b0 5e3d 3587 4a3d
000000f0: 0b18 643d 8cc3 193d 5ea1 733d 4f14 3c3d
00000100: 13d6 523d 2800 703d 356b 753d 1fa1 733b
00000110: 3252 823d 4216 723d f731 163d 492b 633d
00000120: 9777 3e3c 1189 5e3d b1d0 663d db97 673d
00000130: 5cf3 873d e963 6c3d 3709 613d 15c7 c83d
00000140: b95f 073d f019 823d f4b0 723b 8971 fb3c
00000150: c2f4 483d 9395 043d 5f9d 233c 0cd8 853d
00000160: b98a 1e3d ef12 1a3d a66d 2d3d c9ba 653d
00000170: 601c 2c3d e617 803d fd2c d33c f959 203d
00000180: af28 6b3d 8956 6b3d ab88 3b3d 324a 8e3d
00000190: 1bf3 84bd affc 41bd eb37 2dbd 8936 3ebd
000001a0: 8cf0 8abd 6acf c4bd 3259 a4bd f8bd 93bd
000001b0: f949 5cbd 1833 553c fc3b 67bd 24c3 41bd
000001c0: 98b4 63bd 4ed2 3abd 762a 42bd e040 a7bc
000001d0: 63c2 3fbd 9d7e 65bd 4389 a5bd 3c0c 79bd
000001e0: cc7a 95bd 4681 64bd 744e 9bbd cf1f adbc
000001f0: 3c4b 8cbd b1be 77bd 1ff6 79bd 44ab 90bd
00000200: 0d10 b4bc 8199 aabd 8053 94bd 3d0e 9cbd
00000210: 00f6 8cbd ae2f 62bd fb7f 3bbd 8c98 68bb
00000220: cc32 87bd 9492 5bbd b18c 2bbd 529b 8fbd
00000230: fa64 77bd 2363 44bd 000e 89bd 35d1 43bd
00000240: b4dc 88bd 6a65 22bd feab 8bbd 65e4 80bd
00000250: e892 6bbd d84c e2bc cf5e 96bd eaf2 62bd
00000260: b5ab 69bd 0d38 9abd 109d c8bc 6d03 2fbd
00000270: 2c13 8cbd ebe3 83bd 48cb 43bd 7aa3 86bd
00000280: e724 96bd b7de e9bc adf2 61bd 7838 83bd
00000290: a885 04be 3962 53bd 6de1 79bd 438c e53b
000002a0: 1b66 67bd b0f1 55bd e34c c2bc 2311 56bd
000002b0: a8f9 a4b8 4dee 91bd 3475 99bd 8b2c 97bd
000002c0: 9153 9abd ca39 66bd 720b 61bd aa4d 06be
000002d0: f527 bbbc 2acf 80bd 7cc2 c33b 3546 47bd
000002e0: 2834 34bd 6489 aebc 8b1f c0bc 8050 a9bd
000002f0: 9600 12bd f71c dbbc f305 a8bc 5fcd 48bd
00000300: dbfd 02bd 2831 8cbd 9b96 61bc 6171 eb3c
00000310: 9c5b 4dbd cac5 53bd fae8 83bd ce35 8fbd
00000320: 6384 713d 70de 483d 0b3c 283d a8a0 2d3d
00000330: 6e9d 823d 3fe8 af3d 1d93 983d 7d63 823d
00000340: ea22 403d aa2f a63d a1a9 5d3d 4441 213d
00000350: f570 533d 4ae8 7d3d 5848 393d 5f83 e43c
00000360: 0e16 2f3d d5f7 9e3d b1d1 8f3d cbbf 553d
00000370: 1e1c 883d 5683 553d 6137 8b3d 3df4 e53c
00000380: 8a20 773d 2d04 573d 6c97 533d 1834 823d
00000390: d925 e53c a8cc 9c3d 75f9 833d 1d48 8c3d
000003a0: 3326 763d cf62 3d3d 6583 253d f5ba 86bb
000003b0: 71a3 8e3d bff0 473d 6ad5 333d 8675 813d
000003c0: edb1 623d 82cb 353d 15ea 703d 874f 283d
000003d0: d583 713d 9d73 283d c54f 773d a335 663d
000003e0: 5816 563d 2dc7 143d 85f7 873d 2bce 513d
000003f0: 9e0d 503d baa2 8f3d ae33 f23c cd50 313d
0.045657724 0.050476976 0.043197818 0.04873237 0.046917353 0.074904606 0.062842704 0.0550621
0.033425275 -0.03272265 0.060529344 0.029229127 0.05605379 0.051861394 0.051335998 0.029114954
0.054825783 0.06113231 0.08962947 0.043203276 0.05528173 0.055530038 0.058515076 0.030322809
0.050410178 0.042386193 0.04276716 0.05334298 0.03191395 0.06583015 0.043746002 0.058551524
0.051813155 0.037972223 0.051844873 0.006037138 0.047584128 0.058769777 0.04704348 0.05014964
0.06292716 0.050194446 0.04897064 0.05468799 0.050744176 0.06791895 0.050012376 0.043896593
0.059026875 0.036418345 0.055398177 0.055796485 0.063702345 0.057730235 0.034449093 0.046414554
0.040895235 0.047123313 0.05436778 0.04944535 0.05568699 0.037540004 0.059480064 0.045917805
0.05147369 0.0585939 0.059916694 0.0037174893 0.06363334 0.059103258 0.036668744 0.0554612
0.011625192 0.054329935 0.056351367 0.056541305 0.06638214 0.05771247 0.05494043 0.09803597
0.033050273 0.063526034 0.0037031742 0.030693786 0.049061544 0.032369208 0.009986251 0.06535348
0.038706515 0.037615713 0.042340897 0.056086335 0.042019248 0.06254558 0.025778288 0.039148305
0.057411846 0.057455573 0.045784634 0.069477454 -0.06491681 -0.04736012 -0.042289656 -0.046438728
-0.06784162 -0.096098736 -0.08024825 -0.07213968 -0.053781483 0.01301267 -0.05645369 -0.04730524
-0.05559215 -0.04561072 -0.047403775 -0.020416677 -0.04681624 -0.05602895 -0.08082821 -0.060802683
-0.07298812 -0.055787347 -0.07583323 -0.021133332 -0.06850287 -0.060484592 -0.061025735 -0.07063916
-0.02198031 -0.0833006 -0.07242489 -0.07619903 -0.06882858 -0.055221252 -0.04577635 -0.0035491316
-0.066014856 -0.053606585 -0.04188222 -0.07012047 -0.060399033 -0.047946107 -0.066921234 -0.047806937
-0.06682721 -0.039647497 -0.06819914 -0.06293563 -0.057513148 -0.027624533 -0.07342302 -0.055407442
-0.05704852 -0.07530222 -0.024488956 -0.042727876 -0.06839594 -0.06439956 -0.047801286 -0.065741494
-0.07331257 -0.028548582 -0.055163074 -0.06407255 -0.12941611 -0.051607344 -0.061006 0.007005246
-0.05649386 -0.052232444 -0.023718303 -0.052262437 -7.8666315e-05 -0.071255304 -0.07493058 -0.07381543
-0.0753547 -0.056207456 -0.054942556 -0.13115564 -0.022846201 -0.062895134 0.005974112 -0.04865094
-0.043995053 -0.021305747 -0.02345254 -0.08267307 -0.03564509 -0.02674721 -0.02051065 -0.049023982
-0.031980377 -0.06845313 -0.013768817 0.028740587 -0.050136194 -0.0517023 -0.06440921 -0.06992684
0.058964144 0.049040258 0.041072886 0.042389542 0.063776836 0.08589219 0.07449935 0.06366632
0.046908297 0.0811456 0.05411685 0.039368883 0.051621396 0.061989106 0.045235008 0.027894674
0.042745642 0.07762114 0.07022417 0.05218486 0.06645988 0.052127205 0.06797672 0.028070563
0.060333766 0.052494217 0.05165808 0.06357592 0.027972149 0.076562226 0.064440645 0.06849692
0.060095023 0.04623681 0.04040851 -0.0041116425 0.06964768 0.048813578 0.0439047 0.06321244
0.055345464 0.044383533 0.058816988 0.04109147 0.058963615 0.041125882 0.06037881 0.056203496
0.052267402 0.03632276 0.066390075 0.051222008 0.050794236 0.070134595 0.029565658 0.04328995

bias f4 [40]
00000000: 4f1f a33d e076 51bd 1a0c 953d 2f91 2cbd
00000010: 7e7a bb3d d584 743d 881c eb3c 4c37 403d
00000020: f4c8 e6bd ac88 da3d 7152 5b3d 7fe9 48bd
00000030: 8613 d83d d6e0 d03d aad3 8bbd f56a 9e3c
00000040: 5190 18bd 6e16 4abd fcf4 c53c e644 cb3c
00000050: 2381 f6bc 50bd a2bd 8e64 d23d 45b2 febc
00000060: d751 67bd 2950 c83d b72a fabd fd63 ad3c
00000070: 33e7 ab3d d617 953c 1e1e 93bd 4206 ca3d
00000080: 9bd0 10bd 7d38 5d3b f5e7 4dbd 4e25 813d
00000090: ea1c c8bd 552e 61bc f5bb c0bd cf06 57bd
0.07964956 -0.05113876 0.07277699 -0.042130645 0.09154223 0.05969699 0.028700128 0.046927735
-0.112687975 0.10670599 0.05354542 -0.049050804 0.10550599 0.10199134 -0.06827481 0.01933811
-0.037247006 -0.049337797 0.02416467 0.024813127 -0.030090874 -0.07946265 0.102730855 -0.031090865
-0.056474533 0.09780914 -0.122151785 0.021165842 0.08393707 0.018199842 -0.07183479 0.09864475
-0.03535519 0.0033755593 -0.05027004 0.063059434 -0.0977114 -0.013743957 -0.0941085 -0.052496728
