SERGIO_output/final_model_sums.pt (torch, 18702 bytes, 2 tensors)

weight f4 [40, 100]
00000000: 634b 85ba db29 a33d e845 983d 9a4a 943d
00000010: 3ae0 243c 172c 543b 2dbf 2c3c c99e c03b
00000020: dd2e 12bc f837 98bd 82d8 803d 0648 d5bc
00000030: fbf2 933d 954f 3a3c 3a9c 7a3d f9fe 993d
00000040: 4cfd 873d b8e4 963d c658 543d 776d 83bc
00000050: 1b21 b6bb 80e9 1d3d b370 463a 5f09 993d
00000060: 1fde 29bb f9a8 64bc 0d67 08bc ace8 6e3c
00000070: fc78 ac3d 0031 b53c 90a7 6cbc 7a9e 403b
00000080: 7ab5 18bb 6934 5dbc aed3 743d 2b3c 5e3d
00000090: 1032 283b 0a48 813d 1537 a23d 58d6 87bb
000000a0: 27ef 9b3d c798 893d eea1 6abc 9d19 883d
000000b0: 0b8b 1e3c 5902 ce3d 44ee 8abb dfa9 f3bb
000000c0: 5f44 753d dac1 aa3d f575 c2bb 0954 803d
000000d0: 3331 903d 7e64 af3b 09af b33d 2a94 a33d
000000e0: b5e8 16bc 6317 063c b240 853d 4139 ef3b
000000f0: 58d8 bcbb c704 ac3d 72df 913d 2f4a 09bb
00000100: d07c 1fbb b543 833d 2d1a 533d ba8d 473d
00000110: 82e2 903d 744a 883d 7c49 ae3d a8b7 863d
00000120: a802 4a3d 1bbe 743c bc7a 44bb 3705 b73c
00000130: a48f 643d 7e56 a63d dacb b53d e56a 113e
00000140: 9562 863d 4ec3 8a3d cdd2 373d a7e4 92bc
00000150: 21fb 913d 1e1c 8e3d 20bd 353d efc6 313c
00000160: 4572 953d fd15 893d 75fc e73d 5b58 8c3d
00000170: 63a0 8c3d e34e 883d 63fb 5e3d 4641 8d3d
00000180: aab4 7f3d 6773 803d 4d42 83bb 955e a23d
00000190: d21f d8bc 5cd4 99bd a1cb 91bd b27e 8cbd
000001a0: fae0 25bd 0a90 18bd a581 16bd 36b5 edbc
000001b0: 03d1 a8bc 34ed 0c3c ecba 6ebd 4d2e 9e3b
000001c0: c240 8bbd c13c 24bc b086 62bd e855 86bd
000001d0: 0c6f 63bd 9034 86bd d5c9 a6bc 96a6 13bc
000001e0: d580 a5bc 4c22 25bd 1162 c5bc fe9b 82bd
000001f0: f12e b1bc 967c 35bc ea49 87bc 18bd 12bd
00000200: 802f 93bd 3c5e 36bd f490 adbc f1ca e3bc
00000210: 829c a8bc 1e36 1abc 99d9 4ebd 345c 46bd
00000220: a03b f6bc 07e6 67bd 24e5 94bd 06d8 c1bc
00000230: 01f1 91bd 0d6a 81bd 2d5b 39bc c576 69bd
00000240: e4ce ebbc 4509 8fbd c531 aebc 98b3 99bc
00000250: c1bc 6bbd f0bc 96bd 71ef a5bc 88f5 7abd
00000260: ece4 79bd f332 03bd 6716 98bd 9d01 98bd
00000270: db79 c2bc 00ec eebc 9c83 61bd 9067 e5bc
00000280: 972f 9fbc 43d9 95bd 081a 83bd ee71 b4bc
00000290: 3eee a8bd d9e1 62bd 312a 57bd ca0c 11bd
000002a0: aaef 78bd 8917 6bbd 407b 91bd 8b5c 6fbd
000002b0: f504 10bd a964 16bd f25d c4bc a5fd 2cbd
000002c0: a0d4 84bd bfed a1bd 52e6 b6bd 759b 5abe
000002d0: fd5b 5bbd deab 85bd 1da0 09bd 6090 fdbb
000002e0: 6045 82bd eee7 5ebd d22a 61bd 7595 0fbd
000002f0: 5f75 8abd acfe 56bd b7a8 70bd 867e 74bd
00000300: 244d 68bd 1dce 90bd 69a1 27bd 1ddb 473a
00000310: 5ff6 55bd 9c4c 62bd 7901 b5bc 8b7b 9ebd
00000320: 6dac c43c f899 a03d e9ba 933d 207d 823d
00000330: 96e6 283d 7ea5 dc3b cf16 143d 98e0 983c
00000340: 40f6 953c 7a94 4d3e 556a 5e3d 17ec 40bc
00000350: 52bc 7d3d fc9f e23c b660 5f3d d340 a43d
00000360: 2240 453d 60f8 ab3d 8206 70bc 9228 493b
00000370: 3bdb 923c 78b1 143d 9723 883c 4eed 983d
00000380: b954 743c 3c53 9e3b a17d f93b 323c e33c
00000390: 05e1 a53d 4805 1c3d 9b57 793c e1f0 c33c
000003a0: 5943 543c 8237 9eb8 4883 223d 5de1 2e3d
000003b0: 7753 233d 95ab 4d3d d7fa 9b3d e91a 9f3c
000003c0: ff33 833d 037f 753d 2fba b53b 3f56 403d
000003d0: 6351 9b3c db25 933d b81b 973c c5e1 8c3c
000003e0: 3c5d 4a3d e140 b53d 7c0d 953c 0631 613d
000003f0: 9601 513d 7467 013d 903d a73d af7d 9a3d
-0.0010169562 0.07966968 0.074352086 0.072407916 0.010063225 0.0032374912 0.010543627 0.0058783037
-0.008922306 -0.0743255 0.062912956 -0.02603532 0.07224079 0.011371513 0.061184146 0.07519335
0.066401094 0.073678434 0.051842473 -0.016043408 -0.0055581457 0.03855276 0.0007569894 0.074724905
-0.0025919748 -0.013956302 -0.0083253505 0.0145818405 0.084215134 0.022118092 -0.014444247 0.0029391334
-0.0023301528 -0.013501265 0.059772186 0.0542566 0.0025664605 0.063125685 0.07920662 -0.004145425
0.07613974 0.06718593 -0.014320834 0.0664551 0.009676705 0.100590415 -0.0042398293 -0.0074360217
0.059879657 0.083377555 -0.0059344717 0.062660284 0.07040634 0.005352556 0.0877362 0.079872444
-0.009210755 0.008184287 0.0650648 0.0073005264 -0.005763095 0.08399349 0.07122697 -0.0020948758
-0.0024335869 0.064093985 0.051538635 0.048719145 0.07074453 0.06654826 0.0851011 0.065779984
0.04931894 0.014937903 -0.0029980382 0.022341354 0.05580105 0.08121966 0.08876772 0.14200933
0.06561772 0.06775533 0.04487877 -0.017931296 0.07127977 0.06938957 0.044369817 0.010850652
0.07297186 0.06693647 0.11327449 0.0685279 0.06866529 0.066556714 0.05443896 0.068972155
0.062428154 0.06272011 -0.0040057064 0.07928196 -0.02638236 -0.075112075 -0.07118917 -0.06860103
-0.040497757 -0.03724674 -0.036744732 -0.029017072 -0.020607477 0.0086014755 -0.05828373 0.004827297
-0.06799461 -0.0100242505 -0.05530423 -0.06559354 -0.055525824 -0.06552994 -0.020359913 -0.009011885
-0.020203033 -0.04031591 -0.024094613 -0.063774094 -0.021628829 -0.011077067 -0.016514737 -0.035824865
-0.07186794 -0.044523463 -0.021187283 -0.027806731 -0.020582441 -0.009412317 -0.050500486 -0.048427776
-0.030057728 -0.056615856 -0.072702676 -0.023662578 -0.07126046 -0.06319056 -0.011313242 -0.056998033
-0.028785177 -0.0698419 -0.021263966 -0.018762395 -0.057553057 -0.07360256 -0.020255776 -0.061269313
-0.061009333 -0.03203101 -0.07426148 -0.07422183 -0.023739746 -0.029165268 -0.055057153 -0.028003484
-0.019431872 -0.0731683 -0.064014494 -0.022026982 -0.08248566 -0.055391166 -0.05253047 -0.035412587
-0.060775436 -0.05739549 -0.07103586 -0.058437865 -0.035160977 -0.03671709 -0.023970578 -0.04223408
-0.064858675 -0.079066746 -0.08930649 -0.21348365 -0.053554524 -0.06526922 -0.03359996 -0.007738158
-0.063608885 -0.054420404 -0.054972477 -0.035054643 -0.06760668 -0.052488968 -0.05875465 -0.059690975
-0.056714192 -0.07070563 -0.040925417 0.0007623898 -0.05223691 -0.05524884 -0.022095429 -0.07738408
0.024008 0.07841867 0.07213385 0.06371522 0.04123553 0.0067335954 0.036154564 0.018661782
0.018305898 0.2007617 0.054300625 -0.011775038 0.061947174 0.027664177 0.05453559 0.08020177
0.048156865 0.08396983 -0.014649989 0.0030694348 0.017926803 0.03630206 0.016618533 0.07467137
0.014912778 0.0048316997 0.007613853 0.027738664 0.0809956 0.038090974 0.015218641 0.023918571
0.01295551 -7.544366e-05 0.03967598 0.042695392 0.03987452 0.05021246 0.07616203 0.019422011
0.06406402 0.05993558 0.0055458765 0.04695725 0.018959707 0.07184955 0.018445835 0.017197499
0.04940532 0.08850265 0.018194906 0.054978393 0.051026903 0.0315928 0.08166039 0.075435035

bias f4 [40]
00000000: 8af8 bf3d 8482 80bd 8f7d ac3d 8ef0 4cbd
00000010: 9758 d23d 5491 913d b136 453d 22a8 553d
00000020: f265 ffbd 67ee 003e 8a61 883c 61c4 35bd
00000030: 8523 f23d bcc1 e03d f531 a1bd aa7b e23c
00000040: 5334 3ebd 3081 8abd 30c8 123c cacf 003d
00000050: 7d35 a2bc de76 bbbd d93f ec3d 90cf 12bd
00000060: d63e 95bd dfe5 d43d b40a 09be 8d1a a53c
00000070: 5172 c43d a858 da3c a607 9cbd e4a6 d53d
00000080: 9bbb d4bc 3104 123b 9296 febc 0d6a 943d
00000090: df31 e0bd a97a d138 c789 dabd a562 77bd
0.09373577 -0.06274894 0.08422386 -0.0500341 0.102708034 0.07107797 0.04814786 0.052162297
-0.124706164 0.12590943 0.016648073 -0.044376735 0.11823181 0.10974452 -0.07870857 0.027646858
-0.04643662 -0.06762922 0.008958861 0.031448163 -0.019800896 -0.091535315 0.115356155 -0.03584248
-0.07287376 0.10395407 -0.13382989 0.020154262 0.095921166 0.026653603 -0.07618646 0.104322225
-0.025968364 0.002228033 -0.031077657 0.0724679 -0.10947012 9.988744e-05 -0.1067081 -0.06039681
