SERGIO_output/final_model_prods.pt (torch, 18708 bytes, 2 tensors)

weight f4 [40, 100]
0	0x3e4941bf	0.19653986
1	0xbd735a54	-0.059412315
2	0xbd122066	-0.03567543
3	0xbd237a8e	-0.0399118
4	0x3e328a03	0.1743546
5	0x3e1e936a	0.15485922
6	0x3e4e01f2	0.2011793
7	0x3e4c875b	0.19973509
8	0x3e4b9ad1	0.19883277
9	0xbdf4775e	-0.1193683
10	0xbcd89239	-0.026436912
11	0x3e1a5a48	0.15073502
12	0xbd798687	-0.06091931
13	0x3e357650	0.17720914
14	0xbcb63d85	-0.022246132
15	0xbddc7b10	-0.1076566
16	0xbda0fae9	-0.07860357
17	0xbd91fb5b	-0.071280204
18	0x3e5b2cce	0.2140381
19	0x3e4dc436	0.2009438
20	0x3e541ee5	0.2071491
21	0x3d8a5a88	0.06755549
22	0x3e51c419	0.20484962
23	0xbd68d3c8	-0.056842595
24	0x3e4df790	0.20113969
25	0x3e4c4f0b	0.19952027
26	0x3e411cb4	0.18858606
27	0x3e2e1ed3	0.17003946
28	0xbde763fc	-0.112983674
29	0x3e36e606	0.17861184
30	0x3e4ef04f	0.20208858
31	0x3e4bd2a7	0.19904576
32	0x3e4cc9af	0.19998811
33	0x3e4d45d9	0.20046176
34	0xbc858cd4	-0.016302504
35	0xbe221a62	-0.15830377
36	0x3e4831c4	0.19550234
37	0xbd588c25	-0.052868027
38	0xbd47321d	-0.048631776
39	0x3e4a24e0	0.19740629
40	0xbd830610	-0.06397641
41	0xbd8daeea	-0.06918128
42	0x3e4fea45	0.2030421
43	0xbd55ef63	-0.05223025
44	0x3e2ae986	0.16690645
45	0xbd82ae33	-0.06380882
46	0x3e4f1cba	0.20225802
47	0x3e4bdfbe	0.1990957
48	0x3c79aac5	0.015238469
49	0xbdc650af	-0.09683358
50	0x3e4ef315	0.20209916
51	0xbd205e36	-0.039152347
52	0xbcf37cf0	-0.02972266
53	0x3e4ade7f	0.19811438
54	0xbdee3eee	-0.11633097
55	0xbda8cb86	-0.08241944
56	0x3e49bca5	0.19700868
57	0x3e3a449e	0.18190238
58	0xbd4745e1	-0.048650626
59	0x3e2bf9cd	0.1679451
60	0x3e52c542	0.2058306
61	0xbdc5745e	-0.09641336
62	0xbdaf6cf2	-0.085657015
63	0x3dfad639	0.12247891
64	0x3e48c72e	0.19607231
65	0xbd0488b6	-0.03235694
66	0x3ca56e7e	0.020194288
67	0xbe1ffd50	-0.15623975
68	0xbd643ef7	-0.05572411
69	0xbd9d510c	-0.07681474
70	0xbdf35eb9	-0.11883301
71	0xbd5fa1fd	-0.054597843
72	0xbe1677a1	-0.14694072
73	0x3e3ef5db	0.18648474
74	0x3e501ef3	0.20324306
75	0x3e2af0a1	0.16693355
76	0x3d9bdc55	0.076103844
77	0xbd25f638	-0.040518016
78	0x3bc39b70	0.0059694573
79	0x3d7b240e	0.06131368
80	0xbdfe6976	-0.12422459
81	0xbca8d8ce	-0.020611193
82	0xbe20abfb	-0.15690605
83	0x3e4b2aaf	0.19840501
84	0xbd9750f1	-0.07388485
85	0xbdee9000	-0.116485596
86	0xbdd0c704	-0.10194209
87	0x3e3b67e1	0.18301345
88	0xbd724cd1	-0.05915529
89	0xbdf2bf4f	-0.118528955
90	0xbda4bc49	-0.08043725
91	0xbd820ac5	-0.063497104
92	0xbdf00581	-0.117198
93	0xbcae08fc	-0.021244518
94	0xbe04cd3e	-0.12968919
95	0xbdebcc6e	-0.11513601
96	0xbd393ab1	-0.045221988
97	0xbd7eb180	-0.062180996
98	0x3e52de88	0.20592701
99	0xbcc6e06c	-0.024276935
100	0x3d330274	0.04370351
101	0x3a517c33	0.00079912244
102	0x3abc64f5	0.0014373349
103	0x3c2ac29d	0.010422376
104	0x3d677bd8	0.05651459
105	0xbc8f1476	-0.017465811
106	0x3d5c26f0	0.05374807
107	0x3da26cb7	0.07930892
108	0x3d29f351	0.04149181
109	0xbdc8a618	-0.09797305
110	0xbc565a4e	-0.013083054
111	0x3d2d9294	0.042376116
112	0x3c8dcb90	0.01730898
113	0x3d4d279a	0.050086595
114	0x3c8978f4	0.016781308
115	0xbb1b2bd6	-0.0023677251
116	0x3c40e06c	0.011772256
117	0x3c87f246	0.016595017
118	0x3e805f26	0.25072592
119	0x3d3a8b9d	0.0455433
120	0x3d5194f7	0.051167455
121	0x3ceff0be	0.0292896
122	0x3d55917e	0.052140705
123	0xbbc8b5cf	-0.006125189
124	0x3d50adbf	0.050946947
125	0x3df09c1b	0.11748525
126	0x3d1cb128	0.038254887
127	0x3d3f3c66	0.04668846
128	0xba4b3a08	-0.0007752483
129	0x3d66783e	0.056267016
130	0x3d540620	0.051763654
131	0x3d5fee0c	0.05467038
132	0x3d4348fa	0.047677018
133	0x3d274fd3	0.04084761
134	0x3cd86d74	0.026419379
135	0xbd53628c	-0.051607653
136	0x3d4eef2c	0.05052106
137	0x3c80a465	0.01570339
138	0x3c021944	0.007940594
139	0x3d3a0a51	0.045419995
140	0x3c900873	0.017582154
141	0xbba3c520	-0.0049978644
142	0x3d50492d	0.050851036
143	0x3c86fb40	0.016477227
144	0x3d443aeb	0.04790775
145	0x3c257191	0.010097877
146	0x3d2acd8f	0.041699942
147	0x3d2df560	0.042470336
148	0x3cbe46fd	0.02322721
149	0x3c361549	0.011113473
150	0x3d5733e4	0.05253972
151	0x3cd51784	0.02601219
152	0x3cd6bd82	0.026213411
153	0x3d444284	0.047914997
154	0x3ab1ca28	0.0013564276
155	0xbbde3c1e	-0.006782069
156	0x3d1f2db2	0.038861938
157	0x3d31a16d	0.04336684
158	0x3c7dd3f4	0.015492428
159	0x3d4b0b9b	0.049571615
160	0x3d608aed	0.05481999
161	0x3bfcfffe	0.0077209463
162	0x3c09462f	0.0083785495
163	0x3d397bf1	0.045284215
164	0x3d2e8ae2	0.042612918
165	0x3dc12857	0.09431522
166	0xbd23c9cf	-0.03998738
167	0xbd558491	-0.05212838
168	0x3cb45a06	0.022015583
169	0x3c5b7562	0.013394685
170	0x399f9988	0.00030441233
171	0xbd2f5458	-0.042805046
172	0xbd39766e	-0.04527896
173	0x3d54accb	0.0519226
174	0x3d52d92c	0.051476642
175	0x3d2b37b9	0.04180119
176	0x3ccca8e4	0.024982877
177	0x3bf54ada	0.0074857296
178	0x3ccf8b28	0.02533491
179	0x3dde8025	0.108642854
180	0xbc6925fc	-0.014230248
181	0x3cb72740	0.022357583
182	0xbd6cc867	-0.057808306
183	0x3d26ef19	0.040755365
184	0x3d25e9ff	0.04050636
185	0xbc94b8c2	-0.018154506
186	0x3d678170	0.056519926
187	0x3d773821	0.060356263
188	0x3b47c753	0.0030483797
189	0xbc3442de	-0.0110022705
190	0xbb7be8f9	-0.0038438423
191	0x3c81a05d	0.015823537
192	0xbc3d10bb	-0.011539633
193	0x3c9b914e	0.018990185
194	0xbcb8c8b5	-0.022556642
195	0xbc718399	-0.014740848
196	0x3cc93acb	0.024564167
197	0x3c77270a	0.015084991
198	0x3d53f9ab	0.051751774
199	0x3ccc8d2f	0.024969665
200	0x3e5a2f9b	0.21307223
201	0xbda9f518	-0.08298701
202	0xbd7765a4	-0.060399666
203	0xbdb93659	-0.09043569
204	0x3e418b16	0.18900713
205	0x3e3b931b	0.18317835
206	0x3e5ecfcf	0.2175896
207	0x3e5d9457	0.21638618
208	0x3e5c2d20	0.21501589
209	0xbe205450	-0.15657163
210	0xbd93cf51	-0.07217277
211	0x3e522d54	0.20525104
212	0xbdb84fd0	-0.08999598
213	0x3e450556	0.19240317
214	0xbdac3d4e	-0.084101304
215	0xbe1c0c27	-0.15239011
216	0xbde65824	-0.1124728
217	0xbdd56e77	-0.1042146
218	0x3e5dce89	0.21660818
219	0x3e5fb0cb	0.21844785
220	0x3e649f61	0.22326423
221	0x3cb58fe0	0.022163332
222	0x3e779273	0.2417696
223	0xbe2452cf	-0.16047214
224	0x3e6030cf	0.21893619
225	0x3e5ee4dc	0.2176699
226	0x3e80923b	0.25111565
227	0x3e402006	0.18762216
228	0xbe196d0b	-0.14983003
229	0x3e439f3d	0.19103713
230	0x3e5fa183	0.21838956
231	0x3e5c999c	0.21542972
232	0x3e5d0595	0.2158416
233	0x3e5fec91	0.21867587
234	0xbd6679fd	-0.05626868
235	0xbe36741d	-0.17817731
236	0x3e5735c5	0.21016605
237	0xbdb982ae	-0.09058128
238	0xbda54483	-0.08069708
239	0x3e5aa817	0.21353184
240	0xbdbbce5e	-0.09170221
241	0xbdb138f6	-0.086534426
242	0x3e60b7a5	0.21945055
243	0xbdb0b5d3	-0.0862843
244	0x3e3e90f5	0.18609984
245	0xbdc481d1	-0.09595073
246	0x3e60120e	0.21881887
247	0x3e609f9d	0.21935888
248	0xbd4c7dab	-0.049924534
249	0xbe1339a6	-0.1437746
250	0x3e605311	0.21906687
251	0xbd8f42b3	-0.06995144
252	0xbdc434f1	-0.0958041
253	0x3e5a2ae3	0.21305422
254	0xbe44d9a6	-0.19223651
255	0xbdf102ba	-0.11768098

bias f4 [40]
0	0x3dcb3df7	0.09923928
1	0xbc8c6d79	-0.017142044
2	0x3e26b72b	0.1628081
3	0xbc43daf6	-0.01195406
4	0x3c8393cc	0.016061686
5	0x3e005363	0.1253181
6	0x3e303d42	0.17210868
7	0x3dcd2990	0.10017693
8	0x3d870e33	0.06594505
9	0x3cbb4fa4	0.022865124
10	0x3d8dfaf4	0.06932631
11	0x3d634835	0.055488784
12	0x3da00b3a	0.07814641
13	0x3e69120f	0.22760795
14	0x3e7847ce	0.24246141
15	0x3cce78c8	0.025204077
16	0x3db40e86	0.087918326
17	0x3d94d4e1	0.07267166
18	0x3d9a9796	0.07548444
19	0x3da18ec1	0.07888556
20	0x3d9e5a59	0.07732076
21	0x3ca920dc	0.020645551
22	0x3e0a192c	0.13486165
23	0x3dd5fb64	0.104483396
24	0x3dc3a8bb	0.09553667
25	0xbd2cfb3f	-0.042231794
26	0x3d6cbc82	0.057796963
27	0x3e0f5651	0.13997771
28	0x3e55125f	0.2080779
29	0x3da07488	0.078347266
30	0x3e58aec6	0.21160421
31	0x3e885bce	0.2663254
32	0x3de0d62f	0.10978352
33	0x3e018e95	0.12652047
34	0x3cb9c494	0.022676744
35	0x3b523787	0.0032076554
36	0xbc2c31f1	-0.010509954
37	0x3dade285	0.08490471
38	0x3e73b8d4	0.23800975
39	0x3e49ba62	0.19700006
